Discriminator.pth (torch, 46014 bytes, 13 tensors)

rnn.weight_ih_l0 f4 [72, 24]
0.04027095 0.05735845 0.2583031 0.049091637 -0.050694533 -0.011670481 0.2482271 0.23032755
0.31937584 0.24246742 0.15055175 0.18626265 0.12527783 0.33117777 0.10946849 0.16798079
0.35657015 -0.081617236 0.0046360707 0.26526344 0.19757861 -0.09913618 0.20225607 0.06356942
-0.08765083 -0.17911226 -0.23367712 -0.17075348 -0.19980036 -0.024208039 -0.032485615 -0.024611196
-0.19082864 -0.20513026 -0.019522443 0.030986033 -0.07867789 -0.05636016 -0.105852656 -0.030757636
0.02496015 -0.26280615 0.07822909 -0.0029119388 -0.08246468 -0.09736901 -0.19516695 -0.28597796
0.290076 0.25810936 0.32820264 0.29260406 0.16985627 0.30294698 0.17100334 0.17365706
-0.15717518 0.2727783 0.14766683 -0.009774902 0.1830633 0.28577435 0.019508408 0.27539575
0.00078580616 0.15570122 0.28443062 0.248886 0.108143374 0.248835 0.22406204 0.26763958
0.11188518 0.2681192 0.053104363 0.2064008 0.34861237 0.35168448 0.1347341 0.2597043
0.07173041 0.15428163 -0.1372134 0.07526169 -0.37441754 0.30840105 0.2750479 -0.2511367
0.123645075 0.103859015 0.18448204 0.15627614 0.37058228 0.12763803 0.1968259 -0.124435656
0.14909773 0.17769839 -0.028981468 0.46892548 0.29689875 0.5252874 0.050101645 0.03286474
-0.009282013 0.25633043 -0.14216335 0.10929201 0.09181847 0.06933577 0.34226212 0.11226841
0.05136427 0.086955234 0.045091778 0.115538806 0.15396582 0.14956813 0.07102975 -0.29010883
0.19143079 0.17713465 -0.2843876 0.16469848 0.13642581 0.21455552 0.0064204754 -0.015209652
0.027600484 0.36970225 0.17278065 0.23575445 -0.11784056 0.06370634 0.12073265 -0.289165
-0.22329025 0.051223334 0.11891105 0.068292014 0.30116954 0.2567663 -0.019691225 -0.21002288
0.08991521 -0.054016557 0.09880815 0.09651278 0.3774593 0.319871 0.24176946 -0.14519708
-0.060328756 0.13543308 -0.12989555 0.242228 -0.36255738 0.21144632 -0.0051273042 -0.16897178
-0.17005642 0.04597038 -0.0005209216 0.12927997 -0.058724042 0.08672158 -0.14223419 -0.17368743
0.36142552 0.40187973 0.13058364 0.45598224 0.35904765 0.14777918 0.40880173 0.25003427
0.10436818 0.17461671 0.22457749 0.41687274 0.07424377 0.2910919 0.4064679 0.09465249
0.39961776 0.26627833 0.2870671 0.3382101 0.49426252 0.28319487 0.15604909 0.21955788
0.37146708 0.27302843 0.15554872 0.43544146 0.17633082 0.66894305 0.0676394 0.16053501
-0.041438535 0.33623195 0.070490085 0.021934938 -0.45020476 0.18221946 0.027425734 -0.2839922
-0.109641515 -0.19740668 0.22279975 0.23703778 0.116252616 0.17119232 0.03568396 -0.08528167
0.15059616 0.091060445 0.09834307 -0.118990324 -0.030246494 0.03766722 -0.12466885 0.12316608
0.29234597 -0.21355572 0.04022204 0.032460384 0.33662975 0.022090701 -0.063393734 0.13200031
0.1333923 0.117047004 0.09684789 -0.020257417 0.15874209 0.057322633 0.076691955 -0.0073398035
0.10630259 0.21134044 0.12751296 0.2823543 0.3949684 0.18953991 0.07110177 -0.12435407
0.009353223 0.35889012 -0.25248584 0.23546728 0.12809047 -0.03484086 -0.039635856 0.08897171
00000000: 27f3 243d b2f0 6a3d 4e40 843e 5014 493d
00000010: 12a5 4fbd 8c35 3fbc 3f2f 7e3e fcda 6b3e
00000020: 3b85 a33e 6149 783e 3d2a 1a3e a3bb 3e3e
00000030: d548 003e 2290 a93e 0431 e03d 2803 2c3e
00000040: 5d90 b63e f026 a7bd 2eea 973b 9cd0 873e
00000050: 0c52 4a3e e907 cbbd 371c 4f3e af30 823d
00000060: 4782 b3bd 3469 37be 0e49 6fbe 00da 2ebe
00000070: 7798 4cbe f04f c6bc a30f 05bd 6b9d c9bc
00000080: 9568 43be ab0d 52be 88ed 9fbc 6cd6 fd3c
00000090: e021 a1bd e9d9 66bd 47c9 d8bd 70f7 fbbc
000000a0: 3a79 cc3c 878e 86be 9336 a03d 3ad6 3ebb
000000b0: 3ee3 a8bd 6769 c7bd d8d9 47be b46b 92be
000000c0: d784 943e e926 843e 2d0a a83e 33d0 953e
000000d0: cdee 2d3e de1b 9b3e 801b 2f3e 28d3 313e
000000e0: 88f2 20be 99a9 8b3e f935 173e e926 20bc
000000f0: f274 3b3e 0451 923e 19d0 9f3c ac00 8d3e
00000100: 8ffe 4d3a 2470 1f3e e4a0 913e f9db 7e3e
00000110: 467a dd3d 9ace 7e3e 8570 653e 0e08 893e
00000120: 0f24 e53d eb46 893e f683 593d bb5a 533e
00000130: 527d b23e fd0f b43e bcf7 093e f6f7 843e
00000140: 65e7 923d 01fc 1d3e ab81 0cbe cd22 9a3d
00000150: a8b3 bfbe bee6 9d3e 14d3 8c3e fd94 80be
00000160: a139 fd3d 09b4 d43d dce8 3c3e da06 203e
00000170: f6bc bd3e 8bb3 023e bb8c 493e 1fd8 febd
00000180: 13ad 183e 91f6 353e 8b6a edbc 0017 f03e
00000190: 1d03 983e 3c79 063f 6237 4d3d 2d9d 063d
000001a0: 9613 18bc be3d 833e 4593 11be 7dd4 df3d
000001b0: 520b bc3d eaff 8d3d fb3c af3e fbec e53d
000001c0: 5763 523d 9615 b23d 28b2 383d 9c9f ec3d
000001d0: 37a9 1d3e 6328 193e 0c78 913d 2589 94be
000001e0: 6f06 443e c962 353e 409b 91be b8a6 283e
000001f0: 35b3 0b3e 71b4 5b3e da62 d23b e731 79bc
00000200: 691a e23c 9d49 bd3e 69ed 303e 9d69 713e
00000210: 6456 f1bd 7878 823d ae42 f73d 6f0d 94be
00000220: 33a6 64be 8fcf 513d a387 f33d afdc 8b3d
00000230: e532 9a3e df76 833e 7e4f a1bc 3d10 57be
00000240: 7725 b83d 7740 5dbd ed5b ca3d 7ea8 c53d
00000250: 5842 c13e 22c6 a33e 6a92 773e 8bae 14be
00000260: 491b 77bd f8ae 0a3e 5703 05be 9e0a 783e
00000270: 1fa1 b9be 6285 583e f202 a8bb f006 2dbe
00000280: 4523 2ebe 704b 3c3d 758e 08ba f861 043e
00000290: 9f88 70bd 159b b13d d7a5 11be 1edb 31be
000002a0: c40c b93e 2ec3 cd3e b8b7 053e 8176 e93e
000002b0: 18d5 b73e 6d53 173e 764e d13e 7e04 803e
000002c0: fcbe d53d b9ce 323e a4f7 653e 5870 d53e
000002d0: 1e0d 983d ff09 953e 901c d03e 2ad9 c13d
000002e0: b39a cc3e a255 883e 75fa 923e e029 ad3e
000002f0: fa0f fd3e ebfe 903e 55cb 1f3e c8d3 603e
00000300: ef30 be3e 62ca 8b3e 2a48 1f3e 2ff2 de3e
00000310: 1190 343e da3f 2b3f 8786 8a3d 4a63 243e
00000320: 74bb 29bd 9826 ac3e 1b5d 903d e6b0 b33c
00000330: 3d81 e6be bd97 3a3e efab e03c 6d67 91be
00000340: bb8b e0bd fa24 4abe 9e25 643e 08ba 723e
00000350: da15 ee3d 0a4d 2f3e 5829 123d 28a8 aebd
00000360: e135 1a3e e67d ba3d 1768 c93d 33b1 f3bd
00000370: 7fc7 f7bc f148 1a3d 6252 ffbd 7f3e fc3d
00000380: 5fae 953e 5aae 5abe debf 243d 2ef5 043d
00000390: bc5a ac3e 8ff7 b43c 93d4 81bd 172b 073e
000003a0: fe97 083e 57b6 ef3d 3058 c63d e2f2 a5bc
000003b0: 498d 223e 23cb 6a3d ac10 9d3d bc82 f0bb
000003c0: 2cb5 d93d a169 583e c292 023e be90 903e
000003d0: 4c39 ca3e c016 423e ce9d 913d 59ad febd
000003e0: 433e 193c 72c0 b73e d345 81be 561e 713e
000003f0: 262a 033e 4ab5 0ebd 3559 22bd cd36 b63d

rnn.weight_hh_l0 f4 [72, 24]
-0.16520117 -0.27983025 -0.060937434 0.31721833 -0.2963173 0.3189115 0.20469765 -0.09892912
-0.025332509 0.2258268 -0.42200327 0.0010438763 0.008963508 -0.11742538 0.116586156 0.2227376
-0.34840888 -0.23551649 0.31500885 -0.37586242 0.28791186 0.086714074 0.034466755 0.258752
-0.09279866 -0.2301786 -0.038763307 0.17345311 -0.008468585 -0.057982277 0.10202735 0.26750425
0.062716 -0.1105253 -0.053330638 0.23571151 0.17332639 0.15140499 0.021151004 0.05110767
0.019669812 -0.02393842 0.2358268 0.08022582 0.26949805 0.15997362 0.121057756 -0.14988856
0.13098735 0.13217258 -0.022499802 -0.032935064 0.067794904 -0.08282817 0.20700982 0.03194426
0.25663692 -0.14519721 0.19216113 0.119284235 -0.040412 -0.0016965903 -0.032211743 -0.17702976
0.2570525 0.14818752 -0.07988453 0.23334071 -0.098370455 -0.11086558 -0.0047481162 -0.08684199
0.09307626 0.06139057 -0.042942137 -0.18690126 -0.0139513025 -0.0119409645 -0.21030557 0.12081976
-0.01877002 -0.25639993 0.28548512 0.29944253 -0.008719911 -0.009554775 -0.18211187 -0.42346707
0.12819162 0.11125992 0.032211643 0.043651696 -0.35650662 0.34003997 -0.18840964 0.034157295
0.37750372 0.41656163 0.20248316 0.3887368 -0.2836819 0.22189002 0.025569325 -0.117061
-0.2796393 -0.18848367 0.384877 0.012046315 -0.0420324 0.11417076 0.2321469 -0.34898806
0.22924331 0.60825276 -0.50250304 -0.23709802 -0.46000844 0.28187016 -0.6291466 0.30230546
-0.13811482 -0.18627736 -0.024828233 -0.20147976 0.239266 0.07322763 -0.117352135 0.23117818
0.25786296 -0.07005773 -0.09946333 0.04840172 -0.07478445 0.3257192 -0.29740405 -0.13710336
-0.2522344 -0.13744003 0.2997909 0.21050052 0.3277096 0.18271922 0.09502879 -0.11038886
0.30874845 0.10083549 0.25498855 0.409781 -0.003908506 0.29375386 0.041959394 -0.24405695
-0.17029487 -0.3754133 0.14323014 0.17019883 0.13470796 0.23125151 -0.062438373 -0.36613345
0.1905311 0.03495995 -0.14339559 0.02210375 -0.21798767 0.08371344 -0.2170643 0.08344099
0.48295474 0.6291696 0.25590703 0.35574734 -0.19404729 -0.08433876 -0.2414324 -0.33827925
0.007483601 -0.5186912 0.1631486 0.15227373 -0.00042410445 0.368386 0.42461523 -0.3252708
0.2591558 0.14500308 -0.49656302 0.042605687 -0.43337077 0.42449942 -0.44214296 0.19640495
0.41550723 0.39561215 0.44401103 0.10432159 -0.27088168 0.2613899 -0.16408627 -0.48481756
0.019639982 -0.4347643 0.35098782 0.29980367 -0.23525888 0.15991363 0.3324969 -0.19479814
0.6001112 0.2699348 -0.340019 -0.25968185 -0.34572294 0.3655779 -0.26375863 0.041190695
0.0097988425 0.08634488 -0.15344927 -0.08099338 -0.09542896 0.041344076 0.17205115 0.10968952
-0.17451373 -0.048830505 -0.391793 -0.1981924 0.30730912 -0.12979965 -0.09555219 -0.21441223
0.041463632 -0.15917814 0.018042672 0.08108205 0.08478648 -0.14797519 -0.15394652 0.15306336
0.21140684 0.29955295 -0.04844027 0.07403446 0.03162604 0.06926695 0.23473781 -0.046111975
-0.17857283 -0.19803041 -0.20062204 -0.28396982 0.14964099 -0.23515438 0.19481543 -0.19937676
00000000: 7f2a 29be e945 8fbe 8899 79bd 716a a23e
00000010: e7b6 97be 5e48 a33e 439c 513e 5a9b cabd
00000020: 1f86 cfbc 243f 673e d010 d8be add2 883a
00000030: addb 123c b87c f0bd b9c4 ee3d 5315 643e
00000040: a662 b2be 3c2b 71be d748 a13e 0a71 c0be
00000050: 2f69 933e 2697 b13d 032d 0d3d 247b 843e
00000060: 390d bebd f0b3 6bbe 46c6 1ebd b19d 313e
00000070: d2bf 0abc d37e 6dbd b7f3 d03d 51f6 883e
00000080: 3f71 803d 175b e2bd 3a71 5abd 5c5e 713e
00000090: 797c 313e e909 1b3e df44 ad3c 4756 513d
000000a0: 9622 a13c 811a c4bc 957c 713e 6f4d a43d
000000b0: a6fb 893e 20d0 233e 21ed f73d 637c 19be
000000c0: 8c21 063e 4058 073e 8151 b8bc ebe6 06bd
000000d0: 0ed8 8a3d d1a1 a9bd 62fa 533e fcd7 023d
000000e0: ea65 833e 94ae 14be e3c5 443e 4b4b f43d
000000f0: 0e87 25bd 2060 deba 76f0 03bd 4a47 35be
00000100: 639c 833e 78be 173e 809a a3bd def0 6e3e
00000110: 7376 c9bd 7e0d e3bd 1696 9bbb 37da b1bd
00000120: c49e be3d ae74 7b3d 18e4 2fbd 0b63 3fbe
00000130: 0194 64bc 09a4 43bc 585a 57be 5a70 f73d
00000140: 96c3 99bc da46 83be 1b2b 923e 8850 993e
00000150: f5dd 0ebc a28b 1cbc 897b 3abe add0 d8be
00000160: aa44 033e 3edc e33d 5bf0 033d 1fcc 323d
00000170: 0988 b6be b819 ae3e 75ee 40be 85e8 0b3d
00000180: 2b48 c13e 9147 d53e bf57 4f3e 8308 c73e
00000190: c13e 91be 2337 633e c376 d13c adbd efbd
000001a0: e22c 8fbe dd01 41be 990e c53e e85d 453c
000001b0: 2a2a 2cbd 5cd2 e93d ebb7 6d3e 90ae b2be
000001c0: c2be 6a3e 74b6 1b3f 0aa4 00bf d3c9 72be
000001d0: 3a86 ebbe 4951 903e c00f 21bf c8c7 9a3e
000001e0: f96d 0dbe 7ebf 3ebe 9464 cbbc b650 4ebe
000001f0: 2502 753e 5ef8 953d 5156 f0bd f9b9 6c3e
00000200: 9d06 843e 6d7a 8fbd 6eb3 cbbd e240 463d
00000210: 9728 99bd abc4 a63e 5845 98be d364 0cbe
00000220: de24 81be 14bd 0cbe 317e 993e 738d 573e
00000230: 8dc9 a73e bf1a 3b3e 749e c23d 8e13 e2bd
00000240: 4714 9e3e d682 ce3d dc8d 823e d1ce d13e
00000250: ed12 80bb e866 963e 9ddd 2b3d 11ea 79be
00000260: c761 2ebe 2c36 c0be ecaa 123e 9a48 2e3e
00000270: e2f0 093e 32cd 6c3e 61bf 7fbd d875 bbbe
00000280: 961a 433e 2a32 0f3d 4bd6 12be ec12 b53c
00000290: 2938 5fbe f471 ab3d 1b46 5ebe 1ce3 aa3d
000002a0: d845 f73e 4211 213f 3f06 833e 8424 b63e
000002b0: 55b4 46be cdb9 acbd 0e3a 77be f032 adbe
000002c0: ff38 f53b f2c8 04bf 6d10 273e a5ed 1b3e
000002d0: 565a deb9 179d bc3e 2b67 d93e e589 a6be
000002e0: 12b0 843e b07b 143e 823d febe 4d83 2e3d
000002f0: c6e2 ddbe fd57 d93e 9060 e2be 611e 493e
00000300: 5dbd d43e ad8d ca3e 6a55 e33e 8fa6 d53d
00000310: 01b1 8abe e6d4 853e 3b06 28be 023a f8be
00000320: 07e4 a03c 6d99 debe adb4 b33e de7f 993e
00000330: b4e7 70be 66c0 233e 093d aa3e 2a79 47be
00000340: e3a0 193f e534 8a3e f816 aebe 05f5 84be
00000350: 9902 b1be 072d bb3e 5f0b 87be 93b7 283d
00000360: 538b 203c 96d5 b03d ce21 1dbe dbdf a5bd
00000370: 4270 c3bd 6858 293d 2d2e 303e e6a4 e03d
00000380: bab3 32be 7f02 48bd 1899 c8be f3f2 4abe
00000390: 9f57 9d3e 33ea 04be deb0 c3bd e18e 5bbe
000003a0: c5d5 293d 98ff 22be 3ace 933c 590e a63d
000003b0: 89a4 ad3d cf86 17be 28a4 1dbe a4bc 1c3e
000003c0: 097b 583e 015f 993e 4e69 46bd 619f 973d
000003d0: 4e8a 013d d5db 8d3d 1c5f 703e e9df 3cbd
000003e0: ccdb 36be 7cc8 4abe dd6f 4dbe 7e64 91be
000003f0: 7d3b 193e 4fcc 70be b27d 473e 6c29 4cbe

rnn.bias_ih_l0 f4 [72]
0.021336032 -0.21253441 -0.007133036 0.022247467 0.45606893 0.09260192 0.16145766 0.42543724
0.26680443 0.0801783 0.024158185 0.2670131 -0.097463295 0.12369924 0.10005992 0.1566967
-0.032377537 0.27757487 0.1140041 0.14936115 -0.13286537 -0.14302585 -0.045818143 -0.14397997
-0.42891443 -0.36452642 -0.22374332 -0.40421808 -0.39305574 -0.30147213 -0.5424356 -0.29925695
-0.300381 -0.10848523 -0.7369733 -0.72785485 -0.20847625 -0.71716106 -0.37629053 -0.55616677
-0.23244564 -0.45896184 -0.3084257 -0.5253033 -0.3750957 -0.115899034 -0.14974728 -0.3536643
0.10821557 0.2696812 0.20618676 0.24221092 -0.036346797 -0.15873976 0.19877546 -0.08126492
-0.1170739 0.033789948 0.0304591 -0.19298583 0.13687518 0.10336554 0.21214493 0.12916112
0.11132187 0.056531187 -0.18611269 -0.068497926 -0.14741626 -0.18728232 -0.172961 0.030315755
00000000: e7c8 ae3c 9fa2 59be 3ebc e9bb 5240 b63c
00000010: de81 e93e 13a6 bd3d 2855 253e e9d2 d93e
00000020: 979a 883e 8534 a43d 63e7 c53c f1b5 883e
00000030: d69a c7bd 0756 fd3d 37ec cc3d 1a75 203e
00000040: 4f9e 04bd 4b1e 8e3e fb7a e93d 21f2 183e
00000050: dc0d 08be 5e75 12be ceab 3bbd 7c6f 13be
00000060: ac9a dbbe 35a3 babe f81c 65be acf5 cebe
00000070: 9a3e c9be 8e5a 9abe 0fdd 0abf 3538 99be
00000080: 8acb 99be 812d debd 48aa 3cbf b254 3abf
00000090: cc7a 55be de97 37bf 27a9 c0be f260 0ebf
000000a0: 3b06 6ebe 0cfd eabe f9e9 9dbe 477a 06bf
000000b0: 8b0c c0be 795c edbd 5a57 19be 7d13 b5be
000000c0: 20a0 dd3d a713 8a3e 9f22 533e 2406 783e
000000d0: 61e0 14bd ad8c 22be cb8b 4b3e 396e a6bd
000000e0: 71c4 efbd 5467 0a3d 5d85 f93c 149e 45be
000000f0: 0229 0c3e 50b1 d33d 853c 593e d042 043e
00000100: b8fc e33d 3f8d 673d 5394 3ebe a448 8cbd
00000110: 4af4 16be f0c6 3fbe b01c 31be bf58 f83c

rnn.bias_hh_l0 f4 [72]
-0.08065906 -0.068613514 0.15352736 0.27434832 0.17941052 0.034093212 0.2418341 0.32297605
0.048372038 0.07278888 0.2498172 0.2258623 0.15827724 -0.08785343 0.018895566 -0.17093611
0.21169671 0.016229741 0.14012231 0.31379977 0.065787084 0.0060289092 -0.1260974 0.08906828
-0.06395769 -0.05910658 -0.15264897 -0.43309608 -0.54487 -0.23316336 -0.5222801 -0.45573556
-0.3443606 -0.19203179 -0.6279855 -0.8286859 -0.15574245 -0.6716144 -0.45526937 -0.50587094
-0.3085062 -0.33031902 -0.399189 -0.6485959 -0.19142075 -0.025655352 -0.24158165 -0.3186826
0.099574685 0.004821722 0.28135857 0.21763316 -0.14039515 0.1979242 0.20676991 -0.18161343
-0.21760313 -0.06603618 -0.06724239 -0.10001214 -0.21631025 -0.09942818 0.08173929 0.010305708
0.040186815 0.18606359 -0.13110211 -0.09848449 0.16057508 0.09959306 -0.11239585 0.18951674
00000000: 9430 a5bd 3e85 8cbd 4736 1d3e 6277 8c3e
00000010: 64b7 373e 53a5 0b3d 5ca3 773e 1e5d a53e
00000020: c221 463d 5612 953d 14d0 7f3e 7248 673e
00000030: 6e13 223e 80ec b3bd e0ca 9a3c e009 2fbe
00000040: 06c7 583e 3cf4 843c 397c 0f3e 5daa a03e
00000050: 61bb 863d 288e c53b ad1f 01be 6e69 b63d
00000060: 40fc 82bd be19 72bd 0350 1cbe c5be ddbe
00000070: 9a7c 0bbf 60c2 6ebe 26b4 05bf 2c56 e9be
00000080: 0850 b0be fba3 44be a8c3 20bf c224 54bf
00000090: f37a 1fbe ecee 2bbf 1119 e9be c280 01bf
000000a0: 86f4 9dbe 931f a9be 8062 ccbe 620a 26bf
000000b0: cd03 44be 2c2b d2bc 2e61 77be 5e2a a3be
000000c0: d0ed cb3d 89ff 9d3b 3b0e 903e 3adb 5e3e
000000d0: bfc3 0fbe a4ac 4a3e 7ebb 533e dff8 39be
000000e0: 5bd3 5ebe fa3d 87bd 61b6 89bd 2ad3 ccbd
000000f0: 6f80 5dbe 00a1 cbbd ee66 a73d 46d9 283c
00000100: ee9a 243d 7487 3e3e a23f 06be 3cb2 c9bd
00000110: cb6d 243e 72f7 cb3d cc2f e6bd ad10 423e

rnn.weight_ih_l1 f4 [72, 24]
-0.12829916 0.10344597 0.011055245 0.14203934 -0.29140773 0.07431653 0.91067666 -0.1467141
0.086739756 -0.011907023 -0.72212374 -1.4031274 0.40699387 -1.4109522 -0.34162912 0.65524364
-0.4130684 -0.28512457 0.3133248 -0.30398408 0.47319543 0.11767539 0.06617873 -0.05586494
-0.13560332 0.09989063 -0.011080515 -0.26058918 0.009916481 0.14773129 0.1528169 -0.16038026
-0.016475238 -0.08866131 0.23364213 -0.016493578 0.18651621 0.02161519 -0.012039167 -0.19051316
0.017264795 -0.16015425 -0.1551292 0.122520424 0.20885608 -0.077352226 0.12365031 0.13392507
0.2805305 0.27274677 0.43798298 0.009773836 0.124257565 -0.1917955 -0.06628157 -0.06906922
0.23112833 -0.32117608 0.2985377 0.07677599 -0.040558193 0.27551502 0.050873477 -0.18951753
-0.04119085 0.08597834 -0.46736103 0.26987064 -0.0040008435 -0.030182634 -0.38194618 0.08583468
-0.37339288 -0.26863846 -0.2191733 -0.09277873 -0.0346384 -0.041824766 0.27667326 0.02683227
0.20627603 0.02991012 0.091636114 -0.46556452 0.12597579 -0.4479227 0.06779966 0.50505257
-0.1148406 -0.07140282 0.43870997 0.09602526 0.32248524 -0.023969473 0.33169937 -0.13280962
0.25862718 0.16743171 -0.10402393 -0.06794901 0.17563316 -0.036592893 0.042157136 0.040970728
0.16831614 -0.22221647 0.038985606 0.11877251 0.026650667 -0.056527507 0.020771295 -0.21766458
-0.041833512 0.26214793 -0.014754339 0.2984523 -0.20549962 0.3576124 -0.119421095 -0.04714327
-0.29906732 -0.32609132 0.012695784 -0.09250466 -0.25118598 -0.038977962 0.530233 0.14527333
-0.2187813 0.093767606 -0.29736722 -1.2814705 0.27398655 -1.5731733 -0.04874198 0.5868621
-0.19719234 -0.08114315 0.1471627 -0.04164861 0.37032512 -0.34726804 0.22586882 -0.036909558
-0.3448278 -0.2996648 0.25601944 -0.17184238 -0.1256086 0.27145085 0.6214311 -0.08205445
-0.0032591294 0.0298132 -0.21718994 -0.742731 -0.03138609 -0.8216037 -0.3385139 0.6344456
-0.30870783 -0.2782022 0.2464359 -0.35330296 0.22854522 0.007708605 0.24043444 0.2426752
-0.048173174 0.20293975 0.0069246935 -0.00977008 -0.06832847 0.13143854 0.20094347 0.07695201
-0.14074488 0.11263328 0.15751056 -0.10698716 0.15749955 -0.12999687 0.021177944 -0.13300896
0.24152173 0.16601247 0.051470753 -0.0611006 -0.11122301 0.015383788 -0.14353304 -0.06349841
-0.41100594 -0.15459962 -0.06822539 -0.07510241 -0.29686332 0.0045584138 0.75320405 -0.23775397
-0.17126994 0.34789965 -0.25594494 -1.1226137 0.07070095 -1.0348123 -0.13636494 0.8360313
-0.099707484 -0.40302563 0.1581836 -0.19603623 0.51123804 -0.083738014 0.1749429 0.1013446
-0.45193887 -0.2371629 -0.06810636 0.20627272 0.07287181 0.24216062 0.29989767 -0.13652621
-0.09567833 0.2707504 -0.48197058 -0.86866164 0.04532926 -0.8476293 -0.29094085 0.500363
-0.07755548 -0.28570166 0.5239095 -0.22302087 0.5339086 -0.11091297 0.18178757 0.06640034
0.5313864 0.3180351 0.24225871 0.18418999 0.024358388 -0.10548317 -0.05949775 -0.1214464
0.08769476 -0.24354303 0.3482708 0.30658713 -0.14296964 0.28300446 0.25391552 -0.41249987
00000000: db60 03be 7bdb d33d 0f21 353c c372 113e
00000010: 6533 95be 4433 983d 1b22 693f 393c 16be
00000020: 9da4 b13d ad15 43bc 1add 38bf ae99 b3bf
00000030: 8061 d03e 159a b4bf 03ea aebe 0cbe 273f
00000040: b47d d3be d9fb 91be 1c6c a03e cda3 9bbe
00000050: ac46 f23e cbff f03d b788 873d a3d2 64bd
00000060: 99db 0abe 7593 cc3d 0c8b 35bc f26b 85be
00000070: bc78 223c df46 173e 097c 1c3e b93a 24be
00000080: 14f7 86bc 1094 b5bd e23f 6f3e 8a1d 87bc
00000090: 1bfe 3e3e 5712 b13c ed3f 45bc e215 43be
000000a0: e66e 8d3c 7aff 23be 30da 1ebe fdeb fa3d
000000b0: 5ede 553e d86a 9ebd 603c fd3d a723 093e
000000c0: b2a1 8f3e 77a5 8b3e 4e3f e03e 7022 203c
000000d0: c07a fe3d 0a66 44be a2be 87bd 2a74 8dbd
000000e0: e8ac 6c3e 3171 a4be efd9 983e bb3c 9d3d
000000f0: 5920 26bd 4e10 8d3e b560 503d e210 42be
00000100: bdb7 28bd 6915 b03d f249 efbe 7c2c 8a3e
00000110: 8219 83bb 9241 f7bc 738e c3be 18ca af3d
00000120: 5a2d bfbe fb8a 89be f76e 60be c602 bebd
00000130: ffe0 0dbd 7250 2bbd 1ea8 8d3e 59cf db3c
00000140: 063a 533e 1106 f53c b7ab bb3d 795e eebe
00000150: ccff 003e 2056 e5be 8cda 8a3d 204b 013f
00000160: 8c31 ebbd a43b 92bd 989e e03e e4a8 c43d
00000170: c91c a53e a15b c4bc 80d4 a93e 3fff 07be
00000180: c86a 843e 3873 2b3e 800a d5bd da28 8bbd
00000190: 2ed9 333e 6ee2 15bd f6ac 2c3d ecd0 273d
000001a0: 115b 2c3e b78c 63be 5faf 1f3d 003f f33d
000001b0: 8052 da3c 6389 67bd 9028 aa3c 77e3 5ebe
000001c0: 9e59 2bbd 4138 863e 2fbc 71bc bdce 983e
000001d0: 7e6e 52be f918 b73e 0c93 f4bd 4d19 41bd
000001e0: 5a1f 99be 71f5 a6be fa01 503c 1573 bdbd
000001f0: 739b 80be 5ba7 1fbd 5abd 073f 88c2 143e
00000200: 3508 60be 3b09 c03d 8440 98be 3a07 a4bf
00000210: f747 8c3e be5d c9bf aca5 47bd 983c 163f
00000220: caec 49be 612e a6bd d2b1 163e bc97 2abd
00000230: 419b bd3e 1ecd b1be 284a 673e 7a2e 17bd
00000240: 458d b0be aa6d 99be fb14 833e 73f7 2fbe
00000250: 8a9f 00be 9bfb 8a3e 1c16 1f3f 2a0c a8bd
00000260: 1e97 55bb d03a f43c 0a67 5ebe 9e23 3ebf
00000270: b38e 00bd 9f54 52bf b251 adbe 076b 223f
00000280: f40e 9ebe 8570 8ebe b159 7c3e 20e4 b4be
00000290: c207 6a3e 7798 fc3b 7234 763e d97f 783e
000002a0: 3c51 45bd 70cf 4f3e 8ae8 e23b b012 20bc
000002b0: ccef 8bbd d397 063e 20c4 4d3e 0499 9d3d
000002c0: 6d1f 10be 47ac e63d 734a 213e 161c dbbd
000002d0: 9047 213e e61d 05be 5e7d ad3c 8033 08be
000002e0: 7951 773e 2cff 293e ffd2 523d 9f44 7abd
000002f0: e4c8 e3bd 490c 7c3c 53fa 12be 740b 82bd
00000300: 5f6f d2be 5d4f 1ebe c1b9 8bbd 4bcf 99bd
00000310: 78fe 97be bf5e 953b fbd1 403f c775 73be
00000320: 6361 2fbe e71f b23e 370b 83be ceb1 8fbf
00000330: a9cb 903d bb74 84bf 40a3 0bbe 2606 563f
00000340: 7033 ccbd 6059 cebe e2fa 213e b9bd 48be
00000350: 7fe0 023f d67e abbd 3b24 333e c28d cf3d
00000360: 8864 e7be d5da 72be 597b 8bbd 2839 533e
00000370: d13d 953d f4f8 773e 308c 993e 87cd 0bbe
00000380: 00f3 c3bd cc9f 8a3e d9c4 f6be 9c60 5ebf
00000390: 2dab 393d 3cfe 58bf 33f6 94be ca17 003f
000003a0: 68d5 9ebd 7d47 92be ef1e 063f 955f 64be
000003b0: 3cae 083f 5726 e3bd 8526 3a3e e7fc 873d
000003c0: f008 083f 7fd5 a23e ab12 783e 4d9c 3c3e
000003d0: 3e8b c73c 8f07 d8bd eab3 73bd e4b8 f8bd
000003e0: 4f99 b33d 5863 79be 8d50 b23e fdf8 9c3e
000003f0: a266 12be f6e5 903e 3701 823e 2f33 d3be

rnn.weight_hh_l1 f4 [72, 24]
-0.056798305 0.3310713 0.04164591 -0.114978805 -0.07240195 0.22341272 0.106609814 -0.030116495
0.53289014 -0.2436747 0.023104511 -0.051728938 0.2243228 -0.2650776 -0.09889707 0.20355988
0.10280184 -0.002959919 0.42035818 -0.20134954 0.2688431 0.072393 -0.1272735 -0.15292339
-0.25526914 0.34376624 -0.19770093 0.23104256 0.09024732 0.18605702 0.1222782 -0.010026149
0.44019586 -0.28611106 0.050524987 -0.28434673 0.2920316 -0.29872403 -0.16960183 0.43469387
-0.15912142 -0.352609 0.52763474 -0.3481234 0.29532194 -0.06502803 -0.108278304 0.113271125
-0.18475556 -0.24326858 0.036535613 -0.028001925 -0.3887883 -0.08101617 -0.044743028 -0.026162513
-0.2009235 0.066274054 0.07415407 -0.24438927 -0.241297 0.2083479 -0.18197024 0.013098335
0.014651178 -0.04948189 0.0301019 -0.11619585 0.12883689 0.20020938 -0.069074914 0.108608015
-0.14105365 0.11957905 0.025471343 -0.029927345 0.16236456 0.21775328 0.18458533 -0.54958403
0.07554569 -0.24696955 -0.050766546 -0.04355214 0.2570919 -0.13499032 -0.19301108 -0.045531657
0.16370316 -0.027969845 0.060122695 -0.16883382 0.0525638 0.23049617 -0.11718266 -0.10517942
0.24948497 -0.17140125 0.25935024 -0.38642487 -0.10913661 -0.2336586 -0.07382254 0.11216073
-0.27063832 0.24281721 0.058042757 0.12764153 -0.3570194 0.12584634 0.07468841 -0.3950179
0.26612225 0.32857215 -0.12445127 0.07740765 -0.08259654 0.0623433 0.14610739 -0.005051876
-0.28198037 -0.036676083 0.008118444 0.16540796 0.018680904 0.040753197 0.06949265 0.049584806
0.078014895 -0.21838787 -0.26229617 -0.10855093 0.0141737675 -0.069605574 -0.22293086 0.20061551
-0.19793206 -0.14158127 0.17041017 -0.06298196 0.047286756 -0.11631279 -0.22285812 0.060664736
-0.10782261 0.06398057 -0.19115603 0.21503843 -0.01929808 -0.055276286 0.20817381 -0.14462733
0.16393453 -0.011474852 -0.06261449 -0.28747267 0.45464376 -0.46528718 -0.048651528 0.34058505
0.18409008 0.059746496 0.43262088 -0.2728802 0.2862264 0.1156818 -0.060299072 0.021190342
-0.2753719 0.2823369 0.06200977 0.48899755 -0.23722406 0.3836721 0.4186045 -0.1995728
0.27345183 -0.30459854 0.011622854 -0.4274388 0.2958378 -0.22164741 -0.12979047 0.39114362
-0.06160815 -0.34565666 0.5929894 -0.14505841 0.2793908 -0.036671687 -0.019471413 0.15884925
-0.04144962 0.2223914 -0.2335351 -0.07948763 -0.15713893 0.22723362 0.289021 -0.35459086
0.2772949 -0.3996816 0.14106838 -0.46483523 0.22842179 -0.4478383 -0.240545 0.11043558
0.116952755 0.042882387 0.4093757 -0.22950146 0.23824656 0.05109525 -0.062093653 0.19688077
-0.08412804 -0.0121609345 -0.20387498 0.06803043 0.08446026 0.18756908 0.16603565 -0.282265
0.3184439 -0.022149734 -0.15640473 -0.3608148 0.041032117 -0.14545599 -0.3182722 0.18771535
-0.051858578 0.020664392 0.25699103 0.0065149753 0.041866165 -0.3279206 -0.0013350138 -0.07764626
-0.39534536 0.044110537 0.22737205 0.19971232 0.10262738 0.050629515 -0.011879576 0.18545361
0.10345437 -0.097884394 -0.041156214 -0.19168079 -0.18024604 -0.12749356 0.08354411 0.27021918
00000000: 57a5 68bd 2d82 a93e e794 2a3d 027a ebbd
00000010: 7947 94bd 4ec6 643e 3f56 da3d deb6 f6bc
00000020: 7d6b 083f dc85 79be ac45 bd3c b9e1 53bd
00000030: e0b4 653e 40b8 87be 8c8a cabd 0072 503e
00000040: c589 d23d 33fb 41bb 3039 d73e 932e 4ebe
00000050: cea5 893e c842 943d fc53 02be f397 1cbe
00000060: a3b2 82be 2102 b03e 1d72 4abe 6c96 6c3e
00000070: 96d3 b83d bb85 3e3e fe6c fa3d b844 24bc
00000080: 5a61 e13e 267d 92be 4af3 4e3d e595 91be
00000090: 2a85 953e 5bf2 98be 1aac 2dbe 3290 de3e
000000a0: baf0 22be 2b89 b4be 1213 073f 3b3d b2be
000000b0: 7034 973e 6a2d 85bd 04c1 ddbd b1fa e73d
000000c0: 9030 3dbe 661b 79be 5ea6 153d 4b64 e5bc
000000d0: 430f c7be ceeb a5bd 7744 37bd c452 d6bc
000000e0: e4be 4dbe b1ba 873d 17de 973d 2e41 7abe
000000f0: 9016 77be 2759 553e 6856 3abe 669a 563c
00000100: 7f0b 703c 86ad 4abd 4398 f63c 17f8 edbd
00000110: d1ed 033e b003 4d3e 2677 8dbd e16d de3d
00000120: 5e70 10be dce5 f43d 47a9 d03c 312a f5bc
00000130: e542 263e b7fa 5e3e f003 3d3e 8ab1 0cbf
00000140: b3b7 9a3d 96e5 7cbe 95f0 4fbd bb63 32bd
00000150: 8da1 833e e73a 0abe b2a4 45be 677f 3abd
00000160: cda1 273e 0421 e5bc 3743 763d c6e2 2cbe
00000170: 244d 573d 3007 6c3e 76fd efbd 4f68 d7bd
00000180: fd78 7f3e cf83 2fbe 8ec9 843e 7bd9 c5be
00000190: 0483 dfbd 3344 6fbe 4630 97bd 86b4 e53d
000001a0: 1b91 8abe 13a5 783e 3ebe 6d3d 76b4 023e
000001b0: 3fcb b6be dddd 003e 3df6 983d c93f cabe
000001c0: 2d41 883e 9c3a a83e 4fe0 febd e787 9e3d
000001d0: 6028 a9bd b05b 7f3d 2d9d 153e 358a a5bb
000001e0: bb5f 90be a939 16bd 3903 053c b460 293e
000001f0: b208 993c d3ec 263d 2a52 8e3d 7019 4b3d
00000200: 46c6 9f3d 12a1 5fbe af4b 86be f34f debd
00000210: 1739 683c 5e8d 8ebd fd47 64be 276e 4d3e
00000220: b4ae 4abe aefa 10be 0180 2e3e b0fc 80bd
00000230: c2af 413d 6635 eebd eb34 64be 967b 783d
00000240: 1ad2 dcbd 3f08 833d 68be 43be 0933 5c3e
00000250: 0217 9ebc 6369 62bd 842b 553e 3019 14be
00000260: 74de 273e 0501 3cbc 073c 80bd 9e2f 93be
00000270: 11c7 e83e 1f3a eebe d346 47bd 2a61 ae3e
00000280: 1c82 3c3e beb8 743d 7c80 dd3e f4b6 8bbe
00000290: 448c 923e 94ea ec3d 29fc 76bd 5e97 ad3c
000002a0: 8cfd 8cbe 768e 903e f5fd 7d3d e35d fa3e
000002b0: ddea 72be ab70 c43e 5453 d63e d05c 4cbe
000002c0: e101 8c3e 57f4 9bbe c86d 3e3c 42d9 dabe
000002d0: 0d78 973e 8af7 62be cbe7 04be fa43 c83e
000002e0: d458 7cbd e9f9 b0be 27ce 173f 318a 14be
000002f0: 500c 8f3e 0d35 16bd 8382 9fbc 61a9 223e
00000300: 14c7 29bd 92ba 633e d323 6fbe 69ca a2bd
00000310: 07e9 20be eeaf 683e 8ffa 933e ef8c b5be
00000320: 99f9 8d3e 11a3 ccbe 3b74 103e e2fe edbe
00000330: 67e7 693e 104b e5be 6e51 76be 0d2c e23d
00000340: ed84 ef3d 71a5 2f3d b199 d13e 6e02 6bbe
00000350: e8f6 733e 4149 513d ea55 7ebd 1d9b 493e
00000360: 524b acbd a83e 47bc 9ac4 50be 8a53 8b3d
00000370: 80f9 ac3d 1c12 403e 4005 2a3e 0a85 90be
00000380: 140b a33e 5c73 b5bc 9028 20be b8bc b8be
00000390: 4b11 283d 6af2 14be 93f4 a2be 7438 403e
000003a0: a969 54bd 5f48 a93c 5494 833e 937b d53b
000003b0: db7b 2b3d 35e5 a7be a1fb aeba 0105 9fbd
000003c0: b56a cabe 40ad 343d 38d4 683e 6381 4c3e
000003d0: 4e2e d23d e560 4f3d 8ea2 42bc 8de7 3d3e
000003e0: e2df d33d 9d77 c8bd 6b93 28bd f847 44be
000003f0: 6b92 38be ac8d 02be 2d19 ab3d 2b5a 8a3e

rnn.bias_ih_l1 f4 [72]
0.03576612 0.024924064 0.20665267 0.04435269 -0.0043656295 0.07939813 0.16206805 0.064175874
0.20527148 -0.067553334 0.16687647 0.12031118 -0.10299885 0.039347436 -0.14807798 0.22656207
-0.10536134 0.04619457 -0.04925024 -0.13404793 0.04252896 -0.22305903 0.15338425 0.11682445
-0.35941657 -0.35502547 -0.37029657 -1.0650201 -0.6112769 -0.26060766 -0.6059042 -0.23839219
-0.2837695 -0.33183077 -0.3644796 -0.5374194 -0.8264213 -0.6643464 -0.40511665 -0.4757785
-0.23811862 -0.12949184 -0.49188322 -0.37142673 -0.7479738 -0.5993895 -0.21399517 -0.671434
-0.008169748 -0.1852024 0.033819407 0.078459345 0.106541306 0.20627622 -0.0015401592 -0.013696588
-0.19957574 0.03714966 -0.00095914915 -0.12000297 -0.028730037 0.053640977 0.03390896 0.20861872
0.12917188 -0.06909595 -0.06948382 0.071769506 -0.007041252 -0.23236474 -0.021753969 -0.031241784
00000000: 7f7f 123d 8d2d cc3c c29c 533e 2bab 353d
00000010: 8e0d 8fbb 7d9b a23d 2bf5 253e a46e 833d
00000020: b032 523e 6759 8abd aae1 2a3e b565 f63d
00000030: 10f1 d2bd c72a 213d c1a1 17be e3ff 673e
00000040: b0c7 d7bd 8436 3d3d 9fba 49bd dc43 09be
00000050: d932 2e3d 9669 64be c310 1d3e a841 ef3d
00000060: 7305 b8be e6c5 b5be 8397 bdbe 9452 88bf
00000070: a57c 1cbf 5e6e 85be 8a1c 1bbf 151d 74be
00000080: 3c4a 91be b9e5 a9be 129d babe 5194 09bf
00000090: 5990 53bf 9b12 2abf 736b cfbe 3d99 f3be
000000a0: 5ed5 73be 8299 04be 1ed8 fbbe a52b bebe
000000b0: 367b 3fbf 9771 19bf 8d21 5bbe 19e3 2bbf
000000c0: 68da 05bc b3a5 3dbe 3886 0a3d 4baf a03d
000000d0: 5432 da3d 133a 533e 2bdf c9ba a767 60bc
000000e0: 955d 4cbe 3e2a 183d 696f 7bba 1ec4 f5bd
000000f0: 415b ebbc a4b6 5b3d 1fe4 0a3d 25a0 553e
00000100: a245 043e 2d82 8dbd 884d 8ebd e4fb 923d
00000110: 4eba e6bb 06f1 6dbe 6135 b2bc c5ee ffbc

rnn.bias_hh_l1 f4 [72]
0.08602936 0.067468725 -0.10000764 -0.14547567 0.13600753 -0.09111817 0.041934803 0.0752161
-0.0055145356 0.23404141 0.0485943 0.18709858 -0.031719368 0.2705094 -0.17519224 0.16808556
-0.4524029 0.18220535 0.024837079 0.09034212 0.08483792 -0.083167024 -0.029126832 -0.08333036
-0.4664853 -0.3112998 -0.5444392 -0.9421405 -0.5838964 -0.30071867 -0.76876634 -0.5334394
-0.2988424 -0.30969015 -0.29253188 -0.90116835 -0.67623395 -0.28189638 -0.4236087 -0.7966461
0.013686361 -0.468199 -0.6435447 -0.5140213 -0.4625085 -0.47765023 -0.20174168 -0.66024715
-0.29636443 -0.12550032 0.2773807 0.12825902 -0.043986436 0.16906941 0.16859224 0.059404776
0.21685009 -0.24561611 0.0678447 -0.308136 0.1471333 -0.099509604 -0.189732 0.070987016
0.03147243 0.25297728 0.22447999 0.035481635 -0.06446113 0.04090028 0.2366985 -0.193169
00000000: 2930 b03d 0b2d 8a3d ced0 ccbd 93f7 14be
00000010: 8f45 0b3e 2a9c babd d4c3 2b3d e60a 9a3d
00000020: 47b3 b4bb 8da8 6f3e d10a 473d c596 3f3e
00000030: 2bec 01bd 3580 8a3e 9865 33be 9f1e 2c3e
00000040: 5aa1 e7be 0a94 3a3e 2177 cb3c 4a05 b93d
00000050: 81bf ad3d 7953 aabd 659b eebc 1ca9 aabd
00000060: 29d7 eebe b062 9fbe 5e60 0bbf 1f30 71bf
00000070: 3c7a 15bf ccf7 99be dfcd 44bf 7c8f 08bf
00000080: df01 99be b58f 9ebe bdc6 95be f8b2 66bf
00000090: ab1d 2dbf b954 90be 3de3 d8be 00f1 4bbf
000000a0: c23c 603c c8b7 efbe 58bf 24bf e696 03bf
000000b0: eacd ecbe 928e f4be 5f95 4ebe f505 29bf
000000c0: 14bd 97be 2883 00be d804 8e3e 5556 033e
000000d0: 1f2b 34bd 8820 2d3e 72a3 2c3e 6c52 733d
000000e0: f30d 5e3e ca82 7bbe 29f2 8a3d 00c4 9dbe
000000f0: 1daa 163e b1cb cbbd 1b49 42be a461 913d
00000100: 3ce9 003d 3d86 813e 15de 653e 3155 113d
00000110: 3204 84bd 0d87 273d 1761 723e 18ce 45be

rnn.weight_ih_l2 f4 [72, 24]
-0.22180408 0.20072658 -0.2302799 0.34464905 -0.09110569 0.19383873 0.10134223 -0.24312633
-0.08263809 0.008631599 -0.056388922 -0.40991247 -0.035905182 -0.10778941 -0.11721852 0.0530417
-0.1575673 -0.12930825 0.120482065 0.08502119 0.18410271 -0.16560917 -0.25696033 0.034284253
0.032559264 -0.19018888 0.19053972 -0.4175128 0.574774 -0.084308304 -0.24673022 0.26365945
0.05788685 -0.10714029 0.5781972 0.25794178 -0.028553134 0.014691702 0.14922099 0.13747574
0.46376446 0.24268652 0.12357295 0.32512912 0.083718725 0.26535016 0.4637668 -0.22748329
-0.42171845 0.41655982 -0.27715483 0.4908726 -0.0060667195 -0.08131286 0.32972297 -0.6293248
0.3286737 -0.20235199 -0.39566636 -0.4807904 0.48987797 -0.50411576 -0.09376612 0.21476595
-0.35745937 -0.3850239 0.50845313 -0.35240567 0.60175616 0.15986073 -0.3454027 0.3276601
0.008373948 0.08041918 -0.018651595 0.04142761 -0.17966743 0.061698884 -0.04846114 -0.012564609
0.18291222 0.03427151 -0.08947371 -0.116568066 -0.0073047373 0.09274712 0.0517244 -0.051999275
-0.11376683 -0.15568219 0.080181174 -0.09400584 0.08835081 -0.30541873 -0.26163763 0.06769828
0.10366593 0.14417432 0.075323425 -0.053872082 -0.0017783433 0.21021332 0.07138121 -0.060946897
0.20120783 0.17364068 0.28770867 0.0031605691 0.14039268 -0.09444922 -0.10095146 0.08689896
0.23777865 0.07640525 0.19529048 -0.053625792 -0.15406011 0.19781895 0.008445493 -0.17326336
-0.5817708 -0.15139475 0.31504676 -0.25786534 0.13844073 -0.10442386 0.3765061 0.024880087
0.4728925 -0.3911907 0.32473218 -0.26934072 -0.19033462 -0.4123633 -0.14185515 0.39637253
0.26246715 0.44258928 0.51344913 0.08654436 0.3040841 -0.09227789 0.40289018 -0.39005333
0.13545261 -0.12380083 0.16184524 -0.39733955 0.4452172 -0.045770302 -0.16784054 0.26426488
-0.32859752 -0.4441985 0.3726735 0.048287317 -0.14804693 0.35473517 0.21482159 0.13868794
0.5525536 0.37934136 -0.07707852 0.33616892 0.029138444 -0.06211675 0.5124295 -0.38693503
0.1877702 0.15643057 0.06768399 0.10633982 0.1833029 -0.15024891 -0.02965463 -0.22122104
-0.033992674 0.15937543 0.04403975 0.25365505 -0.0012403782 0.04786819 -0.12011437 -0.9604685
0.14357772 0.1877214 -0.12411728 -0.0028125832 0.11063779 -0.096758276 0.095798 -0.17846528
-0.08225445 -0.020747246 -0.018674674 -0.05960874 -0.11874819 -0.2017601 -0.32619038 0.2809867
-0.27016053 -0.25099042 0.11307665 -0.0071068984 0.014690551 0.16631073 0.10581368 0.12665728
0.21762161 0.14096923 -0.12525734 0.09211277 0.013302075 -0.07363045 0.22895838 -0.15135679
0.15425615 -0.022255016 0.37186727 -0.4365044 0.34674594 -0.068236105 -0.12219476 0.06738232
0.016097544 -0.01596352 0.21868026 0.071503446 -0.40183994 0.1938072 0.2714072 -0.2099378
0.31073967 0.0020558485 0.039833363 0.0009305878 -0.31366867 -0.45144004 0.37394446 -0.34928936
-0.14848736 -0.0016892273 -0.36020914 0.19650169 0.106692344 0.090155624 -0.0324627 -0.48291448
0.1431644 -0.14022155 -0.060056183 -0.54231435 0.38203257 -0.16443598 -0.10196464 0.087232016
00000000: 9c20 63be 458b 4d3e 7ece 6bbe d775 b03e
00000010: 9f95 babd a97d 463e 848c cf3d 1cf6 78be
00000020: 293e a9bd 8d6b 0d3c 12f8 66bd 0ce0 d1be
00000030: 5011 13bd b2c0 dcbd 4310 f0bd 4142 593d
00000040: 5359 21be 6269 04be 4dbf f63d 971f ae3d
00000050: 6c85 3c3e 7395 29be 4e90 83be a56d 0c3d
00000060: dd5c 053d e0c0 42be d81c 433e 3dc4 d5be
00000070: 6424 133f d5a9 acbd d9a6 7cbe 5ffe 863e
00000080: c31a 6d3d 5e6c dbbd bb04 143f f210 843e
00000090: 43e8 e9bc 77b5 703c 63cd 183e 71c6 0c3e
000000a0: 8972 ed3e d182 783e d113 fd3d 5377 a63e
000000b0: b974 ab3d fadb 873e d872 ed3e 61f1 68be
000000c0: 7beb d7be 5447 d53e 3de7 8dbe a753 fb3e
000000d0: 55cb c6bb 5b87 a6bd 73d1 a83e 6e1b 21bf
000000e0: eb47 a83e 5c35 4fbe c894 cabe 292a f6be
000000f0: 49d1 fa3e bb0d 01bf 7408 c0bd 9beb 5b3e
00000100: ea04 b7be da21 c5be fc29 023f 846e b4be
00000110: b10c 1a3f 88b2 233e 9fd8 b0be 11c3 a73e
00000120: e232 093c d0b2 a43d 3bcb 98bc ffaf 293d
00000130: bdfa 37be f8b7 7c3d 307f 46bd cadb 4dbc
00000140: 574d 3b3e 4860 0c3d fe3d b7bd 3dbb eebd
00000150: 945c efbb 34f2 bd3d f7dc 533d 31fd 54bd
00000160: 95fe e8bd 276b 1fbe 0736 a43d 2286 c0bd
00000170: 45f1 b43d d85f 9cbe 5ef5 85be 65a5 8a3d
00000180: ce4e d43d 6fa2 133e 2b43 9a3d f9a8 5cbd
00000190: 4d17 e9ba 2942 573e 5030 923d 74a3 79bd
000001a0: 6d09 4e3e ddce 313e 8d4e 933e 8d21 4f3b
000001b0: 19c3 0f3e 986e c1bd a4bf cebd 15f8 b13d
000001c0: 3f7c 733e 5b7a 9c3d 3afa 473e b8a6 5bbd
000001d0: efc1 1dbe 0d91 4a3e f75e 0a3c f36b 31be
000001e0: eeee 14bf 3a07 1bbe cf4d a13e ed06 84be
000001f0: 68c3 0d3e 2ddc d5bd 68c5 c03e 53d1 cb3c
00000200: f71e f23e 264a c8be 4c43 a63e 07e7 89be
00000210: 14e7 42be 4821 d3be 7a42 11be 57f1 ca3e
00000220: 1862 863e 109b e23e 6771 033f 2b3e b13d
00000230: e9b0 9b3e 31fc bcbd 9f47 ce3e 12b5 c7be
00000240: 17b4 0a3e 4a8b fdbd c2ba 253e 1770 cbbe
00000250: 82f3 e33e a479 3bbd 64de 2bbe ba4d 873e
00000260: ef3d a8be fc6d e3be 10cf be3e ecc8 453d
00000270: 9d99 17be d99f b53e 31fa 5b3e 3604 0e3e
00000280: 2774 0d3f 0839 c23e 58db 9dbd 551e ac3e
00000290: bfb3 ee3c 226e 7ebd 942e 033f 591c c6be
000002a0: d546 403e 562f 203e e79d 8a3d b1c8 d93d
000002b0: c1b3 3b3e dada 19be 44ee f2bc c587 62be
000002c0: e73b 0bbd 5033 233e 0663 343d 13df 813e
000002d0: 3094 a2ba 6f11 443d 86fe f5bd 43e1 75bf
000002e0: 0a06 133e 0a3a 403e 3331 febd 5153 38bb
000002f0: 1196 e23d 3429 c6bd be31 c43d 9abf 36be
00000300: 0575 a8bd 21f6 a9bc a1fb 98bc 4b28 74bd
00000310: 4032 f3bd 339a 4ebe 6d02 a7be 7ddd 8f3e
00000320: 7b52 8abe d181 80be bb94 e73d fce0 e8bb
00000330: a3b0 703c 5c4d 2a3e d8b4 d83d 72b2 013e
00000340: 33d8 5e3e 3d5a 103e 7643 00be 9fa5 bc3d
00000350: f2f0 593c 90cb 96bd 1174 6a3e 46fd 1abe
00000360: 53f5 1d3e 2750 b6bc 6365 be3e 817d dfbe
00000370: af88 b13e 5fbf 8bbd 3f41 fabd beff 893d
00000380: ffde 833c eec5 82bc b8ed 5f3e 6670 923d
00000390: f7bd cdbe 6575 463e e2f5 8a3e eff9 56be
000003a0: 4519 9f3e 6abb 063b 4f28 233d b1f2 733a
000003b0: 2e99 a0be 2623 e7be a675 bf3e 0ed6 b2be
000003c0: 120d 18be 1069 ddba 556d b8be bd37 493e
000003d0: 8481 da3d 83a3 b83d 9cf7 04bd 9140 f7be
000003e0: b099 123e 3d96 0fbe 79fd 75bd 1dd5 0abf
000003f0: c699 c33e e861 28be d6d2 d0bd b3a6 b23d

rnn.weight_hh_l2 f4 [72, 24]
-0.14252557 -0.022456765 0.0017592028 -0.07009097 -0.12894495 -0.21266286 -0.23346218 -0.41089553
-0.06426533 0.020481523 0.14801933 -0.034333855 -0.32420647 -0.29872438 -0.2253636 0.06961998
-0.38536727 -0.37573388 -0.41590422 -0.2937607 -0.087312154 0.40045628 0.013961057 0.1847982
-0.09929081 0.13594642 0.074079216 0.04464106 0.23325257 0.29412377 0.074701704 0.2973242
0.05420353 -0.30661407 0.081673704 0.3451514 0.07381283 -0.02801861 0.3839381 -0.13189462
0.07056023 -0.064192794 -0.084220186 0.0007526691 -0.26500288 -0.2645603 -0.21974769 -0.16429555
-0.14725587 0.031978037 -0.07447606 -0.21730314 -0.23000142 0.0046581794 -0.17193528 -0.1301246
-0.5737612 0.0034613842 0.065405376 0.031271223 -0.16140784 0.025755627 -0.4564572 -0.02913464
-0.34388465 -0.06621096 0.0022445468 -0.106790386 -0.042941876 0.35542196 0.3346241 0.3525632
-0.18029118 -0.12507059 -0.10206484 -0.04615425 -0.2910794 -0.041961886 0.0071584126 -0.12926303
-0.20120408 0.28776857 0.287766 -0.23699096 -0.2252233 -0.16117555 -0.36841148 -0.13932541
-0.008323127 0.12723313 0.011101792 -0.013216565 0.2246081 0.44233257 0.40537986 0.14577416
-0.3997114 0.03986995 -0.17947775 -0.117380805 -0.23996206 0.08592664 -0.34005776 -0.22694935
0.022929452 0.17618051 0.32506138 0.12465134 -0.30929264 0.009544759 0.1415301 0.19998366
0.021929745 -0.17979616 -0.058542605 -0.21620739 0.07764059 0.17850213 0.24204049 -0.04924285
-0.0045758155 -0.024085492 0.13908388 -0.0047386577 -0.09977645 0.18012683 0.14431456 -0.007362817
0.34868717 0.018514251 -0.01099414 0.01814784 0.0928059 -0.073656045 0.035045274 -0.21855882
-0.105343856 -0.09121427 -0.21140105 0.15959668 -0.36660165 0.023648206 -0.06999236 0.3099795
-0.06012966 -0.094883695 0.004593029 -0.21732229 0.08704132 0.12879406 0.009691282 0.27812916
0.42510822 -0.32144076 0.04420579 0.3617911 0.32555157 0.054576036 0.45750487 0.012283543
0.29060146 0.17247511 -0.06314616 0.054463644 -0.102366515 -0.25665128 -0.40060046 -0.057513166
0.07464291 -0.09107114 0.15822637 0.154625 0.37048507 0.15125185 0.2914233 0.13304725
0.02178402 -0.14989188 0.005638852 -0.31399837 -0.11140578 0.3398189 0.12173234 -0.32470077
0.36011305 0.045336694 -0.2945126 -0.058871947 -0.20174137 0.21230932 -0.15330286 -0.27033073
0.023404982 0.11359642 0.15869227 -0.049529526 -0.19562489 -0.0632299 0.06755286 0.09290648
0.06932883 0.18069015 0.104621045 0.0894843 -0.12940517 0.076748654 0.13195826 -0.06445171
0.040243354 -0.072596945 -0.008746333 0.17759514 -0.27589086 0.10584718 0.22479615 0.14699195
-0.1692797 0.12756024 -0.09787995 0.12620158 -0.011070947 0.018482583 -0.10143236 0.12843466
-0.047519054 0.09314388 -0.15357591 0.08707754 0.082146965 -0.049043152 -0.20461768 0.077957265
-0.116706505 -0.071414456 -0.124626145 -0.17001347 0.0694556 -0.04518801 0.1623829 0.20938683
-0.20544685 -0.021349061 -0.2449421 -0.18155533 -0.014646674 -0.2678039 0.21616322 -0.1734219
-0.20945461 0.3054326 0.34775203 -0.16623902 -0.22336668 -0.3017963 -0.2871831 0.04819305
00000000: 39f2 11be 40f7 b7bc 0d95 e63a db8b 8fbd
00000010: 250a 04be 4bc4 59be b610 6fbe e660 d2be
00000020: 8b9d 83bd dec8 a73c 6192 173e a8a1 0cbd
00000030: 64fe a5be 67f2 98be b7c5 66be ec94 8e3d
00000040: dc4e c5be 3160 c0be 66f1 d4be cd67 96be
00000050: b7d0 b2bd 9b08 cd3e ebbc 643c bd3b 3d3e
00000060: fb58 cbbd 8a35 0b3e d8b6 973d 8bd9 363d
00000070: c3d9 6e3e 6497 963e 35fd 983d e13a 983e
00000080: 8504 5e3d 85fc 9cbe 8b44 a73d afb7 b03e
00000090: 2e2b 973d 4987 e5bc 8993 c43e 620f 07be
000000a0: e281 903d 8377 83bd a27b acbd c54e 453a
000000b0: 75ae 87be 7374 87be 8a05 61be 183d 28be
000000c0: 3eca 16be 67fb 023d e886 98bd b784 5ebe
000000d0: 7e85 6bbe a4a3 983b cd0f 30be 623f 05be
000000e0: 04e2 12bf 64d8 623b 41f3 853d 4116 003d
000000f0: 1948 25be 77fd d23c c2b4 e9be c5ab eebc
00000100: a611 b0be 9d99 87bd 3f19 133b ebb4 dabd
00000110: d2e3 2fbd def9 b53e da53 ab3e 2a83 b43e
00000120: 409e 38be 8112 00be 5f07 d1bd 3d0c 3dbd
00000130: 5c08 95be 3ae0 2bbd 1e91 ea3b 875d 04be
00000140: 7108 4ebe 6756 933e 1156 933e c2ad 72be
00000150: f0a0 66be 340b 25be 6ea0 bcbe 52ab 0ebe
00000160: ba5d 08bc 6749 023e 4ae4 353c 4b8a 58bc
00000170: aaff 653e 6a79 e23e f38d cf3e d245 153e
00000180: f9a6 ccbe ac4e 233d 04c9 37be 5965 f0bd
00000190: 9db8 75be 4efa af3d 0d1c aebe 6965 68be
000001a0: 8cd6 bb3c aa68 343e 726e a63e 3449 ff3d
000001b0: 9b5b 9ebe 9f61 1c3c 44ed 103e 84c8 4c3e
000001c0: 02a6 b33c 7c1c 38be 5fca 6fbd 7865 5dbe
000001d0: 0802 9f3d 43c9 363e 76d9 773e dfb2 49bd
000001e0: b9f0 95bb f04e c5bc 016c 0e3e be46 9bbb
000001f0: 9857 ccbd 2b73 383e 32c7 133e c943 f1bb
00000200: 2087 b23e 33ab 973c c420 34bc c7aa 943c
00000210: 0511 be3d fbd8 96bd a28b 0f3d e2cd 5fbe
00000220: 85be d7bd 8cce babd 8479 58be 506d 233e
00000230: 36b3 bbbe e2b9 c13c 2858 8fbd a2b5 9e3e
00000240: 854a 76bd 6252 c2bd 1f81 963b bc89 5ebe
00000250: b842 b23d 97e2 033e 2fc8 1e3c f266 8e3e
00000260: c9a7 d93e e293 a4be 2111 353d af3c b93e
00000270: b2ae a63e 1f8b 5f3d 143e ea3e ea40 493c
00000280: b7c9 943e 519d 303e c652 81bd 4515 5f3d
00000290: 89a5 d1bd cc67 83be 811b cdbe ed92 6bbd
000002a0: 62de 983d 8183 babd 1806 223e 0456 1e3e
000002b0: 38b0 bd3e c4e1 1a3e 6f35 953e 8a3d 083e
000002c0: 6774 b23c 427d 19be 1ec6 b83b 65c4 a0be
000002d0: b728 e4bd befc ad3e ce4e f93d 2e3f a6be
000002e0: bd60 b83e f8b2 393d 5bca 96be b623 71bd
000002f0: 4a95 4ebe 9d67 593e 6dfb 1cbe ca68 8abe
00000300: cebb bf3c 3da5 e83d 3a80 223e 79df 4abd
00000310: e451 48be ae7e 81bd 2759 8a3d c145 be3d
00000320: 46fc 8d3d d706 393e 8f43 d63d 8b43 b73d
00000330: ca82 04be 662e 9d3d 1120 073e 42ff 83bd
00000340: 37d6 243d b5ad 94bd c84c 0fbc 80db 353e
00000350: 9141 8dbe 68c6 d83d f630 663e 0f85 163e
00000360: a857 2dbe 279f 023e 4975 c8bd fd3a 013e
00000370: eb62 35bc c968 973c c5bb cfbd 6084 033e
00000380: 57a3 42bd 38c2 be3d 0143 1dbe b655 b23d
00000390: ab3c a83d 79e1 48bd 4c87 51be 0fa8 9f3d
000003a0: d203 efbd be41 92bd fe3b ffbd 0318 2ebe
000003b0: bd3e 8e3d 1017 39bd b447 263e 8069 563e
000003c0: a960 52be 3ae4 aebc 1ad2 7abe a4e9 39be
000003d0: 9af8 6fbc 981d 89be e459 5d3e 8395 31be
000003e0: 457b 56be a961 9c3e 8e0c b23e 903a 2abe
000003f0: 3cba 64be 0b85 9abe aa09 93be 1366 453d

rnn.bias_ih_l2 f4 [72]
-0.027385788 0.25855175 -0.1971274 0.0037484765 0.18179823 -0.060089998 0.3082369 0.0013113869
0.1759802 0.12237466 0.16776705 0.1919953 0.12373992 0.03593615 0.14785782 0.22754705
0.33135122 0.39867914 0.15752742 0.24647106 0.3450967 0.2536137 -0.16355006 0.22757317
-0.2442219 -0.36547795 -0.41623357 -0.2392839 -0.07227415 -0.19460127 -0.34884077 -0.45811793
0.20405185 -0.27163136 -0.092542976 0.060817644 -0.08075821 0.19545604 -0.26835498 -0.29628164
-0.34531334 -0.09179293 -0.42558038 0.054714 -0.25184026 -0.33317673 -0.3689938 -0.6083038
0.043500807 -0.04189167 -0.18086736 -0.22555886 0.08395727 0.08203684 0.23904136 -0.0020428593
0.2206161 0.13805127 0.13092944 -0.21188457 0.055698253 -0.11054147 0.23979305 0.4079008
0.22626334 0.0031547833 0.011853216 -0.1463764 0.21673967 -0.15952626 -0.20189813 -0.13652797
00000000: 2958 e0bc e560 843e c4db 49be 00a9 753b
00000010: 5129 3a3e ee20 76bd 3ad1 9d3e d8e2 ab3a
00000020: 2734 343e 919f fa3d 20cb 2b3e 6a9a 443e
00000030: 5b6b fd3d c931 133d 0a68 173e 1802 693e
00000040: dea6 a93e ac1f cc3e de4e 213e e962 7c3e
00000050: 84b0 b03e a8d9 813e ab79 27be f108 693e
00000060: 4e15 7abe ed1f bbbe 911c d5be d706 75be
00000070: 7804 94bd 8e45 47be 429b b2be 6f8e eabe
00000080: f8f2 503e 4413 8bbe 2c87 bdbd ec1b 793d
00000090: 8f64 a5bd a125 483e d365 89be 3ab2 97be
000000a0: e9cc b0be effd bbbd ace5 d9be ca1b 603d
000000b0: 35f1 80be 2496 aabe c1ec bcbe ccb9 1bbf
000000c0: e72d 323d 9a96 2bbd 4b35 39be e7f8 66be
000000d0: caf1 ab3d ee02 a83d 42c7 743e 7ee1 05bb
000000e0: 30e9 613e 505d 0d3e 5e12 063e 45f8 58be
000000f0: da23 643d 9163 e2bd 4f8c 753e 60d8 d03e
00000100: 94b1 673e 7bc0 4e3b fe33 423c b2e3 15be
00000110: 01f1 5d3e da5a 23be 62be 4ebe fdcd 0bbe

rnn.bias_hh_l2 f4 [72]
0.025387347 0.2074519 0.1388445 -0.20749201 0.079878286 0.16124497 0.21816513 0.048584677
0.17186488 -0.033018876 0.033958092 0.1907029 0.21934325 0.06567093 0.013412571 0.46310824
0.24270841 0.3831809 0.05318847 0.26565045 0.58057857 0.21718358 0.07094924 0.1570574
0.09022782 -0.44968414 -0.38716266 -0.039658938 -0.12048936 -0.21451929 -0.12925388 -0.24066707
0.025707472 -0.31870815 -0.23874207 -0.03289448 -0.075276375 0.17768963 -0.17910632 -0.5219291
-0.35037625 0.06989044 -0.6595344 -0.004559727 -0.24808215 -0.10289641 -0.4080354 -0.5350648
-0.08638192 0.11318888 -0.21101038 0.09217221 0.035148516 -0.088526614 -0.10017781 0.04299941
0.21742533 -0.24746221 0.23005798 0.04524347 0.24200357 -0.2381161 0.025121508 0.6006757
-0.076260135 -0.08597957 0.33176216 -0.24425064 0.21227752 0.009961839 0.17365769 0.13109562
00000000: 20f9 cf3c 456e 543e 412d 0e3e c978 54be
00000010: 3a97 a33d 671d 253e ae66 5f3e ba00 473d
00000020: 59fd 2f3e cd3e 07bd a417 0b3d 9f47 433e
00000030: 849b 603e 7b7e 863d 66c0 5b3c 861c ed3e
00000040: 8e88 783e 4930 c43e 27dc 593d 5603 883e
00000050: cca0 143f 5f65 5e3e d64d 913d a8d3 203e
00000060: 5dc9 b83d 003d e6be 2f3a c6be 6971 22bd
00000070: 20c3 f6bd f2aa 5bbe 215b 04be 6e71 76be
00000080: 7a98 d23c b72d a3be cd78 74be 5dbc 06bd
00000090: 802a 9abd 45f4 353e a667 37be 259d 05bf
000000a0: 8464 b3be b822 8f3d 3fd7 28bf c369 95bb
000000b0: 3f09 7ebe 5abb d2bd 04ea d0be 02fa 08bf
000000c0: 01e9 b0bd 92cf e73d 1b13 58be c9c4 bc3d
000000d0: e4f7 0f3d 714d b5bd 062a cdbd 2620 303d
000000e0: bfa4 5e3e bc66 7dbe 5294 6b3e 3851 393d
000000f0: c9cf 773e b5d4 73be 9fcb cd3c e2c5 193f
00000100: 462e 9cbd 0f16 b0bd bbdc a93e d71c 7abe
00000110: 475f 593e fb36 233c 52d3 313e ee3d 063e

fc.weight f4 [1, 24]
0.5113383 -0.706237 0.5938878 0.64887875 0.27236617 0.43430144 0.5606917 0.42819467
-0.13579327 -0.4951216 -0.6419193 -0.4077668 0.4675417 0.49094424 0.36963722 0.565052
0.34351662 0.46896008 0.5553404 0.5296631 0.69652873 -0.53302187 -0.38717747 -0.45775816
00000000: 11e7 023f f3cb 34bf 0809 183f eb1c 263f
00000010: 9473 8b3e c25c de3e 7e89 0f3f 553c db3e
00000020: 640d 0bbe 9480 fdbe d354 24bf cfc6 d0be
00000030: a061 ef3e 0b5d fb3e 1741 bd3e 3fa7 103f
00000040: 69e1 af3e 891b f03e ca2a 0e3f 0098 073f
00000050: b54f 323f 1f74 08bf 203c c6be 475f eabe
