Embedder.pth (torch, 44926 bytes, 14 tensors)

rnn.weight_ih_l0 f4 [72, 6]
000000 90 e1 92 3e 0c b2 56 bc fa e2 1d 3e 82 49 6c 3e
       0.28687716 -0.013103973 0.15418616 0.23074916
000010 2b 02 89 3e c5 f4 a0 3c 48 b4 8f 3e 14 86 b7 3d
       0.26759467 0.019647965 0.2806723 0.0896112
000020 aa 36 f6 3d 45 8f 3d 3e 52 2c cd 3d 58 f8 1d 3e
       0.12022145 0.18511684 0.10018219 0.15426767
000030 14 0b 5f 3e 93 44 87 3e b6 24 b0 3d a6 c3 94 3e
       0.2178157 0.26419505 0.08600752 0.29055518
000040 62 d4 75 3e 74 ff 3f 3d 74 c0 89 3e 45 19 55 3e
       0.24006799 0.04687448 0.26904643 0.20810421
000050 a8 53 3d 3e e7 6b 86 3e da 34 1f 3e 49 fa d6 bc
       0.18488944 0.26254198 0.15547505 -0.026242392
000060 9b 0f 15 be df 4e 40 be fb 73 64 bd f8 3e df bd
       -0.14556734 -0.18780087 -0.05577467 -0.10900682
000070 e6 2a 82 be 6c 1e a6 3f ed 3c 8e 3e ea 19 1f 3e
       -0.25423354 1.2978034 0.27780858 0.15537229
000080 df c2 ef 3d 31 06 3d 3e 6a 5c b8 3e b4 df 83 3f
       0.117070906 0.18459393 0.36008006 1.0302644
000090 ef 17 d4 3d ee 3f 41 be 67 9b a7 3d 80 5e 84 bd
       0.103561275 -0.18872043 0.081839375 -0.06463337
0000a0 8f 71 7c 3c 3b 6c fe 3d 96 46 e7 3d e0 1a 70 bd
       0.015407934 0.12422987 0.1129276 -0.05861938
0000b0 e1 23 0b 3c 09 5b 85 be da 04 37 be e7 cf 55 bd
       0.008492441 -0.26046017 -0.17872944 -0.052200224
0000c0 39 dd 68 3e c5 c4 84 3c a5 bc ca 3c af b2 2f 3e
       0.2274064 0.016207108 0.024748156 0.17158006
0000d0 17 09 b9 3c 44 3e 94 3f 0c b0 a9 3d 9e 4d 52 3e
       0.022587342 1.1581502 0.082855314 0.20537421
0000e0 5b 90 15 3c 80 f1 9c 3d 7e 08 22 bd 3d 57 be 3e
       0.009128655 0.0766325 -0.03955888 0.37175933
0000f0 23 9d c1 3d 8c 20 30 be 22 17 3f 3d a9 80 7b bd
       0.094537996 -0.17199916 0.04665292 -0.061401997
000100 fc 42 79 3d 7f 2d 43 3f 0d f8 4a bd 5c dd 73 3e
       0.060854897 0.76241297 -0.049552966 0.2381491
000110 87 84 e0 3d 98 3b 79 3d 41 2b 38 bb bf bb 4b 3d
       0.109627776 0.06084785 -0.0028101953 0.049739596
000120 d0 2e d0 bb ee 62 a1 bd 9c 78 29 3e 84 a9 20 3d
       -0.0063532367 -0.078801975 0.16549915 0.039224163
000130 c3 3b 47 3d 58 1a e8 be 3d 52 a7 bd 1b 15 1b 3e
       0.048640978 -0.453326 -0.081699826 0.1514477
000140 93 79 df 3c d9 3e aa bd c9 07 96 bd c3 a1 03 bf
       0.02727965 -0.083127685 -0.07325704 -0.51418704
000150 d7 c2 f8 bb 05 cc 98 bd c7 2a 4b 3e fd 62 49 3e
       -0.007591586 -0.07460789 0.19840537 0.19666667
000160 1b a1 5f bc bf 4e e1 be 0f d6 80 3e 3a cc c5 3d
       -0.01364925 -0.4400539 0.25163314 0.09658094
000170 96 05 40 bc f2 e5 c8 bc f8 59 2c bd 93 ea d2 3d
       -0.011720082 -0.024523709 -0.04207799 0.10298648
000180 62 57 14 3e 17 ed fa bc 59 e3 8b 3d c8 13 93 3e
       0.14486459 -0.030630631 0.068304725 0.2872603
000190 b4 6d 4e 3e 77 24 14 3e 72 7e e1 bc 7f 2c b4 bd
       0.20159036 0.14467035 -0.027526114 -0.087975495
0001a0 20 15 85 bb ee d7 f5 bc ba 90 72 be c4 cb 0e 3f
       -0.004061356 -0.03001019 -0.23688021 0.5577967
0001b0 85 d7 12 be 36 89 50 3c 3a cd 16 3e a0 f1 16 be
       -0.14340027 0.012728026 0.14726725 -0.1474061
0001c0 eb e1 ab 3d c0 a4 0d bf 98 fb fc 3d 24 2b 89 3e
       0.083927 -0.55329514 0.12352675 0.26790726
0001d0 44 2a 51 3c 54 2a eb bc 3a 63 06 3e af 81 65 3f
       0.012766425 -0.028706707 0.1312379 0.89651006
0001e0 7e 8a 3a 3e 22 f2 ef 3d ab 75 72 3e d5 6e 58 3e
       0.18216893 0.11716105 0.236777 0.21136029
0001f0 3f 2a 68 3e 33 c9 3c 3f f8 39 cd be a4 c3 f2 be
       0.22672366 0.73744506 -0.4008329 -0.47414887
000200 56 73 35 be 0c 7e 46 be a7 1e f6 be 75 aa 4d bf
       -0.17719778 -0.1938402 -0.4807026 -0.8033822
000210 b4 f3 6a 3e 5e d1 a1 3e eb 24 f2 3d 1f 7d f7 3d
       0.22944528 0.31605047 0.11823448 0.12084412
000220 95 54 a6 3e 42 a6 b3 3f 28 6e cf 3c a5 91 0c 3e
       0.32486406 1.4035113 0.025321081 0.13727434
000230 d1 26 98 3d b3 ba 45 3e 12 ce d8 bd 89 71 2a bf
       0.07429279 0.19309501 -0.1058618 -0.6657949
000240 79 23 57 be 4c 08 80 be 5c 47 03 bf 65 22 b0 be
       -0.21009625 -0.2500633 -0.5128076 -0.3440124
000250 a2 03 ee be d3 b4 a2 3e de f0 37 3e 7e 85 c6 3d
       -0.46487147 0.31778583 0.17962977 0.0969343
000260 6f 41 25 3e cc 69 8f bd 2d b8 7c bd 1e 4c 70 bd
       0.16138242 -0.07002601 -0.06169908 -0.05866634
000270 3e 72 c7 bd d7 cb 91 3d 1e a6 8b 3d 33 e8 65 be
       -0.09738587 0.071189575 0.06818794 -0.22451858
000280 33 c3 4c be 7d 6a ce bd 0d 88 03 bf 87 bf 9c be
       -0.19996338 -0.10078905 -0.5137947 -0.30614874
000290 30 bf a4 be bf 40 ef be ce b6 10 bf 3a 01 cf bd
       -0.32177114 -0.46729085 -0.5652894 -0.10107656
0002a0 2c 17 bb be 33 94 23 be f2 a5 10 be 26 d3 b6 bc
       -0.36541116 -0.15974502 -0.14125803 -0.02231748
0002b0 69 6a 98 be 2a 04 84 bf c5 93 f3 be 63 73 10 bf
       -0.29768685 -1.0313771 -0.47573677 -0.56426066
0002c0 d8 77 32 be 21 f0 83 be b7 ff ac be 9c 38 ad bf
       -0.1742853 -0.2576914 -0.33788845 -1.3532901
0002d0 e3 74 95 be 2f dd 71 be 36 c9 cf be a1 b6 2e be
       -0.2919074 -0.23619531 -0.405832 -0.17061855
0002e0 47 54 ae be 43 fb 6c 3f 16 e1 85 bc 1d 01 d1 3d
       -0.34048674 0.92570895 -0.01634268 0.102052905
0002f0 31 2a 50 be 4f 85 2c be 5e 5f 15 bc 7e b3 dd bf
       -0.20328595 -0.16847728 -0.009116976 -1.7320402
000300 40 be ec be 6c 4d 23 bf 44 70 ca be 0e bf fc be
       -0.462389 -0.6379001 -0.39538777 -0.49364513
000310 c1 98 c7 be de 26 f7 bf 94 d3 24 bb d0 52 ac 3d
       -0.3898373 -1.9308736 -0.0025150524 0.08414233
000320 62 ba c4 be b5 f0 a0 be 3e 4f 51 3c c2 59 de 3e
       -0.3842345 -0.31433645 0.0127752405 0.43427855
000330 58 9b c0 be 54 8b 05 bf 11 d5 c4 be aa 7f ed be
       -0.37618518 -0.5216572 -0.38443807 -0.46386462
000340 96 5b 83 be 24 2d 0e c0 e1 12 df bd 5d 7c ea bc
       -0.25655812 -2.2215052 -0.10892273 -0.028623754
000350 ce 19 2c be 52 9b 8c be bb c3 76 be f6 55 c0 3e
       -0.16806719 -0.2746225 -0.24098103 0.37565583
000360 61 97 0d bf d3 43 0c bf 64 49 05 bf 2e b1 01 bf
       -0.5530911 -0.5479099 -0.5206511 -0.5066098
000370 21 14 38 bf 6a 90 94 3e ee 33 0f be ea bc e8 bd
       -0.71905714 0.2901643 -0.13984653 -0.113641575
000380 2d 33 dc be e3 6e 84 be 1b 64 f2 be 4c 78 05 3f
       -0.43007794 -0.2586585 -0.47342 0.52136683
000390 3d 52 74 be ba c9 fc be 96 e1 87 be 7b 0a 6b be
       -0.23859496 -0.49372655 -0.26539296 -0.22953217
0003a0 8f e2 83 be e5 bf ba bf 13 3d 19 bc 16 b3 70 3e
       -0.25758788 -1.4589812 -0.00935294 0.23505816
0003b0 34 8a 43 bd 9b fd 7c 3e 27 b7 98 3e a0 22 a0 38
       -0.047739223 0.24706118 0.29827234 7.635844e-05
0003c0 1c 03 be bd 4b c2 f7 3d 62 f3 62 bd 61 82 c5 bd
       -0.09277937 0.12097605 -0.05540789 -0.096440084
0003d0 c1 5f a7 bd 74 d5 0d 3f 15 e2 a0 bc fc d9 0e be
       -0.081725605 0.5540383 -0.019639054 -0.13950342
0003e0 7a 64 81 be 60 fc dd 3c f7 47 89 bd ba f3 b6 bf
       -0.2527197 0.02709788 -0.06703179 -1.429313
0003f0 04 59 b1 3d 14 36 93 3e d6 3c ec bd b5 2c 6c 3e
       0.086595565 0.28752196 -0.11535041 0.2306393

rnn.weight_hh_l0 f4 [72, 24]
000000 bb 3e 4d be 63 00 96 be b7 ad 21 be 42 0c 0f 3e
       -0.20043461 -0.2929717 -0.15788923 0.1396952
000010 24 64 60 be 55 00 f4 3d 04 95 73 3d 4a 23 46 3e
       -0.219132 0.11914126 0.059468284 0.19349399
000020 be 4f 58 3d d3 25 3c bd ce 1d 3a be c8 30 71 3e
       0.052810423 -0.04593451 -0.18175432 0.23553765
000030 fc c6 06 3e ff 92 17 be cd b2 8c bd df 7e e8 bd
       0.13161844 -0.14802168 -0.06870041 -0.11352324
000040 39 c9 9f 3d ce 0c 5e be 6b e4 30 be 8d 4b 9e 3d
       0.07802052 -0.21684572 -0.17274635 0.07729254
000050 6a e4 fe bd 39 68 33 bd 39 43 1f be dc 83 e2 3d
       -0.1244591 -0.043800566 -0.15552987 0.110603064
000060 e7 c0 b1 bd 29 f4 48 be ba 68 af be ac a9 42 bd
       -0.08679371 -0.1962439 -0.34259588 -0.047525093
000070 4a 51 59 be a1 f4 b4 be 35 84 46 be 47 7b b1 3c
       -0.21222416 -0.35342887 -0.1938637 0.021665229
000080 59 52 dc 3d 44 4f 76 3e eb 5b 3f be 30 b0 fd bc
       0.10757894 0.24053675 -0.18687408 -0.030967802
000090 22 b0 3f bb 8a 1c b3 be b8 4d c0 3e 1f 6f 41 be
       -0.002924927 -0.3498271 0.37559295 -0.18890046
0000a0 72 8b 7c be 7d a8 92 be 57 73 fc bd e5 a7 91 3d
       -0.24662569 -0.2864417 -0.12326687 0.071121015
0000b0 8b ee b1 bd 19 35 42 3e 01 20 c5 bd c8 4c 94 3e
       -0.086880766 0.18965568 -0.09625245 0.2896483
0000c0 98 85 52 bd d3 b0 f5 bb 18 e2 9b bd 2d b6 61 3d
       -0.051396936 -0.0074978857 -0.07611483 0.055105377
0000d0 5d 18 9e be b0 ec 0c bd 41 ce 3c be 7f 84 a2 3e
       -0.30877963 -0.03440541 -0.18438055 0.31741711
0000e0 a4 3b b7 3d 46 48 73 3b 3c 7b 5f be 54 4a 02 be
       0.089469224 0.0037121936 -0.21824354 -0.12723666
0000f0 3d 95 37 3c b4 da 81 be 72 c5 8d 3e be 6d 74 bd
       0.011205015 -0.2536217 0.276897 -0.05967497
000100 35 c9 0f be 70 5c 93 bd 17 8b 10 3d 98 0c f0 bb
       -0.14041598 -0.071953654 0.035288896 -0.00732572
000110 90 a6 e5 3d 7e 0f 46 3e 8f e7 77 bd e8 62 a8 3e
       0.1121341 0.19341847 -0.060523566 0.3288796
000120 6f fa 7e 3e 02 7a 95 be 5f 6b 34 be 61 02 61 3e
       0.2490022 -0.29194647 -0.17619084 0.21973564
000130 ea c2 b2 3c 62 af 74 be 25 c8 96 bd 62 43 d4 bb
       0.021821458 -0.23895028 -0.07362393 -0.006477759
000140 1b b4 02 3e d7 4f 9c bd b7 99 50 3d 17 69 55 3e
       0.12764017 -0.07632416 0.050927844 0.2084087
000150 c1 39 09 bd c9 7b ff bd a5 59 e7 3d b3 51 1d be
       -0.033502344 -0.12474782 0.11296395 -0.15363197
000160 c3 31 7e bd ec e4 6b 3c 1f 9b 31 be e8 41 c0 3d
       -0.062059175 0.014397841 -0.1734433 0.093875706
000170 df df 20 3e 3c b0 c6 3d a4 d7 96 bd 3d 47 60 3e
       0.157104 0.09701583 -0.07365349 0.21902175
000180 36 1d 98 bc 10 3a 1b be 02 d3 cd bd 98 95 cc bd
       -0.018568616 -0.15158868 -0.10050012 -0.0998947
000190 41 d8 f5 be b5 40 de be ff c2 80 3e 99 27 42 3e
       -0.4801655 -0.43408743 0.2514877 0.18960418
0001a0 92 af ac 3e ca b3 ab bd d6 ef a2 bd fd 54 4a 3e
       0.337277 -0.083839014 -0.07955901 0.19758983
0001b0 f6 7f 14 3e fe b1 01 bd 77 2d bf 3d a4 14 e8 ba
       0.14501938 -0.031663887 0.093348436 -0.0017706347
0001c0 27 1d b2 be 9c 1c 8c be 6c 86 c7 3c 78 17 7e bd
       -0.34787866 -0.27365577 0.02435609 -0.0620341
0001d0 1c b8 c4 3e c2 a3 73 3e be d0 eb be 30 c1 e3 bd
       0.38421714 0.23792937 -0.46057695 -0.11120832
0001e0 f2 76 bc 3c 3c 03 70 3c c3 67 8a 3e 9b c7 dd bc
       0.023005936 0.014649209 0.2703229 -0.027072718
0001f0 77 9a c4 be 1c ce a8 be 52 c2 21 3d 02 c2 4a 3e
       -0.38399097 -0.3296975 0.03949196 0.1980057
000200 5f 2f 67 3e bd 40 d0 bd 32 1c 56 be 77 47 59 be
       0.22576664 -0.10168598 -0.20909193 -0.21218668
000210 12 13 58 bd b4 55 41 3e 6b ee b6 3e 0e 58 45 be
       -0.052752562 0.1888035 0.35728773 -0.19271871
000220 c3 7b 94 be c1 02 a2 be 47 7e 24 3c 23 9b 00 bd
       -0.29000673 -0.31642726 0.0100398725 -0.03139795
000230 dd 2a 86 3e eb e9 16 3f 48 9a 29 bf dc 87 08 be
       0.26204577 0.5895068 -0.6625104 -0.13333076
000240 d2 fb e1 3e 59 d6 20 3e 90 97 cf 3e 0b 4d 00 3e
       0.44137436 0.15706767 0.4054532 0.1252939
000250 1f ea 38 3e c8 70 83 3d e3 e4 24 3e bb de 71 bd
       0.1805806 0.06417996 0.16102938 -0.059050303
000260 4e 7f 01 be 88 e2 17 bf 2d 07 01 bf 4b b2 e1 be
       -0.12646219 -0.59330034 -0.50401574 -0.4408134
000270 af c1 83 be c3 38 9a 3e f0 e8 56 be 46 a5 1f 3e
       -0.25733706 0.3012143 -0.20987296 0.1559039
000280 20 c8 ac 3d b9 5b bc bd be 00 98 3c 70 cc fe be
       0.08436608 -0.09197182 0.018555041 -0.49765348
000290 8d c6 9e be 2f 3d 80 3e f2 17 5f be 57 6d c1 bd
       -0.31010857 0.2504668 -0.21786478 -0.09444683
0002a0 b1 db 34 be e1 ac 7e 3d 3b ca 36 be cb 81 ac bc
       -0.1766193 0.06217659 -0.17850582 -0.021057984
0002b0 41 a6 b1 bd db 78 ee 3d c5 11 89 3e c3 22 86 3c
       -0.086742885 0.11644145 0.2677137 0.016373998
0002c0 61 4b 26 bd 1a a5 be 3e c8 13 a0 bd f1 ff 49 3d
       -0.04059923 0.37235337 -0.07816273 0.04931635
0002d0 7e f7 f4 3d 19 91 4a be d7 90 5a 3e 6b ee 1d be
       0.11961268 -0.19781913 0.21344315 -0.1542298
0002e0 a8 b9 7f be 13 49 81 bd 3c 6d bf bc 01 c4 09 bc
       -0.24973166 -0.06312766 -0.023367517 -0.008408547
0002f0 c3 21 97 3e df c4 50 3c 4f f2 c9 bc 3f fe ae 3d
       0.29517946 0.01274225 -0.024651675 0.08544587
000300 86 dd f5 3d 96 bf 96 be 34 86 ef bd b7 96 76 be
       0.12005143 -0.29443043 -0.11695519 -0.2408093
000310 05 b2 39 bd 32 49 87 bd dc 79 1b 3e 87 33 8e bc
       -0.04533579 -0.06605758 0.15183204 -0.017358555
000320 42 13 37 bd 0f 38 b0 bd 68 eb cd bc a7 92 1c bd
       -0.0446961 -0.08604442 -0.025136665 -0.038225796
000330 a4 00 31 bd 43 47 05 3c 03 ba 29 3e 8e ad fa bd
       -0.0432135 0.008134666 0.16574864 -0.12240134
000340 ed 8d aa bd 47 3b 5b be a2 0b 1e bd 01 2f 70 be
       -0.083278514 -0.21409331 -0.038585313 -0.2345543
000350 1c 99 88 bc da e5 79 3f 55 b7 1a bf f4 8d a7 3e
       -0.01667457 0.9761635 -0.6043599 0.3272549
000360 69 ce 43 bd 6c 09 a9 be 87 ac e5 3c d3 01 dc bd
       -0.04780427 -0.33015 0.028036369 -0.107425354
000370 cf b4 7d bb 4b 8a a3 3d ce e8 d2 3d aa 0f d9 3d
       -0.0038712507 0.07985362 0.1029831 0.10598691
000380 e5 fa a1 3e 68 5c 0f 3e be 0d 74 bc a1 64 38 3e
       0.3163673 0.14000094 -0.0148958545 0.18007137
000390 f8 de eb 3d 06 88 dc bd 02 87 9b 3e e6 0a c8 bd
       0.11517137 -0.10768132 0.3037644 -0.09767704
0003a0 4c cd 4a be 11 ef 37 be 50 f0 26 be 49 54 4a 3e
       -0.19804877 -0.1796229 -0.1630261 0.19758715
0003b0 80 3e 67 3e b5 ce 82 bd 3f f4 92 3d 0e f0 59 3e
       0.22582436 -0.063870825 0.071754925 0.2128298
0003c0 94 7c 1f 3d 0c 38 53 3e b9 7b 37 3e ef d1 e7 bd
       0.038937166 0.20626849 0.1791829 -0.113193385
0003d0 fb 72 05 3e 61 fa 09 bd 1a 7c 9e 3e 23 96 a7 bd
       0.13032143 -0.033686046 0.30954057 -0.08182933
0003e0 81 54 9e bd 71 3f 5e be 27 84 ba be 72 64 88 bd
       -0.077309616 -0.21703888 -0.3642895 -0.066597834
0003f0 9f e5 5b 3c a1 e1 65 3e 70 df 26 be d7 82 2f 3e
       0.013421445 0.22449352 -0.16296172 0.17139755

rnn.bias_ih_l0 f4 [72]
000000 d0 8e 3a 3e 99 8a 8e 3e ed 8f 49 3e 36 ef 92 3d
       0.18218541 0.27840117 0.1968381 0.07174532
000010 dd e3 00 3d 0a 51 49 3e 72 28 65 bd a8 e6 e1 bd
       0.031467307 0.1965982 -0.055946775 -0.11030322
000020 38 54 0a 3e d3 e0 96 3c d4 6c 90 3c 4c 77 29 3e
       0.1350869 0.018417751 0.017630018 0.16549414
000030 9f 31 88 bd 6a 80 42 be 5e 42 61 3e 59 a6 81 3d
       -0.066500895 -0.18994299 0.21997973 0.063305564
000040 52 27 e1 bd 1e 14 11 3d c6 18 2a 3e 4b de 67 bd
       -0.10993828 0.035419576 0.16611013 -0.05660848
000050 b4 19 ac 3e ab 7c ed bd 92 67 cf 3e 5f 44 93 bc
       0.3361336 -0.11596044 0.40508705 -0.017976938
000060 c9 e5 ec be 40 55 a4 3e c0 c3 ac be 8b 81 04 bf
       -0.46269062 0.3209629 -0.33743095 -0.51760167
000070 e7 6b d2 3d 9b 53 a0 be 86 9f 7e be f0 06 0f bf
       0.10274487 -0.31313786 -0.24865541 -0.5586996
000080 0e 0b b8 be a1 cd 80 3d 83 dc 49 bf 75 da 79 be
       -0.35945934 0.062892206 -0.788521 -0.24399741
000090 d8 45 10 bf e3 14 ac be 1c 63 8a be e0 64 16 3e
       -0.56356573 -0.33609685 -0.2702874 0.14686918
0000a0 91 b5 9b 3e 63 2e dc be 93 47 e3 be 33 87 18 bf
       0.30411962 -0.4300414 -0.44390544 -0.595813
0000b0 56 3d a8 be d2 d4 85 3f 2d 84 a9 be 69 d2 60 be
       -0.32859296 1.0455573 -0.33108655 -0.21955265
0000c0 e3 bb 18 3e 9f ca 4a bd de ae 20 3e bc e0 51 3e
       0.14915423 -0.04950964 0.15691707 0.20495886
0000d0 61 87 8b be 5b ec 5e be af ab 2f be d6 37 02 3e
       -0.27251723 -0.2176985 -0.17155336 0.12716612
0000e0 2d bc b8 3e 39 e9 59 be ba 39 fa bd f3 53 49 be
       0.36081067 -0.21280374 -0.12218042 -0.1966093
0000f0 00 ea 6d be 66 9b d7 3d 6f fe e1 3d 67 cf 81 39
       -0.23233795 0.10527687 0.110348575 0.00024759324
000100 6f 79 c9 3d 64 6c 04 be 7c 1f 80 3e b4 71 97 be
       0.09837615 -0.12931973 0.2502402 -0.29578936
000110 bc d1 be 3d c3 ee db 3d 87 23 f4 bd b6 27 03 be
       0.093173474 0.107388996 -0.11920839 -0.12808117

rnn.bias_hh_l0 f4 [72]
000000 7f c2 dc 3c 81 32 b3 bc 8a 7e f0 3d bd 09 ba 3e
       0.026948212 -0.021874668 0.117428854 0.36335555
000010 67 6d 2d 3c 27 c2 62 3e ae 39 1c 3e c8 99 9b bd
       0.010585166 0.22144376 0.15256378 -0.07597691
000020 15 19 60 3a 35 56 0d 3e 03 e4 47 3b ef c7 6c 3d
       0.00085486594 0.13802417 0.0030500896 0.05780786
000030 78 51 68 3c 38 6b 68 be 86 15 25 3e 8f 8d 1d 3e
       0.01417958 -0.2269715 0.16121492 0.15386032
000040 a8 07 ea 3d 64 16 87 3d b3 f9 6b 3c f4 39 a4 bc
       0.114272416 0.065960675 0.014402795 -0.020047165
000050 d2 5e 06 3e d8 af d4 bd ad a2 b1 3e 7e e7 46 3d
       0.13122109 -0.10385102 0.34694424 0.048560612
000060 b7 83 3d be e5 11 9f 3e 31 e2 7e be c8 33 f1 be
       -0.18507276 0.3106834 -0.24890973 -0.47109818
000070 d5 61 1a bd da d8 f4 be ca ee a9 be 01 11 e0 be
       -0.037690956 -0.47821695 -0.33189994 -0.43762973
000080 94 96 13 bf 66 8f 1f 3e 6f 6e 65 bf 1d 44 48 be
       -0.5765164 0.15582046 -0.89621633 -0.19557233
000090 77 87 85 be 63 e4 b5 be 22 64 be be 0d 36 9f 3e
       -0.26079914 -0.35525808 -0.3718577 0.31095925
0000a0 f8 d7 e1 3e 51 08 e1 be a9 f7 31 be 88 99 db be
       0.44110084 -0.43951657 -0.17379631 -0.42890573
0000b0 f0 93 ce be 6a 16 58 3f ab 42 b4 be e3 90 ae be
       -0.40347242 0.844092 -0.35207114 -0.34094915
0000c0 df cd 95 3e 5a ee 91 3e 7c 4f 32 3e 58 2a 72 3e
       0.2925863 0.2850216 0.17413133 0.23648965
0000d0 52 79 b9 3d af aa bb bd d7 45 1c 3e 13 a1 d1 bd
       0.09056343 -0.09163415 0.15261017 -0.102358006
0000e0 7e 49 56 3e e4 8f 03 be c3 68 55 be c9 a0 31 be
       0.20926473 -0.12847859 -0.20840745 -0.17346491
0000f0 a6 35 8e bd 1f 31 27 3e 0d c2 a5 3d fa fb 83 3e
       -0.069438264 0.16327332 0.08093653 0.2577818
000100 eb 4d 81 3d 9b 56 85 3d cc 1d ea bc 01 1f cf bd
       0.0631369 0.06510659 -0.028578661 -0.101133354
000110 64 74 36 bd 11 c1 0a 3e ee 16 b2 bd 68 52 5d bc
       -0.044544592 0.13550211 -0.0869578 -0.013508417

rnn.weight_ih_l1 f4 [72, 24]
000000 68 9f 1f be 4f d8 0b 3d e1 9c 42 3e 2f 6f 89 be
       -0.15588152 0.034141835 0.19005157 -0.2684264
000010 19 8e 35 be 19 c4 5d 3d 19 3e c2 3c 56 72 30 be
       -0.17729987 0.05414209 0.023711251 -0.17231116
000020 8e 13 98 3d 84 80 12 3e ee b4 20 3e 77 18 2f 3e
       0.07425605 0.14306837 0.15694019 0.17099176
000030 96 85 1f 3e 6c 57 2f bd 1f ad 5a be 9a ff 25 be
       0.15578303 -0.04280798 -0.21355103 -0.16210786
000040 9d 56 1d be f4 87 66 bd f7 b2 db 3d 4a de 9a be
       -0.15365072 -0.056282 0.10727494 -0.30247718
000050 2a 69 03 3d 08 4f ea 3d 34 76 7c 3b f9 05 3e be
       0.032082714 0.11440855 0.0038522603 -0.18556966
000060 b1 9a 6f be b3 cf 51 be db 8c 4d bd f4 48 33 be
       -0.23398854 -0.20489387 -0.05018316 -0.17508298
000070 da a1 2c be e9 b6 dd bb 05 78 38 bd 63 06 57 3e
       -0.16858616 -0.0067661894 -0.045036335 0.2099853
000080 9b c7 05 be 1e ca 1d 3e 97 0b ca bd e9 d6 2d 3e
       -0.13064425 0.15409133 -0.09865492 0.16976513
000090 46 8b 62 3e b2 c5 d3 3d 3c 36 e8 bc 9c ce b6 39
       0.22123441 0.10340442 -0.028346173 0.0003486768
0000a0 18 5c 3d 3d b5 4e c0 bc a2 73 0d 3e 62 4d 0c 3e
       0.046230406 -0.02347503 0.13813642 0.13701394
0000b0 6c cf 7c 3e 16 a0 8b 3d cf 34 46 be 76 ba 0a be
       0.246885 0.06817643 -0.19356082 -0.13547692
0000c0 5f a3 b3 3d c8 28 38 3e 0e 09 d9 3b 7d 46 a0 bd
       0.08771395 0.17984307 0.006623394 -0.078259446
0000d0 8c 0d 5e be 46 e2 11 be 38 a6 5c be a6 ac e2 3c
       -0.21684855 -0.14246473 -0.21547782 0.027670216
0000e0 a4 3b ce 3d d9 c1 dc 3c 28 26 7b 3e 63 be 96 3d
       0.10069969 0.026947903 0.24526274 0.07360532
0000f0 e3 0c 3b 3e 12 a5 51 3e da d2 64 bd 61 b9 c9 bc
       0.18266635 0.20473126 -0.055865146 -0.024624528
000100 4c 88 3c 3e 7f 3b cb 3d 70 ec b8 3d 92 4b fe 3d
       0.18411368 0.09923457 0.09029472 0.12416758
000110 8e 5a 0d 3e 77 79 df bd d7 f3 3c bd 5b d1 f1 3d
       0.13804075 -0.109118395 -0.04613098 0.118075095
000120 fc f8 82 bd cc 08 9b bd 23 a3 b2 3e 68 0b a6 3d
       -0.06395146 -0.07570037 0.34890088 0.08107644
000130 56 ea 3b be cd 21 fe 3d 73 d1 0c 3e 7a 1c e8 bd
       -0.18351111 0.12408791 0.13751774 -0.113335565
000140 ec 73 ad bc 2b 00 60 be 8f 52 5e bd e7 75 0f be
       -0.02117344 -0.21875064 -0.054277953 -0.1400982
000150 5b c2 c3 bd 29 8d 8b 3d 54 af 58 bb d8 c9 ae bd
       -0.09558555 0.068140335 -0.0033063488 -0.085345924
000160 a4 8f d6 3d bd 9e 27 bd 73 3e e7 3e 76 6b e6 be
       0.10476616 -0.04092287 0.45164832 -0.4500386
000170 64 40 d9 bd 61 4a 5b 3e 11 aa db be 3b 2c 7a be
       -0.10607985 0.21415092 -0.42903188 -0.24430935
000180 81 df fb bd 23 b8 a0 bd 62 94 33 3e 47 1e 90 bb
       -0.12298489 -0.07847621 0.17537072 -0.0043981406
000190 6f 85 2b be ad dc 1f 3e 35 25 25 3e aa 48 9a 3d
       -0.1675012 0.15611525 0.16127475 0.07533391
0001a0 48 49 a4 ba 8c 35 29 be 76 32 4f 3e d1 a2 a6 bc
       -0.0012534047 -0.16524333 0.20234093 -0.020341309
0001b0 f4 95 71 bd 13 f6 57 be 69 c9 87 bd 1e fd 83 3e
       -0.058980897 -0.21089964 -0.06630213 0.2577905
0001c0 08 2a 49 3e 37 b6 18 3e b1 2a b0 3d e5 5d 02 3e
       0.1964494 0.1491326 0.08601893 0.1273113
0001d0 bc 75 1a be 7f e7 b5 be 33 37 37 3e 94 fd 64 3d
       -0.15083975 -0.3552818 0.1789215 0.055905893
0001e0 f7 28 98 3d 9a 80 8e be ae e5 11 3d 69 f9 01 3e
       0.074296884 -0.2783249 0.03561943 0.12692799
0001f0 98 a0 20 bf 5b 85 0d be cf 13 85 bd 00 1e ea be
       -0.62745047 -0.13820402 -0.06497919 -0.45726013
000200 bd 3a f3 bd 54 38 74 bd 2e 8b 00 3e f5 26 df 3d
       -0.11876438 -0.05962403 0.12553093 0.10896102
000210 4d b3 f0 3d 8e 0f 7e bd 63 fe 9e bc 7e 1c 4b be
       0.11752949 -0.062026553 -0.01940841 -0.19835088
000220 78 80 be be b4 12 fb 3d 77 a0 e4 3e 05 80 56 be
       -0.3720739 0.12259427 0.44653675 -0.20947273
000230 c0 a7 11 3f c5 f2 1e 3f 0f e1 39 bf e2 82 d0 be
       0.5689659 0.62089187 -0.7260904 -0.40724856
000240 20 e3 74 be b7 d8 a4 3d c6 ec 80 3b b0 8a b7 3c
       -0.23914766 0.080491476 0.0039344756 0.022404999
000250 ab 96 00 be c8 a7 53 3d 18 9e 3c 3e d9 d9 ee bd
       -0.12557475 0.05167368 0.18419683 -0.11662645
000260 84 af 19 3e be fe 52 be 26 8e 48 be 00 15 6e 3e
       0.1500836 -0.20604989 -0.19585475 0.23250198
000270 bd f5 6a bd 95 cc 5b bd 0c e9 88 3e c3 43 0e be
       -0.05736326 -0.0536619 0.267403 -0.13893037
000280 e4 4e 29 3e ec 38 03 3e 20 da 2f be 4b 7d 58 be
       0.16534 0.12814683 -0.17173052 -0.21141545
000290 7f f1 31 bd 16 b3 1b be 67 bb e3 3c f0 92 06 3d
       -0.0434432 -0.15205035 0.027799321 0.032854974
0002a0 05 58 ec bd c3 dc ab 3e df 90 98 39 79 c9 84 3d
       -0.11540226 0.33566865 0.00029099637 0.0648374
0002b0 55 ec b7 3e a9 39 94 3d f2 07 82 3e 06 00 e5 3d
       0.35922495 0.0723756 0.25396687 0.11181645
0002c0 68 7d 5b be 0f 68 c5 be 64 d9 cc be 75 cf ea 3c
       -0.21434557 -0.38555953 -0.40009606 0.028663376
0002d0 c4 f5 5b be 27 04 07 be 42 7a d4 bd 5f 7b 19 3f
       -0.21480471 -0.13185178 -0.10374881 0.59953874
0002e0 7b 15 c8 3d 78 b3 ba bd dd b2 3b 3e b5 8c 04 3e
       0.09769722 -0.09116262 0.1832995 0.129443
0002f0 df 25 b0 be 46 34 74 be 16 0c b8 3e 0a 42 1a 3e
       -0.34403893 -0.23848066 0.3594672 0.15064254
000300 18 ac 76 3d 62 7f 51 be 25 a4 12 be 92 d3 47 bd
       0.060222715 -0.20458749 -0.14320429 -0.048785754
000310 cc cb ba bd 91 be d8 bd b8 1f 3b 3d ed 3a 37 bd
       -0.091209024 -0.10583223 0.045684546 -0.04473393
000320 7e cd e9 bc 76 44 85 3e 05 f1 34 be ae 34 90 3d
       -0.02854037 0.26028794 -0.17670067 0.07041298
000330 30 7e 45 bb 64 39 c4 3d f1 97 b4 bd 84 13 36 be
       -0.0030135028 0.09581259 -0.08818043 -0.17780882
000340 0d 3e 4e be bf af 78 bc 9b 12 26 3d d7 4d 5c 3c
       -0.20140858 -0.01517862 0.040545087 0.013446293
000350 5c d2 30 be 25 f4 e2 bd 53 b1 57 be ae 43 17 3e
       -0.17267746 -0.11081723 -0.21063738 0.14771912
000360 04 9f 97 3e cd f7 05 be 6b a4 da bd 50 33 00 3e
       0.29613507 -0.1308281 -0.106758915 0.12519574
000370 51 29 bc 3c 87 d7 14 3d dd 8e 35 3e 5a 30 9b 3e
       0.02296892 0.036338355 0.1773028 0.30310327
000380 0c e4 eb 3c 47 63 5d bd ab 3b e1 bd c9 85 9d be
       0.028795265 -0.054049756 -0.10997709 -0.30766132
000390 46 4e 82 be 4c 3b fe bc 63 18 63 bd a4 2e 4f 3d
       -0.25450343 -0.031034134 -0.05544318 0.05058159
0003a0 b9 63 7d bd 1f 7f 8a be c3 34 cb bd ff 3f 07 be
       -0.06186268 -0.2705011 -0.09922173 -0.13208006
0003b0 0d 09 9a 3d 16 e4 c2 3d 4b 30 ca bc 5e 5c d5 3c
       0.075212575 0.0951616 -0.024681231 0.02604502
0003c0 ca 5c 4b 3e 6e 44 8f 3d 78 7f 83 3c 6d 93 54 3d
       0.19859615 0.06995474 0.016051993 0.05189841
0003d0 5a ca 89 be 57 97 87 3d 53 7d fa 3c 0f 13 da 3d
       -0.26912194 0.06620663 0.030577337 0.106481664
0003e0 98 d6 19 3d be 08 d4 bd 19 b7 1c be 36 39 fb 3c
       0.03755817 -0.1035323 -0.15304221 0.030666929
0003f0 dc f7 71 be 5c 02 fa bb 76 19 49 3e 29 d0 01 3e
       -0.23629707 -0.007629676 0.19638619 0.12677063

rnn.weight_hh_l1 f4 [72, 24]
000000 f0 02 84 bd b4 40 87 be db dd e0 3d e3 47 1d be
       -0.06445873 -0.26416552 0.109798156 -0.15359454
000010 cc b6 52 3e 7d 25 b5 bd bd 96 81 3e b2 b3 5f be
       0.20577544 -0.08845041 0.25310317 -0.21845892
000020 a1 c3 52 be 7b e6 ee bc 6c 59 3d 3e 1f 0c 00 3e
       -0.20582439 -0.029162636 0.18491143 0.12504624
000030 fe 93 86 3e 10 15 20 be ae d5 c3 3c 0e 03 98 3e
       0.26284784 -0.15633035 0.023905601 0.2968983
000040 93 97 40 bb 57 bd c1 bd f2 77 08 3f e0 6d c0 3d
       -0.002938722 -0.09459942 0.5330802 0.09395957
000050 22 10 39 be 4b d9 3b 3e 3b c1 45 bd 64 ff b8 3d
       -0.1807256 0.1834461 -0.048279982 0.09033087
000060 a1 10 ff 3c 6e f0 12 be 1f 25 ce 3d ee 9e e3 bd
       0.031135859 -0.14349529 0.10065674 -0.11114298
000070 3d 95 00 3e 7c 1c 01 bc 04 25 a1 3d 70 76 96 3d
       0.1255693 -0.007880326 0.07868388 0.07346809
000080 51 1c 4d be 4f 98 5e be 91 a9 b0 3e 18 90 12 3e
       -0.20030333 -0.21737789 0.3450437 0.1431278
000090 76 64 68 be fc 03 d3 be 77 57 8f 3d c4 2f 27 3e
       -0.22694573 -0.41213977 0.069991045 0.16326815
0000a0 33 94 43 bd 8c 81 41 3d e4 85 81 bd 37 22 b0 3b
       -0.047748756 0.047242686 -0.06324366 0.0053751725
0000b0 a1 32 dd bd ca fa e0 bd ed 4a 2f 3e bc 04 6d 3e
       -0.10800672 -0.10985334 0.17118426 0.23146337
0000c0 fc 34 46 be cd 8b 14 be 9c 46 05 3e df c6 1e be
       -0.1935615 -0.14506455 0.13015217 -0.15505551
0000d0 df 73 5d bd 20 f5 7e be 11 e5 1e bd 22 04 a1 3c
       -0.05406558 -0.24898195 -0.038792673 0.019655291
0000e0 03 94 97 be e6 bb 3d bd 6f bf 96 3e ff bf 01 3e
       -0.2960511 -0.046321772 0.29442927 0.12670897
0000f0 17 92 ba bd 93 6c 6b be 41 98 b1 ba f6 51 23 bd
       -0.09109896 -0.22990637 -0.0013549404 -0.039873086
000100 fe 26 79 bd 46 da 39 bd 9b 46 4c 3d dd 9c d5 3d
       -0.0608282 -0.045374177 0.049872022 0.1043031
000110 72 70 5d be 57 60 96 be e9 c7 41 bd c1 b8 7f bd
       -0.21624926 -0.29370376 -0.04730979 -0.062432054
000120 df 23 16 3e 7a a7 3e 3d e6 a7 80 3c 65 f7 79 be
       0.14662121 0.046546437 0.01570506 -0.2441078
000130 e0 10 8f 3e 31 d4 cc bd 93 57 b3 3e 35 10 89 be
       0.27942562 -0.1000141 0.3502775 -0.26770177
000140 00 fc 3c 3d c1 42 16 be 6b e5 37 be d0 3c 0f bd
       0.046138763 -0.14673902 -0.1795861 -0.034970105
000150 ab 0a 27 3e 3a 57 ca 3d 87 17 23 bd 39 d6 c5 3d
       0.16312663 0.098799184 -0.03981736 0.0966
000160 eb 59 1a 3d f0 2f f2 ba d8 87 33 3f 4a 0d 9e 3e
       0.03768341 -0.0018477421 0.70129156 0.30869514
000170 2e 56 03 bd 31 df 60 3e 83 99 21 be 87 32 f9 bd
       -0.03206461 0.21960141 -0.15781216 -0.121678405
000180 9f ea 4e be 60 3d 51 be ba 0f 23 3d 4b 13 4d be
       -0.20206688 -0.20433569 0.03980992 -0.20026891
000190 95 c0 57 be 0e 3f 90 bd 46 1e be bd 8c 82 9d 3e
       -0.21069558 -0.07043277 -0.09283118 0.30763662
0001a0 a9 bd 48 be 00 ef 9d 3d ac d3 35 3e ed 38 b6 3e
       -0.196036 0.07711601 0.17756528 0.35590306
0001b0 c2 3e a0 3d 79 1e ac bc d3 74 47 3e 82 26 c0 3e
       0.0782447 -0.021010624 0.19478159 0.3752938
0001c0 ec ab 3b 3e c4 7f 92 3d e1 93 a4 bd c9 f4 91 3d
       0.18327302 0.071532756 -0.08036018 0.07126767
0001d0 10 37 ed be 0c ed ce bd f4 47 fe 3d 06 79 d7 3d
       -0.46331072 -0.10103807 0.12416068 0.1052113
0001e0 57 e8 c2 3c 9e 64 c4 bd ee 2c 3e be 5f 61 54 3c
       0.023792429 -0.09589504 -0.18571827 0.012962668
0001f0 b8 50 5a 3f 81 08 67 3d 70 cf 84 3e c0 e8 84 be
       0.8527942 0.056404594 0.25939512 -0.25958824
000200 f8 1d 69 3e 0f 4b d9 3d 67 67 72 bb 60 53 19 3d
       0.22765338 0.106100194 -0.0036987902 0.03743303
000210 30 06 04 3d bd 49 3e be 6d f8 38 be 12 c1 e5 bd
       0.032232463 -0.18582816 -0.18063517 -0.11218466
000220 6d 39 ad bd 4e 03 51 be 5e 38 1c 3f f6 54 03 3f
       -0.08458219 -0.20411417 0.6102351 0.51301515
000230 5d df 04 3e f3 e4 fc 3c ac 9f a7 bd dc bc a9 3d
       0.12975831 0.03087089 -0.08184752 0.08287975
000240 3c b9 ae 3d 33 0b 1a be bf 98 8c 3e 03 bb 0f be
       0.085314244 -0.15043335 0.27460286 -0.14036183
000250 33 5e 1a 3e 0d 39 8e 3e 11 81 cc 3d 51 6a 8f bd
       0.15074997 0.277779 0.09985555 -0.070027
000260 e4 9f a1 be 95 81 c7 bd 0a 8a 10 bd da af 60 be
       -0.315673 -0.09741513 -0.035287894 -0.21942082
000270 5d 06 0f 3e ce 2d 6b bd 33 be a2 bd f8 7e 56 3c
       0.13967271 -0.05741673 -0.07946434 0.013091795
000280 4e 3c 15 3e 9d 37 cb be d1 0b 93 bd 00 29 c9 3c
       0.14573786 -0.39690867 -0.07179988 0.024555683
000290 a4 13 e2 bd 7b 98 b7 bd b6 db 6a be 19 8d a6 bc
       -0.110389024 -0.0896463 -0.22935376 -0.020330952
0002a0 89 58 0d 3e 5a 7b 0a be 8a 42 c0 bd 0e a5 46 3e
       0.13803305 -0.13523617 -0.09387691 0.19398901
0002b0 f8 87 32 3e db cb 91 be 22 cb 06 3e 87 ae b8 be
       0.1743468 -0.28475842 0.13163427 -0.36070654
0002c0 af d1 54 be 2d 5a 16 3d 31 db 61 3d 77 28 d2 be
       -0.20783113 0.036707092 0.055140678 -0.41046497
0002d0 22 34 d3 bd bd a5 04 3e a4 1d 5a 3e 72 24 3c be
       -0.10312678 0.12953849 0.2130037 -0.18373278
0002e0 66 d1 08 3e bb 31 64 be 29 3a 32 3d 74 35 38 be
       0.13361129 -0.22284596 0.043512497 -0.17989141
0002f0 c8 fd 3f 3e 34 a0 4c 3e 53 a6 98 3e fa cb d3 bd
       0.18749154 0.19982988 0.29814395 -0.1034164
000300 4e c9 22 3d 28 b2 8d 3c 49 e4 8b bd 0b 21 87 3e
       0.03974276 0.017296866 -0.06830651 0.26392397
000310 4a 20 96 bd 87 da 53 3d 8e 5b 68 bd c5 5f bd bd
       -0.073303774 0.051722076 -0.05672794 -0.09246782
000320 2c 37 04 be 26 44 93 bd 80 93 bb 3c 73 cf 49 3a
       -0.12911671 -0.07190733 0.022897482 0.0007698454
000330 1e d7 7f be d4 e7 5b bd d1 0b 3b 3e 7e 96 17 3e
       -0.24984404 -0.053687885 0.18266226 0.14803502
000340 ac b8 ae bd c1 95 dd 3d e3 8a 98 be d1 28 5a be
       -0.08531317 0.10819579 -0.29793462 -0.21304633
000350 80 8b 7b be e2 d4 94 be 9c 66 aa bd 9a 8b 09 bd
       -0.24564934 -0.29068667 -0.083203524 -0.0335804
000360 ef 9a b1 bc 56 26 2d 3e 21 8f 7d be 77 98 d9 bd
       -0.021680323 0.16909155 -0.2476163 -0.106247835
000370 d5 9f 55 3d ee 3d 53 be 7e 57 a7 3d bf 95 2c 3e
       0.05215438 -0.20629093 0.08170985 0.16853999
000380 c6 6c 0e be 9c 75 53 bc 03 a7 f0 bd 26 fd c4 bb
       -0.13908681 -0.012906458 -0.11750605 -0.006011623
000390 f5 5a 61 bd 60 f9 4d 3e 4e ff 99 3d 83 5b b6 bc
       -0.055018384 0.2011466 0.07519399 -0.022260433
0003a0 88 2d 06 bd 9b 2f fe bd 99 ff e0 3d 71 5a 2d 3e
       -0.032758266 -0.12411424 0.109862514 0.16929032
0003b0 3d 5b 48 3e d4 64 cf bd 7c 6b b4 3d d4 33 4f be
       0.19566055 -0.10126653 0.088095635 -0.20234615
0003c0 f9 e0 08 3e 95 bb 2c 3e f4 56 89 be 51 eb e0 3a
       0.1336707 0.16868432 -0.26824152 0.0017159974
0003d0 ac b2 5f be ae 50 84 be 08 16 4b be ec 13 f7 3d
       -0.21845502 -0.25842804 -0.19832623 0.12064347
0003e0 74 00 76 3e 52 da 26 3e 4f 63 6d 3c 3a 56 ff 3d
       0.2402361 0.1629422 0.014489009 0.12467618
0003f0 23 22 cf bc c1 5e 14 be 31 bd 88 3e 89 77 74 bd
       -0.025284832 -0.14489271 0.26706842 -0.05968431

rnn.bias_ih_l1 f4 [72]
000000 41 a1 03 3e 9d c5 06 be a8 8f 0b be 13 b0 c9 3c
       0.12854482 -0.13161321 -0.1362902 0.024620092
000010 4d 95 85 be ed 7a 9e 3e b2 56 06 3e 0a e3 f9 3c
       -0.2609047 0.3095316 0.13119009 0.030503768
000020 b0 8c c8 3d dd 49 57 3e 53 45 ba 3e f5 66 93 3c
       0.09792459 0.2102427 0.36381015 0.01799343
000030 39 1a f1 3b e6 cc d7 3d ca 83 a2 bd b8 e4 da bc
       0.0073578623 0.10537128 -0.07935293 -0.02672039
000040 be a3 75 bd 50 dd 3c 3e b7 a2 a5 bd 2f ba 2f be
       -0.05997061 0.18443799 -0.08087676 -0.17160867
000050 2b 2c 8b 3d a9 b6 55 3e 21 1e c8 bb 5a 61 d5 3e
       0.06795534 0.2087046 -0.0061071073 0.41675836
000060 3d ef 0e bf 89 d9 7e be 6e b8 71 be 89 3a 19 bf
       -0.558338 -0.2488767 -0.2360551 -0.5985494
000070 41 8a 23 be 94 21 0f bf 39 d8 15 bf da 8a ec be
       -0.15970708 -0.5591061 -0.58533055 -0.46199685
000080 1c b7 97 be c7 d6 80 be 12 12 43 3e 5c 40 28 bf
       -0.2963189 -0.25163862 0.19049862 -0.65723205
000090 f9 f5 f9 be 03 d9 98 be c7 82 d2 bd 33 66 e0 be
       -0.48820475 -0.29853067 -0.1027885 -0.43827972
0000a0 4e 75 bc bd 9c 25 f3 be 34 54 07 bf d1 36 c5 bc
       -0.092020616 -0.4748963 -0.5286286 -0.02407399
0000b0 e7 f1 83 be 10 b1 98 bd e6 94 1f bf e7 38 3e bf
       -0.25770494 -0.07455647 -0.62336576 -0.74305576
0000c0 63 88 87 3e 19 57 51 3e cc a6 e7 bd fc ab 7d 3e
       0.26471242 0.20443381 -0.11311111 0.24772638
0000d0 13 cb d5 3c 0b 0b 88 be 7f b8 24 3e af 84 6b bc
       0.02609781 -0.26570925 0.16086005 -0.014374896
0000e0 5b 48 8b 3e 75 74 48 3e 73 76 36 be 5e 41 1c be
       0.2720364 0.19575675 -0.17818622 -0.1525931
0000f0 76 0a 8e be 07 36 f7 3d eb f6 7d 3e 18 58 67 be
       -0.27742356 0.12070852 0.24801223 -0.22592199
000100 88 56 a1 be bf 3a 62 be 0b 94 e2 bd 8a 1c 43 3d
       -0.3151133 -0.22092722 -0.11063393 0.04763464
000110 c4 70 21 3e 6a f3 98 3e 7d da e6 3d e0 3a 02 bf
       0.15765673 0.2987321 0.11272142 -0.50871086

rnn.bias_hh_l1 f4 [72]
000000 7b 9a 1f ba f2 e9 16 3d f7 d9 81 3e 95 a3 e0 3d
       -0.0006088388 0.0368442 0.25361606 0.10968701
000010 57 a3 21 be 51 ac a1 3e ac 00 ef bb e3 7a 04 be
       -0.15784965 0.3157678 -0.0072937813 -0.12937503
000020 47 6e 1a 3d be 6c 43 3e c4 02 96 3e c4 c2 c5 3d
       0.037702825 0.1908445 0.29298985 0.09656289
000030 08 90 94 3d 81 30 02 3e 89 92 41 3e cc 25 4b 3e
       0.07254034 0.12713815 0.18903555 0.19838637
000040 1c a5 ac 3d 79 d7 bf bd 99 f5 e0 3d bf f7 50 3d
       0.084299296 -0.0936727 0.10984344 0.05101752
000050 f5 e5 cb 3b 31 d0 99 3d ba f7 aa 3c 2f 7c 8f 3e
       0.0062224814 0.075104125 0.020870078 0.28024432
000060 0c d9 9f be 62 b7 5e be d7 9d 02 be 20 df d0 be
       -0.3122028 -0.21749642 -0.12755524 -0.4079523
000070 31 43 4b bd f9 49 49 bf 34 72 26 bf b0 10 06 bf
       -0.049624626 -0.786285 -0.6501801 -0.52369213
000080 39 7c b9 bd f0 37 66 be 44 a2 8a 3e 8e 50 e4 be
       -0.09056897 -0.22482276 0.27076924 -0.44592708
000090 5f ef d8 be fa 97 84 be 7c 46 b1 bd 71 30 4d be
       -0.42370126 -0.258972 -0.08656022 -0.2003801
0000a0 70 9f 99 be 8a ba de be 4b bd 2a bf c3 8b 94 bd
       -0.30004454 -0.43501693 -0.6669509 -0.0725322
0000b0 d6 cc b2 bd cc 61 99 be 38 f0 15 bf f4 11 8a bf
       -0.087304756 -0.29957426 -0.5856967 -1.0786729
0000c0 b1 39 29 3e 33 34 af bb 2e 08 fb bd e1 37 21 3e
       0.16525914 -0.005346799 -0.122574195 0.15743972
0000d0 00 34 24 3e 4b e4 71 be 15 e4 84 3c df a6 e3 3c
       0.16035461 -0.23622243 0.01622204 0.027789531
0000e0 1a 27 79 3d 35 f2 a7 3e 46 1c 88 be fd 69 4f bd
       0.060828306 0.32801977 -0.2658407 -0.050638188
0000f0 ee 16 09 be d1 eb cd 3d 10 b0 48 3e e0 fd 97 be
       -0.13387653 0.10054744 0.19598413 -0.2968588
000100 b2 11 2c be 8b f1 40 be c1 c1 c4 bd 8a e6 92 be
       -0.16803625 -0.18842141 -0.09607268 -0.28691512
000110 e5 b6 08 3e 0e 1a aa 3e 41 3c 91 3e 68 96 13 bf
       0.13351019 0.33223003 0.28366283 -0.57651377

rnn.weight_ih_l2 f4 [72, 24]
000000 c4 82 47 3e 83 a5 cf 3d e3 6b 06 be db 4e 6e 3e
       0.19483477 0.10138991 -0.13127093 0.23272268
000010 9a c2 2c 3d b3 2b e9 bd 82 e0 02 3e b4 44 c1 bd
       0.042177774 -0.11385288 0.12780955 -0.09436932
000020 d0 09 22 3e 7b 8b a7 3e 98 d7 1f bf 7b 1b 6c be
       0.15824056 0.32723603 -0.62438345 -0.23057358
000030 62 98 39 bd 16 b2 cd 3e bf f0 48 3e 98 14 9b be
       -0.04531134 0.4017493 0.19623087 -0.3028915
000040 98 5d 8a be 15 ef ac 3d f0 e3 0b 3e 2c 08 53 be
       -0.2702453 0.08444039 0.1366117 -0.20608586
000050 d9 48 b0 3e 33 e2 a5 3d ed e5 63 3e fd 6c cc be
       0.34430578 0.08099785 0.22255678 -0.399269
000060 b1 fc 8b 3f 84 37 cc 3d 06 d3 93 be c7 75 a0 3f
       1.093649 0.09971526 -0.28871936 1.2535943
000070 56 e7 01 bf a0 d9 7a bf 58 9c 20 be 65 cd 3d be
       -0.50743616 -0.9798832 -0.1568464 -0.18535383
000080 b5 1d a4 3e 24 89 09 3f ec 62 97 3d 34 ac 81 bc
       0.32053915 0.53724885 0.07391915 -0.015829183
000090 ea 35 09 bf f8 ca 87 3e 12 d7 bf 3e 5c b8 0b 3e
       -0.5359789 0.2652204 0.37468773 0.13644546
0000a0 ff f7 7b be ff 7d 02 be 3a 3d ac 3d d8 f4 8e be
       -0.24606322 -0.12743376 0.084101155 -0.27921176
0000b0 a2 50 2b 3e 6a a5 99 3e 05 d6 26 3f 0d f1 ef be
       0.16729978 0.30009013 0.6517032 -0.46863595
0000c0 5e 00 da bd 66 35 8e 3d bd f4 aa bd a1 25 0f 3e
       -0.10644601 0.06943779 -0.083474614 0.13979198
0000d0 5a 61 46 3e d0 0a 88 bd 58 7b 62 bd 10 42 a6 bd
       0.19373074 -0.06642687 -0.05529341 -0.08118069
0000e0 c2 80 31 3d 54 2a db 3d 2a 31 09 3e 68 23 0f bd
       0.043335684 0.10701433 0.13397661 -0.034945875
0000f0 89 19 45 bb 87 35 45 3e f7 77 7b 3e 3f a1 00 3e
       -0.0030075035 0.192587 0.24557482 0.1256151
000100 d5 37 f6 3d b4 e4 77 be c4 86 91 3e 31 df 55 bc
       0.12022368 -0.24208337 0.2842313 -0.013053701
000110 68 bf 23 3e b5 99 53 bc d2 32 e9 3d 22 53 b9 bd
       0.15990984 -0.012915065 0.11386646 -0.090490595
000120 b5 23 16 3d 0e c1 4a be 52 e9 a3 bc 83 d9 1c bd
       0.036655147 -0.19800207 -0.020008717 -0.038293373
000130 1d c6 1d bd 82 53 92 bd e8 ee 3b 3e b6 5a 7b 3d
       -0.038519014 -0.07144834 0.18352854 0.061365806
000140 2c 7e 20 3d 71 cf 98 bc 22 d0 97 bd 4b 5a 94 be
       0.039182827 -0.018653603 -0.07412745 -0.28975138
000150 15 0d e5 bb cf b1 c1 bb 84 a1 30 be b3 ab ad 3d
       -0.006990085 -0.005911089 -0.17249113 0.08480015
000160 aa d8 1c bd bd 90 1f bf c5 96 19 3c 72 9d 17 bd
       -0.038292564 -0.6233023 0.009374325 -0.037015386
000170 42 19 4b be 80 d7 ab 3c b7 84 d1 3d 90 32 d8 3d
       -0.19833854 0.020976782 0.102303915 0.10556519
000180 3a 9c 9a bd c1 57 63 bd 21 8d 37 3e cd 8f 5a 3b
       -0.07549329 -0.05550361 0.1792493 0.0033349872
000190 66 55 5b 3e 27 9e 02 3d 16 0e db bd 01 b4 f3 3d
       0.21419296 0.031889107 -0.10696046 0.118995674
0001a0 67 d2 36 3e d4 ff ee bd 6e 17 89 3c 3c fa 74 3d
       0.178537 -0.11669889 0.016734805 0.059808955
0001b0 72 5f ee 3d 6e 41 0d 3d 41 7e b2 be 5c 10 50 3e
       0.116392985 0.034486227 -0.3486195 0.2031874
0001c0 14 c1 bb 3d 15 a5 bb 3d 3f e4 0a 3e bc 31 89 3e
       0.09167686 0.09162346 0.13563631 0.26795757
0001d0 ad 87 53 be ee de f4 3d dc 15 05 bd d6 18 5a 3e
       -0.20657225 0.11956583 -0.03249155 0.21298537
0001e0 a1 35 42 3e 5e c6 88 3e e8 96 77 be 87 fc 40 3e
       0.1896577 0.26713842 -0.2417866 0.18846332
0001f0 ca f7 f4 bd 3c 6f 05 bf 55 1a cd be e2 dd 24 3e
       -0.119613245 -0.52122855 -0.40059152 0.16100267
000200 ec 26 bf 3e 9c 5b ef 3e 34 08 d9 be 39 3a 32 3c
       0.37334383 0.4674958 -0.4238907 0.010878139
000210 7f 6b ce be 95 bd c6 3d e9 c0 77 3e 02 68 70 be
       -0.40316388 0.09704129 0.24194683 -0.23477176
000220 07 9c ab be fd de 5f bb d9 cf 63 be 41 4a ca bd
       -0.33517477 -0.003416001 -0.22247256 -0.09877444
000230 71 1d c5 bd 76 ac 8a 3e 22 4a 57 3e 78 6b ec be
       -0.09624756 0.27084702 0.21024373 -0.46175742
000240 32 02 e2 bc 98 93 d7 3d f8 e9 ef 3d 07 bf a6 3d
       -0.027588937 0.10526198 0.11714548 0.08141904
000250 6e b1 5a 3d 30 7d aa 3d 82 dc 9f 3e 20 26 8a bc
       0.053391866 0.08324659 0.31222922 -0.016863883
000260 40 e0 10 3e 29 e7 31 3e 97 be 75 3d 72 2b 01 be
       0.14148045 0.17373337 0.059996214 -0.1261423
000270 cd cb 67 3b aa 40 27 be 23 dc c3 3d 61 ab 12 be
       0.0035369277 -0.16333261 0.09563472 -0.14323188
000280 09 f4 7a bd 73 e3 1d be ff bb 15 3e 5d 6e 13 3d
       -0.061267886 -0.15418796 0.14622496 0.035993923
000290 96 ab d1 bd b5 e9 52 bd 7d 7f 30 3e 59 ba ae bc
       -0.102378055 -0.05149241 0.17236133 -0.021329092
0002a0 88 34 79 3d 64 44 bd 3d 6f 7f 3e 3e 55 f0 13 3d
       0.060841113 0.0924156 0.186033 0.03611787
0002b0 d0 b7 27 bd 90 09 f6 3c ec 2e 00 3e 3f 80 8b bd
       -0.04094678 0.030033857 0.125179 -0.068115704
0002c0 a3 e9 2c be eb 58 dd bc e2 0e 5c 3e c5 9b 2b be
       -0.16886 -0.027019938 0.21490052 -0.1675864
0002d0 81 38 0e 3e 69 70 83 bc 2e 6a af 3c cf d1 e2 3d
       0.13888742 -0.016044812 0.021412935 0.11075174
0002e0 3f 5d 97 3e 40 c2 07 3e 23 64 70 3d fc da 52 be
       0.2956333 0.13257694 0.058689248 -0.20591348
0002f0 44 06 66 3d 56 c3 39 3d 1c 0f 31 bd d4 c2 15 3e
       0.05615832 0.045352302 -0.0432273 0.14625102
000300 ec 58 9d bd 8d dc 2d be d2 39 a3 3e 1b 70 aa bd
       -0.07682976 -0.16978665 0.3188005 -0.08322164
000310 29 d3 b5 bd b7 a8 a5 3d d0 7a 40 bc 81 7a e2 3d
       -0.08878166 0.080888204 -0.011748031 0.11058522
000320 ab c9 4c bd da 53 f2 bc 02 8c 81 3e bc 19 66 bd
       -0.049997013 -0.029581 0.2530213 -0.056176886
000330 3d d9 62 3d ad 77 80 3d a1 e0 63 be 77 04 ab 3e
       0.055382956 0.06272826 -0.22253658 0.33401844
000340 dd 93 b9 3d 99 5a 1c 3e 24 aa f6 3d 3e 51 94 3c
       0.09061406 0.15268935 0.120441705 0.018105146
000350 4c 91 54 bd 5a 06 8e 3c 13 92 9d be b7 ca b0 3e
       -0.05189638 0.017337013 -0.30775508 0.3452966
000360 0c 1d 1d be ef 93 16 be 80 24 60 3e 33 12 e0 bd
       -0.15343112 -0.1470487 0.21888924 -0.10940971
000370 b4 06 12 be 5d df 1d 3e 52 86 59 be e8 f5 f8 3d
       -0.1426037 0.15417238 -0.21242645 0.12156278
000380 30 46 62 be 7b 6e 37 3e 89 33 81 3c e5 4d e8 ba
       -0.22097087 0.17913239 0.015771644 -0.001772341
000390 fb cc 86 3c c6 df bd 3d 93 37 bd bd cd ec 24 be
       0.016455164 0.09271197 -0.092391156 -0.16105957
0003a0 4e ef 83 bb a9 25 c3 bd c5 f3 41 3d 3e 73 f3 3d
       -0.00402633 -0.095286675 0.047351617 0.11887215
0003b0 17 30 ce 3d 9f 96 4d be 06 f1 20 bd 40 0c fd bd
       0.10067766 -0.20076989 -0.039292358 -0.12355852
0003c0 7e 45 70 be 42 9a f2 be 54 9c 90 3e 30 36 72 bd
       -0.23464009 -0.47383314 0.2824427 -0.05913371
0003d0 61 59 bf bd 28 56 91 3d 67 03 50 be 2c cc c2 3e
       -0.093432195 0.07096511 -0.20313798 0.38046396
0003e0 9e de b4 bd 78 56 94 be 87 da d2 3d ba f6 95 3d
       -0.08831523 -0.2897222 0.10295587 0.0732245
0003f0 d9 9f 2b 3e ea 82 53 be 31 6c 86 bd 60 4c 14 3f
       0.16760196 -0.20655409 -0.065636046 0.5792904

rnn.weight_hh_l2 f4 [72, 24]
000000 13 9a c4 bc dc ed 82 3d 1f 1f 7c be 4b d4 15 3d
       -0.02399925 0.06393024 -0.24621247 0.03657941
000010 63 22 9f bd 79 31 9d be a6 cb df 3d 5c fa ce 3a
       -0.077702306 -0.30701807 0.10927515 0.0015791166
000020 e5 57 b9 3d d3 bb 12 3e ec 10 e2 3d 95 43 11 3e
       0.09049968 0.14329462 0.11038384 0.14185937
000030 81 88 7d bb 49 e2 2d 3e ed d8 e1 bc 97 ee 32 3d
       -0.00386861 0.16980852 -0.027569259 0.04368457
000040 de 38 4b 3d bb a0 87 bd 7f 34 75 3b c9 1b 38 3d
       0.04961478 -0.06622454 0.0037415323 0.044948373
000050 c9 14 43 bc 26 74 45 3e ff f6 41 3e 9f 41 4c bc
       -0.011906811 0.19282588 0.18941878 -0.012466817
000060 13 f9 cb bd dd bf 8a be e0 f4 8f 3e 14 48 3c 3e
       -0.099596165 -0.27099505 0.28116512 0.1838687
000070 29 9d a9 be 96 d6 c7 be a1 ad d2 be 9c ed 2e be
       -0.33127716 -0.39030904 -0.41148093 -0.17082828
000080 4a 30 83 3e 87 cc 16 bf 38 a5 a1 3d 67 9e a2 3e
       0.2562278 -0.58905834 0.07892841 0.31761476
000090 e1 1f 87 3e bb 1a 4e bd 8d d2 97 3e e4 6e 05 bd
       0.2639151 -0.05031846 0.29652825 -0.032576457
0000a0 71 26 9b 3c 18 bf 6b 3e 95 9b 72 3f ae de 0e 3c
       0.018939229 0.23022115 0.9476865 0.008720083
0000b0 7c b8 a2 3d 9f 99 9a 3e 24 15 9d 3d 9e cc a8 be
       0.07945344 0.3019533 0.07670048 -0.3296861
0000c0 cc 39 39 be 3f 94 7b 3d 98 ce e3 bd 13 76 86 3e
       -0.18088454 0.061420675 -0.11123389 0.26261958
0000d0 7b 01 45 3c 1e 1e fe bd c4 5d c0 3d bc fe bb 3c
       0.012024279 -0.12408088 0.093928844 0.022948615
0000e0 fd b4 21 bd d3 a0 5e be 9e 36 8a 3e 51 63 0b 3e
       -0.039479245 -0.21741037 0.26994795 0.13612105
0000f0 0d 9b 32 3e a0 92 8d be 4e ca 85 3d 86 cc b2 bc
       0.1744196 -0.27650928 0.06532727 -0.02182604
000100 d3 a2 85 bd bf a9 c1 bc f3 20 bd bd d9 cf ed bd
       -0.06525197 -0.023640512 -0.092348 -0.116119094
000110 64 11 06 3e 93 f2 ba 3d d6 f8 3a bd 4b e9 79 bd
       0.13092571 0.091282986 -0.045647465 -0.0610135
000120 db b9 3a be c9 75 32 3d b5 42 22 be 9f 05 98 3e
       -0.1823496 0.04356936 -0.15845759 0.2969179
000130 97 67 40 bd db 75 36 be 6f 8d b7 be 3a cd c4 3d
       -0.04697379 -0.17818396 -0.35850093 0.09609456
000140 53 67 a8 be 58 6b bb be 14 32 3f 3e 00 0d 39 3e
       -0.3289133 -0.36605334 0.18671447 0.18071365
000150 d1 e9 32 be ca 25 de be f6 9a bc 3d 46 a5 7b 3e
       -0.17472006 -0.43388206 0.09209244 0.24574766
000160 b6 0b 1e bd 14 90 96 bd ae 9a 9f 3d 96 f9 6c 3e
       -0.038585387 -0.073516995 0.07793175 0.23142084
000170 dc 74 ad bb 95 da ed 3e 4c 06 ef bc de 3f 35 3e
       -0.0052934717 0.46455827 -0.029177807 0.17700145
000180 36 77 92 3e ec 78 9a 3c a6 1f 80 bd 3b bf bf bd
       0.28606576 0.018856488 -0.062560365 -0.09362646
000190 8c 5d de bd 41 8d 03 be 8f 11 30 bd cc 03 b4 3e
       -0.108576864 -0.12846853 -0.042985495 0.35159147
0001a0 2d 5a 76 3d bb 18 e5 bd 7b e7 50 3d c8 f4 c8 bd
       0.060144592 -0.111863576 0.051002007 -0.09812313
0001b0 6d bd 3f bc 46 06 8d 3b 29 74 6d 3e 5a 22 4c 3e
       -0.0117028775 0.0043037264 0.23188843 0.19934979
0001c0 f3 e6 95 3d f6 ed 83 3e ef 28 23 bd c0 fe 91 be
       0.07319441 0.25767487 -0.03983396 -0.2851467
0001d0 88 46 0d 3e fc 66 e6 bd 2b e3 b7 bc f9 f9 44 be
       0.13796437 -0.112501115 -0.02244719 -0.19235982
0001e0 de c0 a6 be 36 26 d4 bd c6 54 4a bd 42 f6 14 3d
       -0.3256902 -0.10358851 -0.049397253 0.036367662
0001f0 45 6c 28 3b 77 41 3e be 25 c3 94 3b 98 0c a2 ba
       0.00256993 -0.1857966 0.0045398646 -0.0012363372
000200 4b b5 57 bd 59 2b e6 3a 9f 41 c8 3e 73 6d 69 3d
       -0.05266313 0.0017560526 0.39112565 0.056989145
000210 a0 1f b3 3e 75 ee 56 3e ef d5 8d 3d cf 5f ac 3e
       0.34985065 0.20989402 0.0692557 0.33666846
000220 55 dd 04 3e bd 60 fc 3b e0 1d 28 be c8 7f c9 3d
       0.12975056 0.007701962 -0.16417646 0.098388255
000230 4e a6 74 be 75 ce 85 bb 89 59 90 3e 4e 86 67 be
       -0.23891565 -0.0040834495 0.2819331 -0.22609827
000240 ec ac 1d 3c e5 67 9f bc 3b 1a 9d 3e 1c e7 5d 3e
       0.009623747 -0.01945872 0.30684075 0.21670192
000250 74 41 c4 bb 94 58 24 3e a1 a0 81 be c5 99 dd 3e
       -0.005989248 0.16049415 -0.25317863 0.4328138
000260 ff f0 4c be a5 f6 d4 be b5 61 16 be c9 d1 96 bc
       -0.20013808 -0.41594425 -0.1468571 -0.01841058
000270 f9 69 a5 3d 89 d7 90 bd 54 5a 8e 3e db 53 e8 bc
       0.08076853 -0.0707236 0.2780329 -0.028360298
000280 ce 02 90 bd e3 a2 88 3e ff 16 9a 3e cd e9 1c be
       -0.07031785 0.26686773 0.3009567 -0.15323563
000290 75 f4 af 3e f6 22 7b 3e 52 2c 3b 3e b6 d2 0b 3e
       0.34366193 0.24525055 0.18278626 0.13654599
0002a0 cf 7b 3f be bf 35 57 3e 4c 6c b3 3d d1 fd 9c bd
       -0.18699573 0.21016596 0.0876089 -0.07665599
0002b0 ed f0 3f be c6 4a 8f bd cc 1f af 3d 13 98 14 3d
       -0.1874425 -0.06996684 0.08550987 0.03627784
0002c0 b8 5e 10 bc 7c df f0 b8 23 af 44 bc f9 51 39 be
       -0.008811645 -0.00011485719 -0.0120046465 -0.18097676
0002d0 b6 6a 0a 3d 51 52 7b be 91 7a b7 3d b1 a5 2a bd
       0.033793174 -0.2454312 0.089589246 -0.041661922
0002e0 3d 2a ff bd 28 2f 9b 3d be 41 58 be fa bb 59 3d
       -0.12459228 0.07577354 -0.21118829 0.053157784
0002f0 84 8e 2a 3e 04 3a 9d 3e 12 fe b2 3d e3 d1 b3 3d
       0.16655928 0.30708325 0.08739866 0.08780267
000300 60 c3 8b 3e d7 f2 10 3d d9 83 47 bd 4f 92 11 be
       0.27297497 0.03538784 -0.048709724 -0.14215969
000310 f1 a4 7e be e3 12 ca bc c6 19 0c be 61 d7 60 3e
       -0.24867608 -0.024667209 -0.13681707 0.2195716
000320 05 cf 38 be c5 4b 17 bd 7a 8c e0 3c e4 8a 87 be
       -0.18047722 -0.036937494 0.027410734 -0.26473153
000330 3f f5 20 3e 38 c5 a2 bc 72 c9 59 3d d1 cf 5d 3b
       0.15718554 -0.019869432 0.05317063 0.0033845792
000340 36 43 0d be 21 12 87 3e 0c fb 8a bd b5 d0 21 bb
       -0.1379517 0.2638102 -0.06786165 -0.002469105
000350 7e 32 9d 3e 3f 08 1d 3e 32 aa d0 bd 8f 7b 4c 3e
       0.30702585 0.15335177 -0.10188712 0.19969009
000360 40 bd 2a 3c 8e f0 01 3e 06 e6 2a 3e 0a 05 be bd
       0.010421097 0.1268942 0.1668931 -0.09278305
000370 f0 0b 3b be a4 61 59 3d 8b c9 b3 bc d0 fe 23 be
       -0.18266273 0.053071633 -0.02194669 -0.16015172
000380 ee 15 96 3d 65 72 d6 bd 55 d9 4e bd 67 4e 99 bc
       0.073284015 -0.10471038 -0.050500233 -0.018714143
000390 ec 5e 29 3e b1 08 f3 bd a8 b8 6a 3e 2c 1b 2f 3e
       0.16540116 -0.11866892 0.22922003 0.17100209
0003a0 08 df 97 be a4 c6 49 3d 9e e9 ee 3d 71 d9 17 bc
       -0.29662347 0.049261704 0.11665653 -0.009268151
0003b0 8e 56 04 3e b6 f9 3e bd 34 86 9b bd 30 e4 e6 bc
       0.12923643 -0.04662486 -0.075939566 -0.02818498
0003c0 8f 7e 42 3e ef a5 36 3d a0 76 62 be 9c a7 3c bc
       0.18993591 0.04459184 -0.22115564 -0.011514571
0003d0 0a eb 89 3d f5 9a 2f bc 95 05 0a 3c 1e 7d e5 3d
       0.06734283 -0.010718097 0.008424182 0.11205505
0003e0 e8 38 49 3e a9 66 f3 3d ac 13 58 be 2f 38 9a be
       0.19650614 0.11884815 -0.21101254 -0.3012099
0003f0 75 63 b9 3e 48 63 8a 3c 40 53 39 be 83 e7 21 be
       0.36208692 0.016893044 -0.18098164 -0.15810971
