Embedder.pth (torch, 43099 bytes, 14 tensors)

rnn.weight_ih_l0 f4 [72, 6]
0.2113239 0.18058853 0.0039864746 0.1902925 0.30451694 0.28932294 0.03428708 -0.10461621
-0.04145678 0.130338 0.14934218 0.08607738 -0.2354191 -0.121150084 -0.1441462 -0.057011437
-0.12136239 -0.7870163 -0.14923054 0.069664754 -0.042733703 0.08458978 0.09266024 0.120205544
-0.3325728 -0.18151288 -0.14476249 0.098041646 0.0072354586 0.63545513 -0.0021688254 0.2106391
0.16603227 0.071012326 -0.04997622 0.4147125 0.020634642 -0.20692782 -0.20139806 -0.034847304
-0.36160484 -0.08983293 0.050372 -0.03640397 0.0047078086 -0.0776805 0.058617283 -0.04181809
0.03701358 0.16988038 0.11324097 0.09113543 0.03472825 0.579041 0.17686518 0.12065565
0.2227857 -0.09465551 -0.02750833 0.49564508 0.18927151 0.0797705 0.060916148 0.06161335
-0.13592695 0.1661561 -0.05610892 -0.19018458 -0.14360967 0.05403321 0.06326751 -0.46122456
0.14923254 0.17326647 -0.020705806 -0.13997589 0.116050914 0.4407427 -0.16236834 0.056428615
0.19236395 -0.12378103 -0.13375102 0.015109637 -0.16596803 -0.15735142 -0.31392613 0.1261586
-0.12715417 0.5256912 0.05210416 -0.17532696 -0.013031086 0.07061783 -0.16598481 -0.30666897
0.043582108 -0.011553231 0.023044663 0.24814662 0.08157141 -0.8004294 -0.43953577 -0.61109406
-0.38844466 -0.42981967 -0.45945144 -0.61047894 0.021485457 0.121286064 -0.0961696 0.061478343
-0.1833502 0.34635022 -0.16345048 0.16437854 0.01940348 0.052013285 0.056058437 0.26755312
0.15926985 0.39767545 0.19838533 0.10488021 0.26437327 1.5311065 -0.050907873 -0.054106083
-0.21831377 -0.36739275 -0.34138116 -0.46466124 -0.025367426 0.1847454 0.08678197 -0.11268327
0.002278284 -0.23693451 -0.08106076 0.04240552 -0.120654434 -0.1295175 -0.17297463 0.15042882
-0.02220927 -0.13841626 -0.099997215 -0.013098806 -0.13461423 -1.3444544 0.1679427 0.23820442
0.03866671 -0.012136339 0.12534977 -0.13538615 -0.36952627 -0.20922439 -0.33678925 -0.22334176
-0.21747112 -1.1484141 0.20836908 -0.0157399 0.12126309 0.013786858 0.24425857 0.36143407
-0.35269752 -0.02579601 -0.37169456 -0.23640625 -0.050036993 0.17292027 0.14180236 0.009562436
-0.100074776 0.062226113 0.10374983 -0.61601824 0.04215566 -0.13707794 -0.12340696 -0.2582888
0.06607516 -0.39095902 0.45438746 0.33874863 0.26579878 0.1385261 0.24367778 0.5179973
-0.011756188 -0.009723004 -0.10570291 0.030784145 -0.020783463 -0.39385384 -0.172073 0.021913651
0.20429964 -0.0021313012 -0.109944835 -1.9195248 -0.0871425 -0.3707839 -0.33801916 -0.22409919
0.010371341 0.70383537 0.104969695 0.1455317 0.12548925 -0.09679371 0.1819788 0.33417234
-0.9677088 -1.0167695 -0.7186375 -0.67999583 -0.8752577 0.13163844 0.046693563 -0.006877463
0.0072682416 -0.04349058 0.2159343 -0.26914424 -0.44577074 -0.26623648 -0.3665287 -0.5543893
-0.23825175 0.7228858 -0.0010995719 -0.03179412 0.19812535 0.22099954 0.08839469 -2.687225
-0.39536512 -0.48143217 -0.36484247 -0.34237474 -0.488424 -0.74229085 -1.9721032 -2.210905
-2.0302234 -1.9386739 -2.2043548 0.20832282 -0.14228366 -5.3894887e-06 -0.19471632 -0.020565502
00000000: 4b65 583e 33ec 383e f9a0 823b 0adc 423e
00000010: a5e9 9b3e 2322 943e 9c70 0c3d 0641 d6bd
00000020: 96ce 29bd 5377 053e 28ed 183e 5649 b03d
00000030: b411 71be 891d f8bd 109b 13be d384 69bd
00000040: d88c f8bd e679 49bf e4cf 18be 65ac 8e3d
00000050: 8909 2fbd 683d ad3d a7c4 bd3d 532e f63d
00000060: fb46 aabe 83de 39be 9e3c 14be 0fca c83d
00000070: 6d17 ed3b 30ad 223f da22 0ebb c7b1 573e
00000080: 5d04 2a3e e96e 913d ddb3 4cbd 3255 d43e
00000090: fb09 a93c e3e4 53be 4b3b 4ebe 0cbc 0ebd
000000a0: 4524 b9be 54fa b7bd df52 4e3d 541c 15bd
000000b0: f643 9a3b f416 9fbd ad18 703d 7249 2bbd
000000c0: 8d9b 173d 1ff5 2d3e e2ea e73d 36a5 ba3d
000000d0: 363f 0e3d 083c 143f 251c 353e 4f1a f73d
000000e0: ef21 643e bfda c1bd 2659 e1bc 31c5 fd3e
000000f0: 64d0 413e b75e a33d 3683 793d 485e 7c3d
00000100: 6f30 0bbe d324 2a3e 78d2 65bd bfbf 42be
00000110: 6a0e 13be ed51 5d3d 6592 813d a025 ecbe
00000120: 6ad0 183e c46c 313e 399f a9bc d755 0fbe
00000130: 1aac ed3d 07a9 e13e e343 26be b121 673d
00000140: 0efb 443e e980 fdbd 07f6 08be 698e 773c
00000150: 86f3 29be bb20 21be edba a0be b82f 013e
00000160: b434 02be b393 063f 2c6b 553d e988 33be
00000170: 5680 55bc 15a0 903d ecf7 29be b703 9dbe
00000180: 2783 323d c349 3dbc 29c8 bc3c 261a 7e3e
00000190: e90e a73d f1e8 4cbf d50a e1be a970 1cbf
000001a0: 38e2 c6be 5311 dcbe 383d ebbe 5948 1cbf
000001b0: 4502 b03c d464 f83d 91f4 c4bd b7d0 7b3d
000001c0: 28c0 3bbe d154 b13e 905f 27be d952 283e
000001d0: 0cf4 9e3c e20b 553d 889d 653d b9fc 883e
000001e0: a317 233e 1e9c cb3e 8625 4b3e 6fcb d63d
000001f0: ef5b 873e 4cfb c33f c684 50bd 579e 5dbd
00000200: a58d 5fbe e71a bcbe 83c9 aebe 14e8 edbe
00000210: 59cf cfbc e62d 3d3e bfba b13d 7cc6 e6bd
00000220: 434f 153b f69e 72be 2f03 a6bd 69b1 2d3d
00000230: ac19 f7bd 3ca0 04be 4320 31be 030a 1a3e
00000240: 37f0 b5bc febc 0dbe 57cb ccbd 609c 56bc
00000250: 50d8 09be 1517 acbf 2cf9 2b3e dceb 733e
00000260: fc60 1e3d 7fd7 46bc b15b 003e aba2 0abe
00000270: 8c32 bdbe eb3e 56be a46f acbe b4b3 64be
00000280: c0b0 5ebe 3cff 92bf b45e 553e f6f0 80bc
00000290: c858 f83d 46e2 613c eb1e 7a3e e30d b93e
000002a0: c594 b4be 2752 d3bc c04e bebe 7b14 72be
000002b0: 97f3 4cbd 0312 313e a334 113e c3ab 1c3c
000002c0: 01f4 ccbd cfe0 7e3d ca7a d43d 5fb3 1dbf
000002d0: 6aab 2c3d 295e 0cbe cabc fcbd 6e3e 84be
000002e0: 6a52 873d c82b c8be 79a5 e83e 7670 ad3e
000002f0: c716 883e c9d9 0d3e ab86 793e 799b 043f
00000300: 079d 40bc 3c4d 1fbc c47a d8bd 082f fc3c
00000310: 1542 aabc 36a7 c9be e833 30be 4284 b33c
00000320: ed33 513e 4dad 0bbb c22a e1bd fdb2 f5bf
00000330: c477 b2bd 63d7 bdbe d910 adbe 427a 65be
00000340: 8fec 293c 8e2e 343f 5afa d63d 4306 153e
00000350: 4180 003e c83b c6bd a758 3a3e a318 ab3e
00000360: c4bb 77bf 8125 82bf a1f8 37bf 3514 2ebf
00000370: e310 60bf 3acc 063e c041 3f3d 575c e1bb
00000380: 6e2a ee3b 2e23 32bd e21d 5d3e 46cd 89be
00000390: 103c e4be 2650 88be a6a9 bbbe 75ec 0dbf
000003a0: 44f8 73be 0b0f 393f 831f 90ba 8d3a 02bd
000003b0: 5fe1 4a3e b44d 623e 4608 b53d 7ffb 2bc0
000003c0: 4c6d cabe 477e f6be a2cc babe be4b afbe
000003d0: b612 fabe c606 3ebf e16d fcbf 787f 0dc0
000003e0: 2eef 01c0 7726 f8bf 2614 0dc0 9452 553e
000003f0: cfb2 11be 5bd7 b4b6 b763 47be fc78 a8bc

rnn.weight_hh_l0 f4 [72, 24]
0.015166533 0.23764926 0.07704023 0.31440812 0.018145235 0.19633353 0.2699466 0.11957428
-0.2130318 0.038687475 0.090872586 -0.20369947 0.19431941 0.15369414 -0.18052639 0.12943283
-0.12451171 -0.3255136 -0.1125774 0.012120285 -0.19528297 0.29581055 0.20886317 -0.37687808
-0.17309035 -0.030123385 0.14461435 0.061237603 0.21948153 0.12742193 0.06848221 0.17902163
-0.010214332 0.030487334 0.14990953 -0.1855572 0.14129521 0.27808735 0.18467039 0.12878555
0.109703384 -0.3517969 -0.05581419 -0.17329232 -0.21176332 -0.064408004 0.20406704 -0.2865111
0.25404647 0.040464595 0.053088494 0.18898366 0.4136913 0.121232934 0.056393012 0.11511352
-0.31854528 -0.1683455 -0.072099246 -0.18778352 0.12859663 0.2350464 0.167131 -0.26267627
-0.19416302 -0.123704374 0.039777793 0.12191667 -0.1627087 0.2057136 0.07317397 -0.081899285
0.26642102 0.17424211 0.1804937 0.021797905 0.5915281 0.069960386 0.04924008 0.27448705
-0.20267528 -0.2056377 -0.044415843 -0.04256345 0.10486521 -0.09173186 -0.1663035 0.050420865
-0.12682602 -0.46525857 -0.020848623 0.1759993 -0.834257 0.16414812 -0.18439262 0.10961497
-0.17623389 -0.26364642 -0.0676897 -0.15436907 -0.53684556 -0.2806818 -0.18998645 -0.39143333
-0.008799867 -0.062384993 0.23663609 0.3755334 -0.08232371 -0.16237336 -0.047422677 -0.36710453
0.08879883 -0.0037390965 -0.050139137 -0.051637396 0.1042112 -0.09148681 -0.22786433 0.33958596
-0.11819173 0.042538125 -0.19140556 -0.06371002 0.117790826 -0.12783012 0.09708855 -0.049775604
0.113562055 -0.044725303 -0.21130592 0.22001572 -0.065946884 0.12107881 -0.014385823 -0.07023026
-0.05264243 0.15050925 -0.12084367 0.10163777 -0.4762338 -0.115164064 0.0434044 -0.03800483
0.11311134 0.105058126 0.0023360522 0.1311042 -0.34419242 -0.27996576 0.21621384 -0.043417558
-0.32205945 -0.19647382 -0.31323147 0.037558008 0.2952897 0.04327744 -0.28322896 -0.20159383
-0.10752372 0.53118974 -0.14622173 0.28545156 -0.058307957 -0.15479639 -0.20489557 0.23931889
-0.0037634936 0.054430507 -0.2008058 0.11287935 0.28763396 0.10665298 0.22343078 0.3342814
-0.30281335 0.10702548 0.049163952 -0.3284678 0.07773624 0.104699336 -0.25469527 0.235294
-0.17773044 0.17404184 0.027652085 -0.063812196 -0.21294008 -0.043526273 -0.09192385 -0.15889506
0.076621935 0.044047594 0.14945865 -0.104442045 0.0022379092 0.05012315 -0.16867374 0.20033436
-0.343063 0.02720762 0.19604962 0.043846976 0.1660442 -0.048355933 -0.12197082 0.24934892
0.20885418 0.08896214 0.048579283 -0.19866551 -0.06023432 0.2588942 -0.0012892644 -0.44825685
-0.027305862 -0.039116867 0.090580985 -0.10264348 0.5898294 0.26250356 0.016759578 0.11927947
-0.3547383 0.2836611 -0.13412824 -0.27706063 -0.06896236 -0.15177655 0.18655823 0.06215708
0.20366037 -0.20219845 0.099792495 0.10640083 -0.3752388 0.035755303 -0.09802911 -0.11118809
0.060117062 -0.032015365 0.12811138 0.11736544 0.33658645 -0.09524158 0.16370481 0.32855618
-0.18145902 -0.12941739 -0.065573 -0.12855563 0.1394571 0.21093784 0.04806598 -0.004281134
00000000: 0d7d 783c 545a 733e 45c7 9d3d 1afa a03e
00000010: 51a5 943c a80b 493e 7136 8a3e 5ce3 f43d
00000020: 0225 5abe c276 1e3d 681b ba3d 9896 50be
00000030: abfb 463e ff61 1d3e e9db 38be 0a8a 043e
00000040: ffff febd b8a9 a6be fb8e e6bd 2994 463c
00000050: 42f8 47be 7b74 973e 3ae0 553e 2af6 c0be
00000060: 993e 31be 51c5 f6bc c915 143e 48d4 7a3d
00000070: c4bf 603e e57a 023e 6740 8c3d 7251 373e
00000080: 035a 27bc 93c0 f93c e281 193e b502 3ebe
00000090: b1af 103e 7761 8e3e 3c1a 3d3e 5ce0 033e
000000a0: 2bac e03d b91e b4be 6c9d 64bd 8b73 31be
000000b0: 7cd8 58be 58e8 83bd f3f6 503e 95b1 92be
000000c0: 6112 823e 34be 253d 5273 593d ef84 413e
000000d0: 59cf d33e f948 f83d 5cfc 663d a3c0 eb3d
000000e0: 5e18 a3be c362 2cbe c5a8 93bd 534a 40be
000000f0: d6ae 033e 01b0 703e 6424 2b3e 817d 86be
00000100: acd2 46be b858 fdbd 0aee 223d 72af f93d
00000110: 1c9d 26be 96a6 523e 3cdc 953d d0ba a7bd
00000120: 5668 883e 866c 323e 57d3 383e 8591 b23c
00000130: 636e 173f 6447 8f3d f7af 493d 9189 8c3e
00000140: 1c8a 4fbe b092 52be 63ed 35bd 0357 2ebd
00000150: 92c3 d63d eadd bbbd 774b 2abe 1c86 4e3d
00000160: aede 01be 5f36 eebe bbca aabc 2939 343e
00000170: de91 55bf 7216 283e 6bd1 3cbe d07d e03d
00000180: a876 34be aafc 86be e6a0 8abd ed12 1ebe
00000190: b66e 09bf 86b5 8fbe cf8b 42be f369 c8be
000001a0: 512d 10bc 6887 7fbd bb50 723e ea45 c03e
000001b0: 5599 a8bd 3445 26be 483e 42bd 20f5 bbbe
000001c0: 29dc b53d a10b 75bb b25e 4dbd bc81 53bd
000001d0: ae6c d53d 705d bbbd 4455 69be 36de ad3e
000001e0: 810e f2bd 753c 2e3d d2ff 43be 667a 82bd
000001f0: 513c f13d e6e5 02be 5dd6 c63d 81e1 4bbd
00000200: 3993 e83d e131 37bd 9460 58be cd4b 613e
00000210: 290f 87bd 2bf8 f73d 84b2 6bbc e2d4 8fbd
00000220: 979f 57bd 191f 1a3e e37c f7bd 7727 d03d
00000230: ebd4 f3be 23db ebbd d0c8 313d f4aa 1bbd
00000240: eba6 e73d b728 d73d 7418 193b 2e40 063e
00000250: fd39 b0be ac57 8fbe 2967 5d3e 9cd6 31bd
00000260: fae4 a4be 6f30 49be e05f a0be 6dd6 193d
00000270: 3630 973e af43 313d 6303 91be 9d6e 4ebe
00000280: 6535 dcbd 0dfc 073f 26bb 15be b526 923e
00000290: 53d4 6ebd f282 1ebe 25d0 51be 0310 753e
000002a0: f2a4 76bb 86f2 5e3d 09a0 4dbe 4a2d e73d
000002b0: c244 933e e16c da3d 0acb 643e ef26 ab3e
000002c0: 5a0a 9bbe 2d30 db3d 2460 493d ee2c a8be
000002d0: 2e34 9f3d 9b6c d63d 6b67 82be e9f0 703e
000002e0: f8fe 35be 0638 323e a086 e23c f8af 82bd
000002f0: f70c 5abe 9b48 32bd 9242 bcbd 63b5 22be
00000300: f6eb 9c3d 406b 343d b00b 193e b6e5 d5bd
00000310: e3a9 123b ef4d 4d3d cfb8 2cbe 7324 4d3e
00000320: f4a5 afbe 84e2 de3c 3bc1 483e e398 333d
00000330: 7e07 2a3e df10 46bd d6cb f9bd 5355 7f3e
00000340: dfdd 553e c831 b63d 12fb 463d f96e 4bbe
00000350: 43b8 76bd c88d 843e 89fc a8ba ec81 e5be
00000360: 8bb0 dfbc 0239 20bd 8682 b93d bf36 d2bd
00000370: 0fff 163f de66 863e 624b 893c cb48 f43d
00000380: 42a0 b5be 073c 913e ea58 09be e4da 8dbe
00000390: 233c 8dbd 506b 1bbe 1f09 3f3e 6c98 7e3d
000003a0: 588c 503e 1c0d 4fbe 0260 cc3d aee8 d93d
000003b0: 4d1f c0be 2774 123d 7cc3 c8bd 95b6 e3bd
000003c0: 4f3d 763d 8b22 03bd a12f 033e 4b5d f03d
000003d0: 0f55 ac3e 040e c3bd 3ca2 273e 8438 a83e
000003e0: 65d0 39be fe85 04be 234b 86bd 16a4 03be
000003f0: d8cd 0e3e 1700 583e d5e0 443d c148 8cbb

rnn.bias_ih_l0 f4 [72]
0.057215676 0.08290562 0.018544149 -0.17844275 0.051446926 -0.17536385 -0.1183968 0.012965957
-0.0050639226 0.1819299 0.18134682 0.21266142 0.025655117 -0.27094412 -0.1996123 -0.08596003
-0.0934348 -0.07495192 -0.1587818 0.3776549 0.27656075 0.038815342 -0.24199794 -0.0019954029
-0.26106408 0.02793162 -0.22712775 0.24393015 0.6295734 -0.17349295 -0.5018501 -0.059769366
0.28188744 -0.3236537 -0.33448103 -0.035659418 0.35461774 -0.1951696 -0.0015091753 -0.6347563
-0.17980568 0.19671835 0.030155092 -0.59086525 -1.1886619 -0.48167303 0.07874842 -0.5421363
-0.19197886 -0.1189411 0.21887039 -0.19550914 -0.15216175 -0.20348604 -0.17000274 -0.21254416
-0.014987131 0.12142835 0.19070959 0.13477199 -0.14627743 -0.19657199 0.14257273 -0.09314729
0.07771642 -0.24255762 0.2564692 -0.35609135 0.040315516 -0.23851284 -0.15979628 -0.090030394
00000000: fc5a 6a3d 6cca a93d e6e9 973c b2b9 36be
00000010: 03ba 523d 9592 33be 057a f2bd 2a6f 543c
00000020: 43ef a5bb d54b 3a3e fbb2 393e eac3 593e
00000030: ae2a d23c 30b9 8abe 2b67 4cbe d00b b0bd
00000040: bf5a bfbd 6480 99bd b297 22be fc5b c13e
00000050: 5f99 8d3e d6fc 1e3d 4fce 77be 4ec5 02bb
00000060: 31aa 85be dad0 e43c 2d94 68be d3c8 793e
00000070: b92b 213f 23a8 31be 4079 00bf b9d0 74bd
00000080: 8d53 903e f0b5 a5be 1941 abbe 9c0f 12bd
00000090: 7590 b53e 8ada 47be 85cf c5ba 647f 22bf
000000a0: fb1e 38be 8970 493e d007 f73c f242 17bf
000000b0: 1326 98bf d99d f6be da46 a13d 72c9 0abf
000000c0: 1b96 44be 6497 f3bd 8f1f 603e 8c33 48be
000000d0: 4ad0 1bbe a55e 50be 3315 2ebe 2da5 59be
000000e0: 958c 75bc 6daf f83d 6049 433e ab01 0a3e
000000f0: c0c9 15be 2b4a 49be 96fe 113e 02c4 bebd
00000100: c929 9f3d 0661 78be ee4f 833e 9b51 b6be
00000110: e221 253d b63c 74be a3a1 23be db61 b8bd

rnn.bias_hh_l0 f4 [72]
-0.09698738 -0.16159466 -0.0390423 -0.24461925 0.2876365 0.07316078 0.109602675 -0.049944658
0.29365245 0.08736113 0.23699604 0.0081244605 0.12532505 -0.119831845 -0.11476328 -0.17655796
0.09729314 0.040344853 -0.058598414 0.096762836 0.41030747 0.041415185 0.0332222 0.18993254
-0.35046935 -0.20850681 -0.12902524 0.12055054 0.7036323 -0.33906138 -0.28650755 0.07023936
0.16740435 -0.0479396 -0.20436053 0.12896627 0.18317452 -0.30637592 -0.02105962 -0.550546
0.16759075 -0.086641975 0.06520531 -0.89384115 -1.1170204 -0.570943 -0.057910595 -0.28548014
0.006459266 -0.09916189 0.027054096 -0.049690302 -0.09182558 -0.055231176 -0.21267715 -0.066323936
0.04939258 -0.009433282 0.15479773 0.20655233 -0.0856185 -0.040138036 0.22438875 0.037839074
0.31094635 -0.0072776093 0.099265255 -0.4706293 0.07472805 0.17035072 -0.05907073 0.22955178
00000000: 52a1 c6bd 1279 25be d2ea 1fbd 787d 7abe
00000010: 1745 933e 52d5 953d 5e77 e03d c592 4cbd
00000020: 9d59 963e 64ea b23d 17af 723e 751c 053c
00000030: 3655 003e 666a f5bd 0309 ebbd 9ccb 34be
00000040: a041 c73d a540 253d e404 70bd 982b c63d
00000050: d213 d23e f8a2 293d 0014 083d ad7d 423e
00000060: b870 b3be cf82 55be 311f 04be 34e3 f63d
00000070: 3f21 343f 7499 adbe 1eb1 92be a7d9 8f3d
00000080: 0c6c 2b3e 505c 44bd e343 51be bc0f 043e
00000090: 1a92 3b3e 4edd 9cbe 3985 acbc 95f0 0cbf
000000a0: e99c 2b3e 5971 b1bd 5d8a 853d c6d2 64bf
000000b0: 86fa 8ebf 5229 12bf a933 6dbd 742a 92be
000000c0: 40a8 d33b 6415 cbbd 8da0 dd3c 0f88 4bbd
000000d0: 0d0f bcbd 163a 62bd 0ac8 59be d8d4 87bd
000000e0: e04f 4a3d 0d8e 1abc 4c83 1e3e 7482 533e
000000f0: c158 afbd c867 24bd 2ac6 653e 25fd 1a3d
00000100: 5c34 9f3e 0379 eebb 954b cb3d 53f6 f0be
00000110: 050b 993d 6b70 2e3e 26f4 71bd 9f0f 6b3e

rnn.weight_ih_l1 f4 [72, 24]
-0.04038064 0.0042673 -0.19264534 -0.19867136 0.025280632 -0.16339456 -0.095663 -0.070258416
-0.28064474 0.06326025 -0.026363716 -0.26202822 0.071916655 -0.19748254 0.18960463 -0.1384871
-0.22063974 -0.21449788 0.13769548 -0.044245806 -0.8592687 -0.01680838 -0.30319342 -0.09178141
-0.14409032 0.03462449 -0.048957705 -0.28963977 0.5418404 -0.012799545 0.314596 0.27515888
0.10515919 0.12910773 -0.15410961 -0.22511359 -0.010822419 0.08726656 0.27522597 0.35569015
-0.20326447 0.0008390299 -0.26955402 -0.00032384292 0.090873376 0.029963091 -0.21926942 -0.2598412
-0.005620622 0.042905517 -0.031217346 0.27079886 -0.563918 -0.30626887 0.00843459 0.01104998
0.24430372 0.10573527 0.0050098477 0.12336868 0.32452297 0.05579011 -0.16259022 -0.30954742
-0.054686233 0.27681187 0.04740214 0.10749163 -0.63082963 -0.31531826 -0.0902395 0.10890523
0.043132134 0.21598475 0.11110438 0.062303696 -0.11548231 0.056397744 0.07244913 0.15926847
-0.21755308 -0.26386738 -0.13825111 -0.24274397 0.25666642 0.06974259 -0.056538627 -0.35267684
0.06343712 -0.3704979 -0.15609872 0.13890019 -0.34181222 0.04599745 -0.1066621 0.16285127
-0.03449288 -0.25275344 -0.15933815 -0.2121569 0.0047085853 -0.5102972 -0.02269676 0.010894697
-0.22054955 -0.18300611 -0.12335166 -0.06876089 -0.055669874 -0.13775934 -0.098453276 -0.80333525
-0.23310947 0.11800033 0.024435438 0.16644256 -0.1646722 -0.06688919 -0.23896174 0.47011355
-0.10097539 -0.03397749 0.02142129 -0.19394244 0.89653224 0.05744599 -0.19793087 0.11401565
-0.13722777 0.13379095 -0.17562355 -0.065449946 0.07671138 -0.31573746 0.1949099 -0.099381946
0.00048754943 -0.55475277 0.11360603 -0.050543167 -0.3422269 0.06433867 0.018253596 0.049484916
0.11704294 0.031406112 0.22017187 -0.061122924 -0.16597465 -0.21611515 -0.20149463 0.035413798
-0.026121737 -0.17227238 0.041250523 -0.08216088 0.2203676 0.16399476 -0.120403506 -0.13279548
0.09418671 0.19337776 0.038762268 0.024671558 -0.402442 -0.08210913 0.08010628 0.06985157
-0.19818401 -0.16705038 -0.19955581 -0.13770536 0.3150411 -0.00522164 -0.32448635 -0.27425036
-0.24569963 0.03128184 -0.077306144 0.15593815 0.082501896 -0.21298142 0.28087148 -0.20892058
-0.034904942 -0.23645982 0.066375054 -0.051883627 -1.2182524 0.062887445 0.0073734866 0.034881614
0.122020386 -0.13786405 0.26615715 -0.3299822 -0.5277953 -1.0195328 -0.115551464 -0.106547736
-0.01700786 0.049113583 0.09666103 0.052270856 0.47082973 -0.28470752 0.08405254 -0.32178304
0.10574637 0.39191374 -0.02871593 0.07294073 -1.1940365 -0.19254032 -0.41585273 0.14097771
-0.009247671 -0.18608235 -0.08839702 -0.14517047 0.788933 -0.1434924 0.12559022 0.006110315
-0.24360183 -0.16666088 0.05763553 0.023729045 -0.2344047 -0.27950814 0.5118303 0.075897366
-0.012562844 -0.37067187 0.43856236 0.096650794 -0.947098 0.14336358 -0.356772 0.017250776
0.058119327 -0.26420352 0.051441032 -0.051130358 0.36492175 -0.32125255 0.15524852 -0.15061687
-0.108722 -0.09133609 -0.15913156 0.031656105 0.1982753 -0.20783229 0.20551878 -0.31933784
00000000: 2c66 25bd b5d4 8b3b d244 45be 8170 4bbe
00000010: 5419 cf3c e750 27be f7ea c3bd a5e3 8fbd
00000020: abb0 8fbe 978e 813d b8f8 d7bc 9028 86be
00000030: 0a49 933d dd38 4abe b727 423e 90cf 0dbe
00000040: 62ef 61be 55a5 5bbe 0b00 0d3e 173b 35bd
00000050: 09f9 5bbf bab1 89bc 2b3c 9bbe e4f7 bbbd
00000060: 6a8c 13be 69d2 0d3d e087 48bd aa4b 94be
00000070: 0db6 0a3f 2fb5 51bc ba12 a13e a0e1 8c3e
00000080: b45d d73d d134 043e e9ce 1dbe 2d84 66be
00000090: 8450 31bc cfb8 b23d 6bea 8c3e 051d b63e
000000a0: 9024 50be 58f2 5b3a fc02 8abe 76c9 a9b9
000000b0: d21b ba3d 2875 f53c 2a88 60be e809 85be
000000c0: 322d b8bb b2bd 2f3d 85bb ffbc 26a6 8a3e
000000d0: ee5c 10bf 46cf 9cbe 3c31 0a3c fa0a 353c
000000e0: c12a 7a3e bc8b d83d a629 a43b b8a8 fc3d
000000f0: e027 a63e 2c84 643d 0d7e 26be 007d 9ebe
00000100: acfe 5fbd 49ba 8d3e bf28 423d 9224 dc3d
00000110: 0d7e 21bf 6571 a1be 7dcf b8bd b509 df3d
00000120: 52ab 303d 1b2b 5d3e b18a e33d 2932 7f3d
00000130: fd81 ecbd 5201 673d 3660 943d 4617 233e
00000140: 3cc6 5ebe a019 87be b391 0dbe e091 78be
00000150: c869 833e 34d5 8e3d 0c95 67bd 0f92 b4be
00000160: 52eb 813d e7b1 bdbe 58d8 1fbe da3b 0e3e
00000170: 0302 afbe d267 3c3d a971 dabd 7cc2 263e
00000180: 6848 0dbd e668 81be 8a29 23be a93f 59be
00000190: 7a4a 9a3b d6a2 02bf 8eee b9bc ac7f 323c
000001a0: bed7 61be f465 3bbe cc9f fcbd 82d2 8cbd
000001b0: 1806 64bd c910 0dbe dfa1 c9bd 61a7 4dbf
000001c0: 40b4 6ebe 28aa f13d d42c c83c eb6f 2a3e
000001d0: d49f 28be 33fd 88bd 63b2 74be b9b2 f03e
000001e0: 2fcc cebd fb2b 0bbd b37b af3c d998 46be
000001f0: 2383 653f 7d4c 6b3d 64ae 4abe 0981 e93d
00000200: 7085 0cbe 7f00 093e a9d6 33be 9f0a 86bd
00000210: db1a 9d3d 57a8 a1be 7696 473e c388 cbbd
00000220: c79d ff39 4704 0ebf 47aa e83d 5a06 4fbd
00000230: 5d38 afbe fec3 833d 9188 953c b2b0 4a3d
00000240: 35b4 ef3d b2a3 003d bc74 613e 085c 7abd
00000250: 42f5 29be 4a4d 5dbe 9c54 4ebe 0f0e 113d
00000260: 41fd d5bc 2c68 30be 4ff6 283d f743 a8bd
00000270: 0ba8 613e 3eee 273e 1d96 f6bd 8afb 07be
00000280: f6e4 c03d d204 463e 2fc5 1e3d 021c ca3c
00000290: e10c cebe d528 a8bd c30e a43d 570e 8f3d
000002a0: c0f0 4abe 410f 2bbe 5c58 4cbe a202 0dbe
000002b0: 114d a13e 4b1a abbb 1323 a6be 8b6a 8cbe
000002c0: af98 7bbe 6321 003d af52 9ebd 40ae 1f3e
000002d0: c1f6 a83d cd17 5abe 63ce 8f3e 47ef 55be
000002e0: 7cf8 0ebd 8622 72be a5ef 873d ed83 54bd
000002f0: b2ef 9bbf 22cb 803d 4a9d f13b 06e0 0e3d
00000300: d3e5 f93d 3c2c 0dbe c045 883e 6df3 a8be
00000310: 981d 07bf 0d80 82bf 3fa6 ecbd b335 dabd
00000320: 1154 8bbc 532b 493d 38f6 c53d f719 563d
00000330: 9810 f13e 2fc5 91be bd23 ac3d bfc0 a4be
00000340: 8e91 d83d eba8 c83e ac3d ebbc f361 953d
00000350: 30d6 98bf 4a29 45be a6ea d4be 765c 103e
00000360: 8b83 17bc 5f8c 3ebe 7f09 b5bd 91a7 14be
00000370: 83f7 493f acef 12be b99a 003e 0a39 c83b
00000380: c272 79be 26a9 2abe 3c13 6c3d 6a63 c23c
00000390: c907 70be b11b 8fbe 4f07 033f 1470 9b3d
000003a0: 63d4 4dbc b4c8 bdbe 3f8b e03e daf0 c53d
000003b0: 0475 72bf e7cd 123e d2aa b6be 8051 8d3c
000003c0: 880e 6e3d af45 87be d5b3 523d 116e 51bd
000003d0: 06d7 ba3e 377b a4be 78f9 1e3e 4f3b 1abe
000003e0: a4a9 debd 6a0e bbbd 62f3 22be d5a9 013d
000003f0: ae08 4b3e fdd1 54be 8473 523e 4080 a3be

rnn.weight_hh_l1 f4 [72, 24]
0.09613719 -0.09064346 -0.2611632 -0.07071951 -0.060748592 0.2098618 0.122627825 -0.1372938
0.06558278 0.14918423 -0.07053044 0.13229226 -0.23485546 0.16002335 -0.14726266 0.017781273
0.010741686 0.13631305 0.15242578 -0.061850447 0.2328297 0.012704297 0.02825452 0.11603302
-0.08758499 0.27158105 -0.03570011 0.22697811 -0.22521903 0.09673276 0.082146 0.0498625
0.24835336 0.19753408 0.08399195 -0.20165768 -0.042771537 -0.03297454 0.1051802 -0.06359255
0.012759959 0.09789108 0.031061241 0.288208 -0.15315625 -0.13172413 -0.10525009 -0.07653844
-0.4248667 0.24301197 -0.18439731 0.14991947 -0.17719373 -0.24791206 -0.16926731 0.044720113
-0.023040364 0.52591187 0.23388565 0.3525397 -0.26765358 0.40377438 -0.09402687 0.34940237
0.35437596 0.12055978 0.058916662 0.14046744 -0.21960303 0.029864926 0.1017525 -0.19692378
0.17345719 0.054987885 0.08763244 0.21872519 0.0915848 0.20892799 0.10462455 0.022799404
0.03502407 0.17056763 -0.104028456 -0.19471884 0.07237807 -0.20974378 -0.063860856 0.28246287
-0.04048702 -0.21929932 0.1557372 -0.12123109 -0.046743136 0.028399266 -0.16177422 0.23171856
0.031978264 0.40267926 -0.22512187 0.49745333 -0.45484823 -0.09152518 0.05114692 0.15773307
0.1491102 0.19613236 -0.0062417006 -0.1737327 0.029792728 0.15935862 -0.0570682 0.18779069
-0.05513714 -0.17888653 0.10714811 -0.08598616 0.1543419 0.1735848 -0.23937137 -0.060489517
0.13232861 -0.027575692 -0.31842077 0.15567696 -0.09926525 -0.24726614 0.17110434 -0.24940944
-0.122450955 0.26677683 0.17955229 -0.22574455 -0.29928765 0.08011107 0.018154023 -0.055739358
0.09107672 0.008373316 0.18412001 0.27489382 -0.12165884 -0.25093216 0.1644147 -0.054557793
0.12300262 -0.13608775 -0.2955647 -0.066258304 -0.207553 -0.056907192 0.074306495 -0.142838
-0.09587879 0.27371198 -0.052185204 -0.0010535045 -0.44188794 0.091560446 0.03672774 0.037574302
-0.119142294 -0.0546406 0.051541217 0.29374295 -0.02096551 0.0043930984 -0.09754387 -0.2996293
0.10963909 0.08129246 -0.2861944 0.28108904 -0.08306845 0.13350473 0.090301834 -0.0814634
0.23140861 0.22039476 0.038965337 0.068603 -0.09190724 0.08196353 -0.026793936 0.005543214
-0.098938905 -0.17968643 0.024962442 0.09271988 0.09083741 -0.26126358 -0.034257125 -0.06396905
0.054708824 -0.49688017 -0.24793638 0.12473518 -0.23003761 0.41065902 0.14956085 0.014966842
0.107950196 0.103037946 -0.074431635 0.18752885 -0.39458203 0.067663915 0.10078908 0.38460204
0.036021255 -0.054802842 0.3301279 0.2229996 0.17391925 -0.22551927 -0.24274544 0.060654998
0.09638253 -0.11805959 -0.26855117 0.1480495 0.0035096512 0.17369539 0.0124910185 0.014312739
0.04950113 -0.051486824 -0.042644966 -0.16339445 -0.15210159 0.019554444 -0.1098923 0.2362374
-0.15677732 -0.23379017 0.07105347 0.12936847 -0.06174417 -0.070419095 -0.056375694 0.010270846
-0.091035664 -0.09816129 -0.07984958 0.62007934 -0.17741255 0.20802082 -0.020618338 -0.10902286
0.15010004 0.088674456 0.15887482 -0.09700158 -0.20025542 -0.03946862 0.26407152 0.3072889
00000000: 93e3 c43d 47a3 b9bd 2fb7 85be 64d5 90bd
00000010: 84d3 78bd 03e6 563e 4c24 fb3d bf96 0cbe
00000020: 4450 863d c0c3 183e 4372 90bd 9f77 073e
00000030: f37d 70be 29dd 233e 06cc 16be 08aa 913c
00000040: e6fd 2f3c a695 0b3e 8115 1c3e e556 7dbd
00000050: e96a 6e3e af25 503c 0676 e73c b8a2 ed3d
00000060: c25f b3bd ac0c 8b3e 473a 12bd f36c 683e
00000070: d19f 66be d31b c63d 293c a83d 9f3c 4c3d
00000080: 5850 7e3e 6046 4a3e f903 ac3d 5a7f 4ebe
00000090: 3531 2fbd 5010 07bd b768 d73d d03c 82bd
000000a0: 260f 513c 1e7b c83d 2574 fe3c 0090 933e
000000b0: fed4 1cbe b1e2 06be 5c8d d7bd 30c0 9cbd
000000c0: 2188 d9be 21d8 783e a6d2 3cbe 7d84 193e
000000d0: 4672 35be a9dc 7dbe 6954 2dbe 702c 373d
000000e0: 25bf bcbc 29a2 063f b87f 6f3e 1580 b43e
000000f0: e409 89be 84bb ce3e 2991 c0bd dee4 b23e
00000100: c470 b53e 0ce8 f63d 9952 713d b2d6 0f3e
00000110: 9edf 60be 4aa7 f43c 9d63 d03d 63a6 49be
00000120: c39e 313e fa3a 613d a378 b33d 7ff9 5f3e
00000130: d090 bb3d 38f1 553e 6545 d63d d1c5 ba3c
00000140: 6675 0f3d 48a9 2e3e df0c d5bd 6064 47be
00000150: f43a 943d 13c7 56be 7bc9 82bd f99e 903e
00000160: b8d5 25bd 0090 60be 9379 1f3e 0148 f8bd
00000170: bb75 3fbd 94a5 e83c 24a8 25be a147 6d3e
00000180: a4fb 023d fa2b ce3e 5986 66be 34b2 fe3e
00000190: dee1 e8be 8e71 bbbd 6f7f 513d c784 213e
000001a0: 58b0 183e ecd6 483e 2e87 ccbb fce6 31be
000001b0: e10f f43c e82e 233e 58c0 69bd 344c 403e
000001c0: 7bd7 61bd 082e 37be 7870 db3d 8319 b0bd
000001d0: ce0b 1e3e 37c0 313e c51d 75be dbc3 77bd
000001e0: 2781 073e 6be6 e1bc 0c08 a3be c869 1f3e
000001f0: 944b cbbd 5633 7dbe fa35 2f3e 3065 7fbe
00000200: 91c7 fabd f996 883e 8edc 373e 9429 67be
00000210: 3b3c 99be 4611 a43d bfb7 943c f44e 64bd
00000220: 6e86 ba3d 3c30 093c f589 3c3e e2be 8c3e
00000230: 4528 f9bd 2e7a 80be 545c 283e fe77 5fbd
00000240: cce8 fb3d 965a 0bbe 4254 97be 6fb2 87bd
00000250: c688 54be 8417 69bd 012e 983d 2044 12be
00000260: 195c c4bd fa23 8c3e 27c0 55bd bf15 8aba
00000270: 233f e2be 0b84 bb3d d46f 163d 83e7 193d
00000280: e000 f4bd d2ce 5fbd e21c 533d 7a65 963e
00000290: dcbf abbc fbf3 8f3b 15c5 c7bd 0369 99be
000002a0: 768a e03d a97c a63d 1388 92be e7ea 8f3e
000002b0: cb1f aabd 77b5 083e 2bf0 b83d 48d6 a6bd
000002c0: 61f6 6c3e 2aaf 613e 1e9a 1f3d bb7f 8c3d
000002d0: dd39 bcbd 7fdc a73d f57e dbbc d9a3 b53b
000002e0: 7ba0 cabd b8ff 37be 097e cc3c ece3 bd3d
000002f0: f708 ba3d 57c4 85be 3351 0cbd 3502 83bd
00000300: 5c16 603d 1467 febe 09e3 7dbe 2875 ff3d
00000310: fb8e 6bbe e641 d23e 7b26 193e 7c37 753c
00000320: fe14 dd3d 8f05 d33d 9d6f 98bd 9007 403e
00000330: a806 cabe 6193 8a3d 816a ce3d 8fea c43e
00000340: 068b 133d f278 60bd 8606 a93e 025a 643e
00000350: e317 323e 86ee 66be 4392 78be 6071 783d
00000360: 3464 c53d 3ac9 f1bd 8a7f 89be 4a9a 173e
00000370: 2d02 663b 34dd 313e 21a7 4c3c fa7f 6a3c
00000380: b2c1 4a3d d9e3 52bd 7dac 2ebd e050 27be
00000390: 85c0 1bbe a430 a03c 370f e1bd 38e8 713e
000003a0: 3c8a 20be b166 6fbe 7b84 913d 2b79 043e
000003b0: 74e7 7cbd e337 90bd 33ea 66bd 0d47 283c
000003c0: e870 babd c908 c9bd 2d88 a3bd 85bd 1e3f
000003d0: a3ab 35be 6903 553e cae7 a8bc 6147 dfbd
000003e0: d3b3 193e f49a b53d 15b0 223e c4a8 c6bd
000003f0: c20f 4dbe d9a9 21bd 6234 873e f854 9d3e

rnn.bias_ih_l1 f4 [72]
-0.011548456 -0.09117926 0.12025796 -0.016148258 -0.12726586 -0.0047503454 0.11773242 0.15887778
0.34740776 -0.109722935 0.015501169 0.25497702 -0.11910288 0.15827775 -0.055413898 -0.12614216
-0.030428458 -0.173073 0.18619184 0.06663741 -0.03590453 0.2684092 -0.22559997 -0.037293844
0.13134412 -0.80538183 -0.03282441 -1.129802 -0.33101737 -0.46206695 0.16115502 -0.97114587
0.3792487 0.0071552442 -0.18668677 0.019987065 -0.1905199 -0.4790473 -0.82883656 0.165054
-0.30985647 -0.62149143 -0.014831311 0.19667503 -0.45774817 0.13286005 0.13912895 -0.91967225
-0.21757242 -0.06119518 -0.12784599 -0.12339658 0.052345622 -0.19907421 -0.1303632 -0.23745707
-0.30958992 -0.0061828583 -0.14546646 0.15855636 -0.17880447 0.05207083 0.3192577 -0.056357596
0.19231367 0.21860568 -0.15166743 -0.11990985 -0.30233607 0.18350013 0.18028603 -0.14091812
00000000: bc35 3dbc 31bc babd ce49 f63d 5a49 84bc
00000010: fb51 02be c9a8 9bbb b21d f13d dbb0 223e
00000020: 6edf b13e 6bb6 e0bd 9df8 7d3c 598c 823e
00000030: 36ec f3bd 9013 223e aff9 62bd 692b 01be
00000040: 1a45 f9bc 0c3a 31be 13a9 3e3e 3279 883d
00000050: a110 13bd ee6c 893e ae03 67be 6ec1 18bd
00000060: 137f 063e 812d 4ebf e372 06bd 5a9d 90bf
00000070: 1c7b a9be 0a94 ecbe d205 253e 049d 78bf
00000080: e32c c23e 8a76 ea3b d12a 3fbe eabb a33c
00000090: a617 43be b045 f5be a22e 54bf ea03 293e
000000a0: 82a5 9ebe 101a 1fbf 07ff 72bc 2e65 493e
000000b0: f85d eabe 770c 083e d277 0e3e a46f 6bbf
000000c0: 4ecb 5ebe cca7 7abd 0fea 02be 59b7 fcbd
000000d0: 5d68 563d 1cda 4bbe ee7d 05be f227 73be
000000e0: 9282 9ebe 9399 cabb 29f5 14be 995c 223e
000000f0: 8518 37be 3948 553d bf75 a33e 39d7 66bd
00000100: e0ed 443e 2bda 5f3e b54e 1bbe 4c93 f5bd
00000110: cbcb 9abe 75e7 3b3e e79c 383e d74c 10be

rnn.bias_hh_l1 f4 [72]
0.060372453 0.13883969 0.040646702 -0.1655923 -0.18828459 0.029404879 0.12534928 -0.06757666
0.3693872 0.06914813 0.082792 0.15183127 -0.049065445 0.017667448 0.17121425 0.07347607
-0.036086418 -0.26460442 0.264843 0.23590973 -0.20571409 0.5155647 -0.199021 0.13983212
0.075331576 -0.84940904 0.15979365 -0.8239726 -0.33404198 -0.5999336 0.0030492342 -0.7012075
0.35739678 -0.12595382 -0.2219585 0.01672539 -0.30027342 -0.35355732 -1.1226355 -0.20510337
-0.25136995 -0.55220467 -0.099276595 0.48542768 -0.7536989 0.115248814 -0.018884517 -1.0078549
0.004610037 -0.20923184 -5.2237203e-05 -0.010717155 0.03211207 -0.032902725 -0.23924479 -0.33040538
-0.6259334 0.2082599 0.021415422 0.0649311 -0.07094031 0.05922657 0.33062205 0.100534745
-0.06400047 -0.041898724 -0.18170339 0.036727596 -0.02949469 0.24963915 -0.046428222 -0.19737904
00000000: 1b49 773d fe2b 0e3e 287d 263d 0791 29be
00000010: adcd 40be 80e2 f03c 905b 003e a265 8abd
00000020: 5220 bd3e 899d 8d3d da8e a93d a879 1b3e
00000030: d9f8 48bd 53bb 903c ca52 2f3e 9f7a 963d
00000040: 5acf 13bd 3b7a 87be 8099 873e 5292 713e
00000050: b7a6 52be 0cfc 033f 29cc 4bbe 2730 0f3e
00000060: 7147 9a3d df72 59bf f2a0 233e deef 52bf
00000070: 8d07 abbe 4095 19bf a9d5 473b 5682 33bf
00000080: b6fc b63e 0afa 00be 1749 63be af03 893c
00000090: 70bd 99be 7705 b5be 85b2 8fbf 9e06 52be
000000a0: 90b3 80be 495d 0dbf 8751 cbbd fa89 f83e
000000b0: 69f2 40bf 9207 ec3d b4b3 9abc 6401 81bf
000000c0: cb0f 973b df40 56be 4519 5bb8 0297 2fbc
000000d0: f287 033d 02c5 06bd 96fc 74be e52a a9be
000000e0: 2c3d 20bf 1542 553e 656f af3c 99fa 843d
000000f0: 2749 91bd 8f97 723d 4b47 a93e 29e5 cd3d
00000100: ae12 83bd ff9d 2bbd 7410 3abe ad6f 163d
00000110: d99e f1bc 68a1 7f3e 852b 3ebd bb1d 4abe

rnn.weight_ih_l2 f4 [72, 24]
-0.46678564 -0.08417652 0.32025582 0.11190044 -0.058422662 -0.54788435 0.12795189 -0.82125753
-0.24799207 -0.02960132 0.1685337 0.17261995 0.104283564 0.2763187 0.8003346 -0.2619167
0.9058315 0.6669139 -0.24833903 -0.3071313 -1.4479951 0.18209058 0.30288464 -0.44720978
0.257638 -0.20553395 -0.011231545 -0.060687378 0.27675965 0.19185679 0.11684864 -0.18629844
0.004750796 0.004276545 -0.18813422 0.15125364 0.11367665 -0.15570772 0.00071538304 0.41054398
0.028081337 0.05818723 -0.013287484 0.052612804 0.19021249 -0.016419575 -0.1465046 0.060937505
-0.0030249478 -0.065936305 -0.1739003 0.31900418 -0.19772828 -0.04428535 -0.15477867 0.23733355
-0.17512728 -0.17993866 -0.035458006 0.07992311 0.1958335 -0.1085604 -0.09885658 0.11063904
-0.2352719 0.052893534 0.012679336 0.00017349311 0.14371124 -0.0187293 -0.23050977 0.12847193
0.018011374 -0.25406983 -0.10155017 0.02829178 -0.18530653 0.4698343 0.28723267 0.23332362
0.16927308 0.39004046 -0.37794518 -0.11663914 -0.05063742 -0.2438962 -0.20006484 0.27286798
0.10271875 0.01629095 0.050619956 0.4500071 0.2200512 -0.21537386 0.011572864 0.1289895
-0.101298235 0.023674583 -0.19275483 0.00903783 -0.15870194 -0.38888076 0.08509847 -0.4607421
0.08324363 -0.040566467 0.3136522 0.12798685 -0.22551805 0.031860217 0.29078805 -0.18323481
0.36153013 0.6364146 -0.10931638 -0.20548709 -0.20334946 0.1651198 0.15277348 -0.36652988
0.12596405 -0.15185872 -0.14994667 -0.07478904 0.061689466 0.10862827 -0.024304248 0.16234088
0.16513869 0.2000866 0.13448201 -0.027504325 -0.06113912 -0.118255645 -0.17466596 -0.13099693
-0.04521633 -0.007967769 -0.04522562 -0.1025391 0.1815305 0.056151237 -0.010953548 -0.11480326
0.023765413 -0.19103287 0.0036423765 -0.40975207 0.35418305 0.06434314 0.09703953 0.0671357
-0.05015519 0.055100013 -0.022489812 -0.13552035 0.21475746 -0.23868662 -0.17055045 0.06269972
0.12648137 0.0006664991 -0.19226156 0.18742861 -0.13692342 -0.34067145 -0.272443 0.24707438
-0.36704594 0.1853913 -0.22355928 -0.072336346 0.002522526 -0.16472648 -0.26062015 -0.4350955
-0.086599745 -0.0029485067 0.12556374 0.31469053 -0.12529965 0.11078195 0.26567373 -0.111453034
0.25025856 0.046398584 -0.09816359 -0.12479901 0.10641631 0.2347672 0.102258556 -0.2939127
0.030384922 -0.10810778 -0.07073339 0.20895389 0.22443944 0.13434024 0.21864367 -0.17700437
0.17259441 -0.1728584 0.008634724 -0.13283378 0.18297142 0.05131436 0.028361497 0.08414301
0.038918205 0.1025475 0.15192823 -0.011009554 -0.0065981727 -0.005952298 -0.010317482 -0.029664315
-0.08565068 -0.4880743 -0.26761124 -0.2577691 0.28976157 0.3213159 0.011760621 0.06328976
0.11560398 0.17465386 -0.17456493 -0.23418528 0.029719211 -0.17986293 -0.18340208 0.11678817
0.18831013 -0.0061348183 0.01746185 0.13010137 -0.01845194 0.022182012 -0.043263346 -0.021482678
-0.14492528 -0.08402249 -0.26695535 0.18293494 -0.107849345 -0.2365754 0.027135657 -0.06544147
-0.014755704 -0.06521447 -0.078585625 0.22135362 -0.16302484 -0.15153958 -0.20614666 0.07217634
00000000: 87fe eebe bd64 acbd 92f8 a33e 0f2c e53d
00000010: 9a4c 6fbd 2642 0cbf d205 033e ef3d 52bf
00000020: a2f1 7dbe 787e f2bc 1994 2c3e 49c3 303e
00000030: 9f92 d53d a579 8d3e bae2 4c3f f219 86be
00000040: 93e4 673f dfba 2a3f 964c 7ebe 5040 9dbe
00000050: e757 b9bf f475 3a3e b213 9b3e aef8 e4be
00000060: 21e9 833e 7e77 52be 8404 38bc 5493 78bd
00000070: 71b3 8d3e 1b76 443e 574e ef3d 05c5 3ebe
00000080: 91ac 9b3b 4222 8c3b 42a6 40be 3ce2 1a3e
00000090: 4ecf e83d d871 1fbe 8b88 3b3a d232 d23e
000000a0: d50a e63c bc55 6e3d bfb3 59bc 8680 573d
000000b0: 10c7 423e 5882 86bc 4d05 16be 9b99 793d
000000c0: 343e 46bb 9d09 87bd ec12 32be 8454 a33e
000000d0: 4879 4abe 8e64 35bd 4d7e 1ebe 9107 733e
000000e0: 9154 33be d741 38be 6a3c 11bd baae a33d
000000f0: 9488 483e ea54 debd 5275 cabd b996 e23d
00000100: 1eeb 70be e4a6 583d fdbc 4f3c b4eb 3539
00000110: 0a29 133e 306e 99bc c10a 6cbe 258e 033e
00000120: 978c 933c 7115 82be 89f9 cfbd 2ac4 e73c
00000130: ffc0 3dbe 1f8e f03e 2910 933e 63ec 6e3e
00000140: ec55 2d3e 62b3 c73e 0882 c1be 80e0 eebd
00000150: 2f69 4fbd edbf 79be ccdd 4cbe 5ab5 8b3e
00000160: 355e d23d 9974 853c df56 4f3d 5567 e63e
00000170: 1a55 613e f78a 5cbe 1c9c 3d3c d315 043e
00000180: 7375 cfbd 33f1 c13c 8661 45be 6813 143c
00000190: c382 22be 611b c7be 1b48 ae3d 63e6 ebbe
000001a0: a37b aa3d 0629 26bd 0597 a03e fc0e 033e
000001b0: 34ee 66be dc7f 023d 2ce2 943e e8a1 3bbe
000001c0: 7a1a b93e 11ec 223f 44e1 dfbd 356b 52be
000001d0: d73a 50be 2a15 293e a770 1c3e cea9 bbbe
000001e0: b8fc 003e da80 1bbe 9f8b 19be ff2a 99bd
000001f0: 18ae 7c3d 8078 de3d b419 c7bc b03c 263e
00000200: 1e1a 293e 80e3 4c3e a7b5 093e c050 e1bc
00000210: 046d 7abd 0430 f2bd a2db 32be 0f24 06be
00000220: c234 39bd 3f8b 02bc 803e 39bd 0500 d2bd
00000230: 22e3 393e d7fe 653d 8376 33bc f91d ebbd
00000240: afaf c23c 1f9e 43be f0b4 6e3b 06cb d1be
00000250: 7b57 b53e 56c6 833d a9bc c63d 717e 893d
00000260: 876f 4dbd 8db0 613d 8e3c b8bc d9c5 0abe
00000270: 61e9 5b3e 446a 74be c7a4 2ebe b668 803d
00000280: 5584 013e ffb7 2e3a 37e0 44be 49ed 3f3e
00000290: a735 0cbe 7d6c aebe a67d 8bbe 1101 7d3e
000002a0: 72ed bbbe 38d7 3d3e b9ec 64be 1425 94bd
000002b0: f750 253b 0fae 28be 0170 85be d6c4 debe
000002c0: 355b b1bd bc3b 41bb c893 003e 1e1f a13e
000002d0: 8d4e 00be a6e1 e23d 6306 883e 7d41 e4bd
000002e0: e421 803e 710c 3e3d fe09 c9bd a096 ffbd
000002f0: cbf0 d93d d066 703e ef6c d13d ba7b 96be
00000300: cde9 f83c 9d67 ddbd abdc 90bd 02f8 553e
00000310: 74d3 653e 7d90 093e 20e4 5f3e a240 35be
00000320: 97bc 303e cb01 31be a878 0d3c 9405 08be
00000330: dc5c 3b3e 022f 523d 5f56 e83c 2c53 ac3d
00000340: b268 1f3d 6c04 d23d 1393 1b3e 6b61 34bc
00000350: 7c35 d8bb 7f0b c3bb a80a 29bc 9402 f3bc
00000360: a069 afbd e0e4 f9be 5704 89be 50fa 83be
00000370: a15b 943e 8583 a43e 9faf 403c 109e 813d
00000380: c8c1 ec3d 76d8 323e 26c1 32be 44ce 6fbe
00000390: b475 f33c fd2d 38be c1cd 3bbe a32e ef3d
000003a0: 5fd4 403e 9606 c9bb 270c 8f3c 4b39 053e
000003b0: 8628 97bc 0db7 b53c e834 31bd 71fc afbc
000003c0: 4b67 14be fc13 acbd 5fae 88be 4c53 3b3e
000003d0: 1ee0 dcbd d240 72be 994b de3c 2d06 86bd
000003e0: e9c1 71bc 2a8f 85bd 80f1 a0bd 86aa 623e
000003f0: fcef 26be 312d 1bbe 1c18 53be 30d1 933d

rnn.weight_hh_l2 f4 [72, 24]
-0.12815143 -0.022304045 -0.121046126 0.064578675 -0.43153307 -0.10552415 -0.0049701002 -0.27655822
-0.09113018 -0.04210896 0.2766661 -0.12949811 0.033932015 -0.044978257 0.008070968 -0.003496641
-0.2471818 -0.24973722 0.27026486 0.07623215 0.044292413 -0.19259341 0.072284065 0.21914618
-0.21682394 0.13139689 -0.3081078 0.0602092 0.31274882 0.19317156 -0.1991167 0.08374958
-0.23966405 0.21458593 0.048030432 -0.27095765 0.16888957 -0.07902061 0.24568851 -0.28698832
-0.2880289 -0.040727288 -0.04672486 0.008196719 0.0027748158 0.14440544 -0.6032004 -0.14527972
-0.26674855 0.28007182 -0.115352415 -0.17311291 -0.076013796 0.14890191 -0.25867766 0.2992974
0.03363873 0.20875315 0.17231172 -0.18648407 0.30194956 -0.12922756 0.06382466 -0.07558468
-0.21077026 -0.17903826 0.26858595 -0.16323963 0.12014299 0.10554047 -0.20064916 -0.057975303
0.100380845 0.24973527 -0.18774979 0.04146144 -0.1838231 0.38650307 0.008959797 0.20234518
0.034264464 -0.25276828 1.7529648e-05 -0.097355485 0.08407648 0.31205288 0.23979363 -0.0043606814
-0.06439263 -0.17704313 0.15194437 0.20026952 0.15442921 0.21021856 -0.069109224 -0.018087348
-0.050559953 0.018953023 -0.30869028 0.10382341 -0.19702336 0.04510658 -0.0017842578 0.055132467
-0.11880528 -0.15567285 0.020000774 -0.15534759 -0.15825623 0.16264917 -0.09285107 0.19786006
-0.21750534 -0.0025452676 -0.19408435 -0.07445659 0.27023488 0.066359684 0.15820152 0.17080662
0.13013019 0.04076977 -0.11843692 0.06719891 -0.1567111 -0.0513149 -0.01124193 0.13038097
-0.018258145 0.00074780476 0.1243207 0.061366454 -0.07699057 0.0429561 0.00035736122 0.039821733
-0.09192175 -0.14598212 -0.018906502 -0.0134515725 0.022719989 0.045976426 -0.15254149 -0.15968937
0.012962486 -0.051184237 0.07182618 -0.08286949 0.18323323 0.047021598 -0.14563099 -0.09725455
-0.021358196 0.1460963 -0.18569534 0.12659833 0.057351418 -0.2030024 -0.16759549 -0.21510154
0.00083743467 -0.099542156 -0.045564916 0.14089732 0.04827726 -0.12833567 -0.16307646 0.10927921
0.20847733 -0.24533473 0.13936248 0.38652268 -0.38180858 0.41154122 0.005778551 0.094677486
0.029656447 -0.12310139 -0.41435766 0.101376176 -0.022170614 0.2898004 0.20173483 0.22191869
-0.11801595 0.18464196 -0.06829375 -0.04823107 0.47177798 0.08084314 0.24247845 -0.11664408
-0.26534113 -0.04437811 -0.10887015 -0.12165047 0.04256052 0.17752028 -0.18239462 -0.10749893
-0.19091068 0.08893613 -0.005896653 -0.011004557 -0.10220689 -0.16713367 0.23249078 0.079606965
-0.19189414 0.09936897 -0.011408079 -0.10968472 -0.17153786 0.077585556 -0.16253717 0.033984534
-0.14372693 0.25915253 -0.52251035 -0.06614711 -0.021557068 0.14638971 -0.037909437 -0.056168053
0.035813607 0.029361749 0.06504284 0.15148619 -0.03451761 0.22926028 -0.15366866 0.18780851
-0.25971323 -0.11196878 0.08622319 0.100090854 0.24165106 -0.027400382 -0.15810104 0.0069500175
0.05631286 0.118191764 -0.4210078 0.04667659 0.30069563 -0.12914987 -0.10932332 -0.037966654
-0.17906566 -0.17226908 -0.06301943 -0.059641216 -0.04734984 0.114018105 0.081118226 0.017733548
00000000: 213a 03be f9b6 b6bc 08e7 f7bd d341 843d
00000010: e7f1 dcbe 0c1d d8bd 39dc a2bb 0a99 8dbe
00000020: 76a2 babd 727a 2cbd 2ea7 8d3e 279b 04be
00000030: 4cfc 0a3d 1f3b 38bd 183c 043c e727 65bb
00000040: 3a1d 7dbe 1dbb 7fbe 2860 8a3e 9a1f 9c3d
00000050: f66b 353d 3537 45be ab09 943d db67 603e
00000060: 1807 5ebe e88c 063e 4ec0 9dbe ec9d 763d
00000070: 9d20 a03e c4ce 453e 40e5 4bbe e684 ab3d
00000080: 7e6a 75be 6abc 5b3e 8fbb 443d f6ba 8abe
00000090: 63f1 2c3e 8fd5 a1bd c595 7b3e 22f0 92be
000000a0: 8678 93be a8d1 26bd 9162 3fbd 884b 063c
000000b0: afd9 353b 05df 133e 576b 1abf 35c4 14be
000000c0: 4493 88be 9365 8f3e e33d ecbd 8344 31be
000000d0: 1fad 9bbd be79 183e 6671 84be 823d 993e
000000e0: c4c8 093d 63c3 553e 7c72 303e aef5 3ebe
000000f0: 2299 9a3e 3b54 04be 81b6 823d 24cc 9abd
00000100: 29d4 57be ce55 37be 1984 893e 4a28 27be
00000110: 870d f63d 9a25 d83d f976 4dbe 8377 6dbd
00000120: 7994 cd3d 9aba 7f3e 7b41 40be 79d3 293d
00000130: 1f3c 3cbe bbe3 c53e 1dcc 123c 9333 4f3e
00000140: e558 0c3d d86a 81be a20c 9337 5062 c7bd
00000150: 4a30 ac3d 65c5 9f3e 768c 753e 0ce4 8ebb
00000160: 48e0 83bd cb4a 35be 4e97 1b3e 7413 4d3e
00000170: b122 1e3e 8943 573e 2389 8dbd eb2b 94bc
00000180: f417 4fbd 5f43 9b3c a70c 9ebe 5ea1 d43d
00000190: 7ec0 49be adc1 383d c2dd e9ba 95d2 613d
000001a0: 2f50 f3bd b468 1fbe aad8 a33c 7013 1fbe
000001b0: ec0d 22be 818d 263e b428 bebd d49b 4a3e
000001c0: b8b9 5ebe 81ce 26bb 0cbe 46be b27c 98bd
000001d0: 3a5c 8a3e 96e7 873d 94ff 213e eee7 2e3e
000001e0: d940 053e 34fe 263d 0e8f f2bd 959f 893d
000001f0: e078 20be 932f 52bd 1230 38bc 9782 053e
00000200: 1b92 95bc 5408 443a da9b fe3d 645b 7b3d
00000210: 3bad 9dbd bcf2 2f3d 365c bb39 1d1c 233d
00000220: 7841 bcbd 567c 15be cfe1 9abc fc63 5cbc
00000230: 451f ba3c c751 3c3d d633 1cbe 9c85 23be
00000240: 9b60 543c 90a6 51bd 9b19 933d 7bb7 a9bd
00000250: 7ea1 3b3e b899 403d 4a20 15be 652d c7bd
00000260: 62f7 aebc 459a 153e eb26 3ebe fea2 013e
00000270: 52e9 6a3d dcdf 4fbe 279e 2bbe 9443 5cbe
00000280: 4a87 5b3a c2dc cbbd 47a2 3abd 6347 103e
00000290: 60be 453d 6d6a 03be 84fd 26be c7cd df3d
000002a0: 157b 553e 0739 7bbe 0ab5 0e3e 4de6 c53e
000002b0: 6a7c c3be 88b5 d23e 005a bd3b 45e6 c13d
000002c0: 14f2 f23c 951c fcbd b026 d4be 509e cf3d
000002d0: 269f b5bc b860 943e 9393 4e3e a73e 633e
000002e0: 59b2 f1bd c812 3d3e 98dd 8bbd f18d 45bd
000002f0: e28c f13e 1791 a53d 454c 783e 17e3 eebd
00000300: cbda 87be d2c5 35bd 50f7 debd e223 f9bd
00000310: f153 2e3d e0c7 353e a8c5 3abe 6628 dcbd
00000320: 177e 43be 2524 b63d b638 c1bb 754c 34bc
00000330: d951 d1bd 1725 2bbe 1012 6e3e fa08 a33d
00000340: e67f 44be f581 cb3d f4e8 3abc 62a2 e0bd
00000350: 9fa7 2fbe 2de5 9e3d 2570 26be 5e33 0b3d
00000360: 272d 13be a4af 843e 3dc3 05bf 2378 87bd
00000370: 7398 b0bc 2fe7 153e ed46 1bbd 7910 66bd
00000380: 4ab1 123d 0d88 f03c 2e35 853d 321f 1b3e
00000390: 5662 0dbd 35c3 6a3e 515b 1dbe e050 403e
000003a0: 22f9 84be e34f e5bd c995 b03d 6ffc cc3d
000003b0: 6073 773e c476 e0bc 3de5 21be f9bc e33b
000003c0: 50a8 663d 860e f23d 568e d7be f42f 3f3d
000003d0: c7f4 993e dd3f 04be e8e4 dfbd ec82 1bbd
000003e0: fd5c 37be 4e67 30be 5510 81bd 594a 74bd
000003f0: e8f1 41bd 5382 e93d 5021 a63d f245 913c

rnn.bias_ih_l2 f4 [72]
0.3551332 0.1946116 -0.12604396 0.05597664 0.3139705 0.13667576 -0.06301587 0.10496531
-0.025014643 0.074184135 0.08972356 0.10879783 -0.13666387 0.034481037 0.13340361 -0.10819702
0.146044 0.061134417 0.21106307 0.10920939 -0.18086421 0.20105568 -0.1372772 0.10639689
0.13137774 -0.40754908 -0.06368151 -0.3413534 -0.1465554 -0.37157515 -0.5893923 -0.42540216
-0.30467483 -0.104445405 -0.29243633 -1.1211607 -0.26802322 -0.20684463 -0.40531027 0.111111805
-1.2827097 -0.010755196 -0.6744691 -0.31878394 0.48348144 -0.93104506 -0.09787935 -0.68426967
0.4877535 -0.22511874 -0.18965009 0.21845597 -0.15886268 0.017266747 -0.08204858 -0.0469148
0.2179636 -0.22238673 -0.19439076 0.10998863 0.16269854 0.113964975 -0.32801864 0.22542435
-0.31673595 0.07140925 -0.30873084 0.14791305 0.23077814 -0.097639814 -0.33019173 -0.07124731
00000000: 05d4 b53e 4348 473e ab11 01be c347 653d
00000010: bec0 a03e bbf4 0b3e 770e 81bd 0df8 d63d
00000020: 82eb ccbc daed 973d fcc0 b73d 66d1 de3d
00000030: 9df1 0bbe fd3b 0d3d f59a 083e 6696 ddbd
00000040: 8f8c 153e 1568 7a3d eb20 583e 2ca9 df3d
00000050: 7834 39be 8ae1 4d3e 6592 0cbe 9de6 d93d
00000060: e387 063e 46aa d0be 746b 82bd dfc5 aebe
00000070: 9e12 16be 193f bebe 6ae2 16bf 50ce d9be
00000080: 57fe 9bbe 79e7 d5bd 37ba 95be 3282 8fbf
00000090: 573a 89be 14cf 53be d484 cfbe 968e e33d
000000a0: d52f a4bf 9036 30bc 02aa 2cbf a637 a3be
000000b0: e18a f73e f858 6ebf f874 c8bd 4c2c 2fbf
000000c0: d4ba f93e 8785 66be a233 42be ecb2 5f3e
000000d0: e6ac 22be fe72 8d3c 1609 a8bd bc29 40bd
000000e0: da31 5f3e 59b9 63be 5f0e 47be b841 e13d
000000f0: 729a 263e 7866 e93d 0ff2 a7be a4d5 663e
00000100: 372b a2be 033f 923d f811 9ebe 8576 173e
00000110: 1b51 6c3e 62f7 c7bd e40e a9be 1cea 91bd

rnn.bias_hh_l2 f4 [72]
0.17979436 0.27083504 -0.15884094 -0.10615901 0.092993185 -0.024324417 0.03732908 0.15464455
-0.14114769 0.23799029 -0.058054306 0.057300713 -0.057130594 -0.020995999 -0.12336702 -0.008552328
0.2452317 0.14099926 0.33237368 -0.039066218 0.10436714 0.104645364 -0.14475834 -0.090127155
-0.061326575 -0.5345701 -0.14408402 0.019923551 -0.2351591 -0.35609785 -0.47005743 -0.17939411
-0.23366451 -0.0075122346 -0.50887233 -1.3645499 -0.2551532 -0.18338776 -0.1864119 0.23370424
-1.1319481 -0.19343765 -1.0356891 -0.2908409 0.27064252 -0.6064207 -0.22001077 -0.7244499
0.79606855 -0.42058295 0.064675815 0.009838344 -0.20477788 -0.0027186803 0.07645805 -0.1966322
0.048853155 -0.16933815 -0.0962704 -0.011038553 -0.06379332 0.030512346 -0.31418502 0.21670245
-0.4725223 0.33611342 -0.71463156 -0.1647812 0.06264118 -0.23349765 0.48521313 0.06430845
00000000: 031c 383e e4aa 8a3e 33a7 22be e569 d9bd
00000010: 3673 be3d 0044 c7bc 61e6 183d 245b 1e3e
00000020: 0589 10be bab3 733e 5aca 6dbd 27b4 6a3d
00000030: c501 6abd cdff abbc d9a7 fcbd 101f 0cbc
00000040: 051e 7b3e 1c62 103e e22c aa3e e603 20bd
00000050: 70be d53d 4f50 d63d 883b 14be 9694 b8bd
00000060: 9331 7bbd 96d9 08bf c38a 13be b736 a33c
00000070: 8ccd 70be 7552 b6be 5eab f0be 17b3 37be
00000080: c045 6fbe 3129 f6bb 7545 02bf 92a9 aebf
00000090: 71a3 82be 00ca 3bbe c3e2 3ebe 2a50 6f3e
000000a0: ade3 90bf 8514 46be 7691 84bf 19e9 94be
000000b0: a891 8a3e 633e 1bbf 814a 61be 8c75 39bf
000000c0: 26cb 4b3f a656 d7be c174 843d 0131 213c
000000d0: 4bb1 51be e32b 32bb 0a96 9c3d f459 49be
000000e0: 3f1a 483d fb66 2dbe 6a29 c5bd 0cdb 34bc
000000f0: 12a6 82bd 07f5 f93c dcdc a0be 3fe7 5d3e
00000100: 71ee f1be 0f17 ac3e 18f2 36bf 67bc 28be
00000110: 054a 803d 021a 6fbe db6d f83e 26b4 833d
