Generator.pth (torch, 43106 bytes, 14 tensors)

rnn.weight_ih_l0 f4 [72, 6]
00000000: 477d 223e 1da6 863d 0aab 9c3e 4750 3f3e
00000010: c5f1 a53e de58 9f3e 743f 243e 34aa 173d
00000020: 4579 7e3e 4c93 e83d fe34 a83e aef7 3c3d
00000030: 1b31 a03d c412 253e 1b08 4f3e ab40 2d3d
00000040: 4bd4 8f3e 987c 583e 9a76 713e ff90 ef3d
00000050: 5028 023e 6115 963e e78d a03e 187d 9e3e
00000060: cdab 4fba 023f b9bd 0d05 053e 9afb a23d
00000070: ae55 5dbb 303c ed3d 91b7 aa3e ec8a 86bc
00000080: e9fe a23e 12b4 c23d a2ac 943d 16a1 3abd
00000090: bbed 483e 40ab 16bc 42c8 953e 17c2 c0bc
000000a0: 8700 a83e 09dc 383e 8c2b eb3c b110 9a3d
000000b0: ca85 993c 553e 863d 18cb b03e 6c3b b53d
000000c0: 2fd5 9f3e 6870 9a3d 8e8b 4d3e 6f28 b6bc
000000d0: 50d6 cc3d 9573 233e b67f 163e 01fc 4d3e
000000e0: 8ddf 79bd e712 6ebd 28ff 93bd bba8 cc3d
000000f0: cc51 c33d 9c8f c53c b880 f0bc 95e6 203e
00000100: 2931 333d 48bc 82bd f6d0 1b3e 65f7 953e
00000110: e721 08bb 3502 343e 9a11 bbbc 6214 633e
00000120: c12c da3c 0e6d 213d ead3 09bd c244 023d
00000130: 9bee b3bd e74b e83d 5afd 7bbd 56fa 8ebc
00000140: b107 5f3e c83e b83d 8276 df3d ee30 c63d
00000150: 0e92 873e 7fd0 ca3d 21ea 723e d179 ec3d
00000160: 6827 d6bc d426 273d 96bb f23d 4e66 823d
00000170: b3c1 173e 5924 10bd ad48 a83e d8cd 943e
00000180: 327f 853e c43f 8f3e 538f f43d 4f96 3d3e
00000190: 3733 92bc 613e 443e 6285 213e 5a65 8fbd
000001a0: 6374 e33d 5de5 7a3e aa57 513e c609 d8bc
000001b0: fd87 2d3e 8e14 3a3e cd6a 76bd 9237 46bd
000001c0: 0988 8c3d 0a76 7d3e 74bf 053e 6eea 793e
000001d0: 64ea ea39 2d9d af3e a31d 893e d0a4 13bd
000001e0: 578b db3d 6925 683d 7007 833e a353 ad3d
000001f0: 213c 263d 6add b13e ccad a33c 27d7 993c
00000200: cb2a ee3d 30c1 5d3e 223f 983e 23c4 aa3e
00000210: 4e3d 043d 701c f0bc 1021 2dbe 7a24 50bd
00000220: a9f9 1abe 8f66 28be ca14 883e b19f 1fbd
00000230: 42fc 923e e912 c13d 0169 13bd c731 f8bc
00000240: 7d14 99be f23d 8abe 808d 14be 2450 80be
00000250: 0560 acbe ba0d 423c 8220 1cbe 184f 2a3d
00000260: 52dc a5be 2249 9cbe 9e57 9dbe ea1d 88bc
00000270: 3e47 86bb ca5d 0b3d 9190 5fbe 3681 37be
00000280: d900 32be 6554 c23c a609 73be 7250 60be
00000290: 1c3e 38be c8df 8dbe 7478 683d 7a80 fa3c
000002a0: cfe1 babe 597f 9f3c 0dbc acbe dbb4 21be
000002b0: 168d 83be a03b 63be 46ae 9dbd 6186 a2bd
000002c0: 5587 a7be b44d 83bd e572 46bd 6619 83be
000002d0: 4c4f 8dbe dc6b 5ebe 4e9c cebd 3a23 acbd
000002e0: 8e55 73be 285f 41be 3efe b23d cf73 87bd
000002f0: 9055 43be dfda 5bbe 9523 76be 63da 47be
00000300: 78cf 98be 0bab 2cbd c6a5 16bc 3558 9cbe
00000310: b9f5 133b f1de 5cbd 8277 9bbe 5934 86be
00000320: d1c3 27be 2ee1 bcbd 33b7 a7be 61e8 7a3d
00000330: e670 42be 2ee7 3fbd 5251 e1bd 37c6 e0bd
00000340: af36 f2bc 5ead 97be 45ac 6cbe 1871 733d
00000350: 44a8 293d 2342 8cbd b9fc 203d 9126 9abc
00000360: 8867 a8be acc0 23be 5c57 2fbd 9281 65be
00000370: eafd 903c 4da3 41be 7ab7 2bbd d212 1bbe
00000380: ff3b a8be e2e0 4dbc 4eef 4ebe 57a7 8dbe
00000390: b3e2 60be d57a 5bbd d136 263c e434 93be
000003a0: 4ac5 10bc 51d4 2abe 1b4e 9ebe 6e04 eabd
000003b0: b663 91be 6797 10be d935 67be e118 48be
000003c0: 16b2 98be 5312 aebe 5d0b 99be ef47 8cbd
000003d0: 174a a3be 0a38 333d f066 cfbd a778 44be
000003e0: c828 3abe 90de 9cbe 10d9 a2be bccb 27be
000003f0: 7973 31bc 8531 b4be faf4 5abd 2a3a cfbd
0.15868102 0.06574652 0.30599242 0.18682967 0.32411018 0.31122488 0.1603983 0.037027553
0.24850948 0.1135622 0.3285293 0.046134643 0.07821866 0.1612044 0.20217936 0.042298
0.28091654 0.21141279 0.23580399 0.11697578 0.1271069 0.29313186 0.31358263 0.30954814
-0.00079220237 -0.09045221 0.12990208 0.079581454 -0.0033772993 0.115837455 0.33343175 -0.016423665
0.31835106 0.09507002 0.072594896 -0.04556378 0.19621937 -0.009196103 0.29254347 -0.02353005
0.32812902 0.18052687 0.028707288 0.07522715 0.018740553 0.06554858 0.34529948 0.088492244
0.31217334 0.07540971 0.20072767 -0.022236077 0.10001814 0.1596206 0.14697155 0.20115663
-0.06100421 -0.058123495 -0.072264016 0.0999312 0.09537086 0.02411633 -0.029358253 0.1571296
0.043748055 -0.06383568 0.15216431 0.2929031 -0.002077216 0.17578967 -0.022835542 0.22175744
0.026632668 0.039410643 -0.033649363 0.031803854 -0.08785745 0.11342602 -0.06152091 -0.017453354
0.21780278 0.089963496 0.109112754 0.09677301 0.26478618 0.09903049 0.23722126 0.11546672
-0.026141837 0.040808514 0.118521854 0.06367169 0.14819984 -0.035190914 0.32867947 0.29063296
0.26073605 0.27978337 0.119413994 0.1851437 -0.017846687 0.1916442 0.15773538 -0.07001753
0.111061834 0.24501558 0.20443597 -0.026371848 0.16946407 0.18171903 -0.060160447 -0.04839284
0.06861884 0.2475206 0.13061315 0.24405834 0.00044806593 0.34299603 0.26780424 -0.03604585
0.10719936 0.056676302 0.25591612 0.08463218 0.040584687 0.34739238 0.019980334 0.01877935
0.11629256 0.21655726 0.29735667 0.33352765 0.032285027 -0.029310435 -0.16907144 -0.050816037
-0.151343 -0.16445373 0.2657836 -0.038970653 0.28708082 0.09427435 -0.03598881 -0.030297173
-0.29898444 -0.27000386 -0.14507103 -0.25061142 -0.33667007 0.011844093 -0.15246776 0.041579336
-0.32394654 -0.30524546 -0.3073091 -0.016615827 -0.004097848 0.03402499 -0.21832491 -0.17920384
-0.17383136 0.023721883 -0.2373415 -0.21905687 -0.17992443 -0.27709794 0.056755498 0.03057884
-0.36500403 0.019469904 -0.3373722 -0.15791647 -0.25693578 -0.22190714 -0.07699256 -0.07935787
-0.32720438 -0.06411305 -0.048449416 -0.25605315 -0.2759956 -0.21720833 -0.100884065 -0.084051564
-0.23763105 -0.18883955 0.08739899 -0.066138856 -0.19075608 -0.21470211 -0.24037011 -0.19516902
-0.29845786 -0.042155307 -0.009194797 -0.30536047 0.0022576882 -0.05392355 -0.30364615 -0.26211813
-0.16383292 -0.09222637 -0.32756957 0.06125677 -0.1898838 -0.04685133 -0.11001839 -0.109753065
-0.02956709 -0.29624456 -0.2311259 0.059434026 0.041420236 -0.06848552 0.039303515 -0.018817218
-0.32891488 -0.15991467 -0.04280792 -0.22412708 0.0176992 -0.1890995 -0.041923024 -0.15143898
-0.32858273 -0.012565823 -0.20208475 -0.27666733 -0.21961479 -0.05358394 0.010144905 -0.2875129
-0.0088361 -0.16682555 -0.30918965 -0.11426626 -0.28396386 -0.14120255 -0.22579135 -0.1954074
-0.2982337 -0.33998355 -0.29891482 -0.06849658 -0.31892464 0.043754615 -0.10127056 -0.1918665
-0.1817962 -0.30638552 -0.3180623 -0.16386312 -0.0108307535 -0.3519403 -0.053456284 -0.10118516

rnn.weight_hh_l0 f4 [72, 24]
00000000: 3b36 65be 953b 81bc 73c1 9b3d ca24 073e
00000010: c15f 603e 557b 8a3b 3d94 47be e67a 273d
00000020: 5c40 d1bc a683 2cbe d943 303e 7995 833d
00000030: f496 c0bd 8a76 71be 8830 d83d 6401 093c
00000040: 1def 0cbe 3c50 1d3e 00df ff3d 2d96 2dbc
00000050: d4da 2ebe 7c7c 08be 241e 403c 1897 3bbd
00000060: 5954 abbd 9899 083e c25a 13be 54c6 733e
00000070: 5e18 a33d 2ee8 053e 8e90 b2bd a949 673d
00000080: 17b4 53bd 4551 c33c 0bf6 18be 3cf1 233e
00000090: 2356 0c3e 875d ba3c e8f3 6e3e a4a5 023e
000000a0: 8ff2 7a3e b00c 513e ad16 e9bd aa39 80bd
000000b0: 9b2a 3bbd 0491 49be 1127 3b3e 418a 3d3d
000000c0: 4a8b fb3d 6997 39bb 4f41 a93d 7e5e 1c3e
000000d0: 052f 743e f2fe 8fbd a026 efbd 1105 a6bd
000000e0: be2a 2ebe e8f3 1e3e 46a9 b43c 4612 f4bd
000000f0: 39e2 35be 24da 52bc 83b8 0cbe a184 84bd
00000100: 6044 293e 7939 a83d 0101 ed3d 902e e3bd
00000110: 2bae 22be d1a8 503d f62f 1e3e 1390 473e
00000120: 8a33 cebd 20c0 b4bd 5a52 10bd d0ee 0ebe
00000130: 6f30 2dbd 4508 363d 94d6 b33d 589d 9c3d
00000140: 2ab8 aebd edc2 1e3e 2a93 e9bd e4b9 353e
00000150: 3684 44be f712 f93d fe5a 91bd 260c 41be
00000160: 56fe 323b 2949 453e 654b 283d a3ae c7bc
00000170: 8176 acbd dd9c 393d 581c 693e 59f9 733e
00000180: f112 263c df8f 9cbc 7b47 9bbd 797b 21be
00000190: 3774 a03d 44f9 f03d edd7 2d3e 6f55 1abe
000001a0: 235b 3e3e 567b 34be 9ee7 85bd a742 613e
000001b0: 0d07 30bc 7610 a23c ad9a 8cbc 7881 25bd
000001c0: 0cb9 603e 9a5b 493e 04c3 e93d b771 ecbd
000001d0: 36ea 5b3d 0fa9 0fbe 016b 8abd 4d6c 973d
000001e0: 9c53 a2bd 68de db3d cb1f 2bbe f99f 423d
000001f0: 6c00 8dbd 599c 98bc 29f1 f23d 1efd 543e
00000200: 3049 763e b724 c4bd dc52 7d3c 83fa 0c3e
00000210: b5e3 19be 7775 683c bba9 16be 731c 143e
00000220: 42be d8bd a05f 863d 70a2 14be da25 3f3d
00000230: 0e10 42be 445e 03be 7ed4 433e 38c0 1b3e
00000240: 78d6 e93d 3acb 9abd f6c4 0bbe 59f3 e23d
00000250: 17e4 a5bd a05a a6bd 3a18 5cbd a334 2e3e
00000260: d678 46bd 1f51 243d ba0e 553d feaa 7d3e
00000270: bbe9 953d 606f d13d 5961 adbd e6d8 48be
00000280: 2d74 af3b 1a5b 963d 7d76 dd3c dc8a b83d
00000290: 38a0 1cbe eb30 f63d b6e5 943b 0e65 d5bc
000002a0: e586 ae3d c138 893e 3841 353e 4bd1 0c3e
000002b0: 60ab 753e 2f9e 9e3d 93f9 59be f527 a33d
000002c0: 4031 fe3c 481d fdbd eabf 1bbc b72d c8bd
000002d0: 4d9b 57be 4376 1f3b afe3 b1bd 6bc0 6fbe
000002e0: f1ff 7e3e 9144 653e 18c7 723e 2db3 4fbe
000002f0: 1a50 2ebe 1ab8 dcbd 7441 9f3d 05c6 cfbd
00000300: bacd 41bd 1b64 bbbd b1da 3d3e 70a9 e23c
00000310: c9c3 0fbd 1b46 2a3e 9212 4bbe 2f0f d93d
00000320: 319a 3e3e d783 0bbe 1958 943d 89d9 343e
00000330: 22c1 17be 6579 7bbe 90ad 8a3d b49f 42bd
00000340: dca1 1ebc e0b8 c03c 18d3 0abd e69e e63d
00000350: 9612 af3d af75 4ebe 6490 213d dd0d dbbd
00000360: 637a aabd 0815 123e f172 1d3c 08b4 a33d
00000370: 5d65 2dbd 07f2 05be 8404 e2bd 1ee0 fdbd
00000380: 27cf 1f3d a42d f53d 3633 a9bd 3506 c23d
00000390: 815e 113d 804e 0dbd 1520 a43d 3c69 b3bd
000003a0: 992b fdbc 28e4 2dbe d8bc 9c3d 8264 b13d
000003b0: 2b2d ffbd 7f6c ba3d 6626 20be 48f2 1abe
000003c0: 4512 b1bd d9d4 91bc b19d 903d 2bca 773e
000003d0: 4f06 393e 377a f1bd 8a53 f73d 5d1c 553d
000003e0: 8811 01bd f14a 6b3d 8161 bfba fc06 02be
000003f0: 0ef4 613d bad1 22be b72d 1cbe dddd ab3d
-0.22383969 -0.015775481 0.07605257 0.13197628 0.21911527 0.004226128 -0.19490142 0.04088869
-0.025543384 -0.16847095 0.17213382 0.06424994 -0.09403792 -0.23580375 0.105561316 0.008362148
-0.1376309 0.15362638 0.12493706 -0.010594887 -0.17075664 -0.13328737 0.011725936 -0.04579839
-0.083656974 0.13339841 -0.1439009 0.23806125 0.07963632 0.13076851 -0.08718978 0.056466732
-0.05168542 0.023842463 -0.14937608 0.16009992 0.13704734 0.022749675 0.2333523 0.127585
0.24506591 0.20414996 -0.11381278 -0.062609985 -0.04569493 -0.19684225 0.18276621 0.046274427
0.12282427 -0.0028319007 0.0826441 0.15270421 0.23846062 -0.07031049 -0.11677289 -0.08106435
-0.17008492 0.1552273 0.022053372 -0.11917548 -0.17762078 -0.012869392 -0.1374226 -0.064706095
0.16529989 0.08214087 0.11572457 -0.110928655 -0.15886752 0.050942246 0.15447983 0.19488554
-0.10068424 -0.088257074 -0.035234787 -0.13958287 -0.042282518 0.04444148 0.08781162 0.076471984
-0.0853122 0.15504046 -0.114050224 0.17746693 -0.1919106 0.121618204 -0.070974335 -0.1885229
0.002731224 0.1926619 0.041087527 -0.024375265 -0.0842104 0.045315612 0.22764719 0.23825587
0.010136352 -0.019111572 -0.07581993 -0.15769757 0.07834666 0.11766294 0.169769 -0.15071653
0.18589453 -0.17625174 -0.06538318 0.21998082 -0.010743869 0.01978324 -0.017163599 -0.040406674
0.2194559 0.1966385 0.114141494 -0.11545127 0.053690158 -0.14029334 -0.067586906 0.073937036
-0.079261035 0.1073578 -0.16711347 0.047515843 -0.06884846 -0.01862924 0.11862404 0.20799682
0.24051356 -0.09577315 0.01546165 0.13767438 -0.1502827 0.014188162 -0.14713185 0.14463978
-0.10583164 0.06561208 -0.1451509 0.046666957 -0.18951437 -0.12828928 0.19124028 0.15210044
0.1141786 -0.07558294 -0.13649353 0.11081571 -0.08100145 -0.08122754 -0.05373404 0.17012267
-0.048455082 0.040116426 0.052015997 0.2477226 0.07319971 0.10226321 -0.08465833 -0.1961399
0.0053544254 0.07341595 0.027034039 0.0901086 -0.15295494 0.12021049 0.0045439852 -0.026049163
0.08521823 0.26801112 0.1770066 0.13751714 0.23991156 0.07745015 -0.21286611 0.079666056
0.031029344 -0.123591006 -0.009506205 -0.097743444 -0.21055336 0.0024331964 -0.08686005 -0.23413245
0.24902321 0.22389437 0.2370876 -0.20283194 -0.17022744 -0.10777302 0.07776156 -0.10145191
-0.047315337 -0.09149953 0.18540455 0.027668685 -0.035098825 0.16628306 -0.19831303 0.10598599
0.18613507 -0.13624512 0.07243366 0.17661108 -0.14819768 -0.24558027 0.06771386 -0.047515586
-0.009682145 0.023525655 -0.03389272 0.11260776 0.08548467 -0.2016208 0.039444342 -0.106960036
-0.08324125 0.14265835 0.009609924 0.079933226 -0.042332996 -0.13080607 -0.110360175 -0.123962626
0.039015915 0.11971596 -0.08261721 0.0947384 0.035490517 -0.03449869 0.08013932 -0.08760306
-0.030904578 -0.16981566 0.076532066 0.086617485 -0.12459787 0.09102725 -0.15639648 -0.15131485
-0.08646063 -0.017801689 0.07061327 0.24198215 0.18068813 -0.11790889 0.12076481 0.052029002
-0.03151086 0.057444517 -0.0014601202 -0.12697977 0.05516439 -0.15900317 -0.15251814 0.083919264

rnn.bias_ih_l0 f4 [72]
00000000: c6c0 a13b 868b 8b3e e1d7 fc3d 6a17 be3d
00000010: f013 3cbe 5aa3 37bd ac1d 243a aa82 aa3e
00000020: 9bac a13e 6c08 473b 9ad6 f63c 2bf5 c6bc
00000030: 728a 77bd 7776 b4bc 404f 8c3e b051 9a3e
00000040: 2906 973e 83e9 6cbd 13d9 b13e 214b 1c3d
00000050: defa 03bd bd72 233e b0ec 82bd 50b4 d6bc
00000060: 3457 92be 0cef 9ebd bdfc a3bd bbae 96bd
00000070: 7e64 abbe f479 87be 6302 87be 2a52 92be
00000080: 59c1 a8be 2933 62be 5987 73be 66f0 06be
00000090: 7f1f 37be 4c3d bebd 9172 ea3c 3798 a0be
000000a0: 7a3e 9fbe 8777 80be 0761 95be 330e 8ebe
000000b0: 377c 3abe d48a 44bd 67d0 83be 6191 3dbe
000000c0: 3eed a0be 5fb6 793e 4319 8d3e acbd 853e
000000d0: 0171 b93d 6ecc 52bd f5dd 82be 5642 1bbd
000000e0: d573 923e 0f0a 85be 1645 323d efa2 c83d
000000f0: 3ce0 48be 22b6 e4bd 709e 893e 6052 5fbe
00000100: 72fd a3bb 097c a23e e8df 3a3e a950 a7be
00000110: 59d5 b4be 1ebb 96be 0a6e 843e 6536 813e
0.0049363105 0.27254885 0.12345863 0.0928181 -0.1836698 -0.04483352 0.0006260525 0.33302814
0.31577 0.003037001 0.030131627 -0.024286827 -0.060434766 -0.022029145 0.27404213 0.30140448
0.29496887 -0.05783988 0.34735927 0.038157586 -0.032221667 0.15961738 -0.06392801 -0.026209027
-0.28582156 -0.07760438 -0.080071904 -0.07357546 -0.33475107 -0.2646023 -0.26369008 -0.2857831
-0.32960013 -0.22089829 -0.237821 -0.13177642 -0.17883109 -0.09289035 0.028619083 -0.3136613
-0.31102353 -0.25091192 -0.29175588 -0.27745208 -0.18211447 -0.04798396 -0.25744936 -0.18512489
-0.31431 0.24385975 0.27558336 0.2612127 0.09054757 -0.05146449 -0.25559965 -0.03790506
0.28603998 -0.25984237 0.043522917 0.09796702 -0.19616789 -0.111675516 0.2687869 -0.21808767
-0.0050045783 0.31735256 0.18249476 -0.32678726 -0.3531902 -0.29439634 0.25865203 0.25236812

rnn.bias_hh_l0 f4 [72]
00000000: 33ac ec3d 0306 363c 59b6 dabc a4b6 753e
00000010: 47e7 36be 5537 863c 8ae8 823e 6694 e23d
00000020: 61a2 283b 5592 693a e72c 8fbb b4b1 9d3e
00000030: 32ed 4ebe d8fb 853c ef2b 083e acae d23d
00000040: 456c fb3c d772 a13e 00bb 793e 66a4 b03c
00000050: 673d 373e 06ad 5c3e e210 9dbe 433c 5a3e
00000060: f774 fcbc 9786 22be 7482 20be 8736 3dbd
00000070: 2a92 ecbd b7ec edbd c015 88bd f5ae 8dbe
00000080: ca3c e2ba ada8 803c a3d0 ebbc 7157 36be
00000090: 7a60 423d 5633 adbe 5c92 67bd 894a b9be
000000a0: df4e 25bc cde7 52bd 82ab 8abc 91cf 0ebe
000000b0: 029e 2ebe db59 75bc bd5a 51bd 2d06 43be
000000c0: d6bb 76be 2b49 403e b80d 943e b5d6 723e
000000d0: c19a 963d a73d 813e 05e6 a6be ecc5 bd3d
000000e0: 839d 8b3e 24ad 25be 3b23 bb3d 37a3 633e
000000f0: 792c 75bb 590c 4dbe ca85 0f3e 07a7 84be
00000100: 08ff 1c3e fb50 893e 1d5c a73e f81b 3dbe
00000110: 77e2 b6be b27e 8ebe bbaa 08bd c295 733e
0.11556282 0.011109832 -0.026698278 0.23995453 -0.17861663 0.016383806 0.25568038 0.11063461
0.002573155 0.000891005 -0.0043693664 0.3079964 -0.2020767 0.01635544 0.1329801 0.10287222
0.030691275 0.31532928 0.24387741 0.021562766 0.17894517 0.21550378 -0.30676943 0.2131205
-0.030817492 -0.15871654 -0.15674764 -0.04619458 -0.11551316 -0.116174154 -0.066447735 -0.27672544
-0.0017260548 0.01570543 -0.02878601 -0.17806794 0.04745529 -0.3382823 -0.056536064 -0.36189678
-0.010089605 -0.051490594 -0.016927484 -0.13946368 -0.17052463 -0.0149750365 -0.051111925 -0.19045325
-0.24095091 0.18777911 0.28916717 0.23714717 0.07353736 0.2524235 -0.32597366 0.09266266
0.2726861 -0.16179329 0.09137579 0.2223023 -0.003741054 -0.20024242 0.1401588 -0.25908682
0.15331662 0.26819596 0.32687464 -0.184677 -0.35719654 -0.27831036 -0.033365946 0.23787597

rnn.weight_ih_l1 f4 [72, 24]
00000000: b09e 5ebb 1c4a 6c3d f100 f3bd 29df a43c
00000010: 1f1d a43d f89e a1bd ceb4 153d d61a 293d
00000020: a186 6dbe 250a 043e 12d7 92be d67c 28be
00000030: 0f20 0d3e eb0d 8d3d a8f0 5bbe 682e a73c
00000040: d372 ad3c 6a11 7cbd 6f02 3cbe ef59 8dbd
00000050: 6542 b2bb ca59 96bb 6969 84be 906f 78bd
00000060: d6c5 82be e5f5 0f3e ca8f 893e ee43 83bd
00000070: 8cbb d23d dc04 383e ed96 24be 7f32 903e
00000080: 0a62 013e 91e6 c63c 8b3d 73bc f1a1 813e
00000090: 1536 85be f86f 873d b106 8dbd ca92 2c3d
000000a0: baa6 81bd fd22 183e 3d8c 4a3d 7d7c 0f3d
000000b0: a8fd e53b 981b 64bd bb27 a13e 1e8f 7c3e
000000c0: 9995 a8bc 19d1 94bc f2a9 0f3d a9b3 963e
000000d0: 3cdf 8d3e a17f b5bb 757a 84be ff89 47bd
000000e0: dcba 4cbd ba37 52be 2b62 613e 784e 103e
000000f0: 2a2c 6fbe ead9 97be 813d 5e3e 3a6e 94be
00000100: 70c3 a03e 199c 0c3e e88e 113e 9fac 36be
00000110: 2086 88bd cf18 41bd c1fb ce3d 25f7 a23e
00000120: e9c0 a7be d0e6 873d 7807 703e cf22 6f3e
00000130: d226 df3d 1791 263e b9f5 d1bd 3702 bf3d
00000140: 2593 16bd f604 21be e7b1 60bc dd11 e9bc
00000150: d186 54bd f822 1dbd deca 9e3e cd78 f7bc
00000160: 11d9 373e 8219 803e ab2a 903e bf64 08be
00000170: 9ae7 84bd e4bf d8bc 536e 803e 4ed3 743e
00000180: 9396 883b 48ae 473e 111f b03e 8d82 1f3e
00000190: 7196 073e 49ce babd 9998 f1bd ecf2 7dbd
000001a0: 578f a33e 432e a0be 6efd 5abd e9de c6bb
000001b0: 29d7 d6bd 1c76 863c 3b7b d13d 0ff8 123c
000001c0: edd0 af3d 169b 5b3d c4b0 c43d dc43 8bbe
000001d0: 19cb 23bd fa5d a3be b67d 3d3e b374 7c3e
000001e0: bd74 00bd 62c6 863d 7cde 94bd b700 993d
000001f0: 9770 8cbe 24bc a0bd 8929 833e c5f1 6a3c
00000200: e2b6 6bbe c446 3b3e 222e b23c 471c 00bd
00000210: bc37 df3d 1ef9 353e a30b 9abe ccd6 3a3e
00000220: fdc2 343d 89c9 d2bd e388 3dbe f39d 603e
00000230: 4323 0ebd 3005 55bd 9f57 76be 94e6 80be
00000240: 0f06 7cbe 922c 463d 159d 603e d8df f0bc
00000250: 4909 483d 8a3e aabd f5a4 3ebd f801 ec3d
00000260: 6c4d 6e3e 8040 623d 00b0 453e a92e 453e
00000270: 1442 7fbe bcd8 33be 90dd 983e 187b 3d3d
00000280: 3bcc 933e bcd9 113e 3506 2bbd cc33 82be
00000290: d014 30be 4f6d 83be 0483 9a3e 6395 f4bc
000002a0: 4d17 c2bd 7ece 843e fbbd 8a3e 659a 423e
000002b0: 265e a03d 13b7 843b 04e0 99be 3181 5f3e
000002c0: 29c5 263e 6d54 a43d 411b 493d 5dc1 793d
000002d0: a0a0 61be b8c3 9cbe e0db dc3d a475 2fbe
000002e0: c2a9 0c3d 25c4 e43c 2228 c73c 0e3b 33be
000002f0: 262b bbbd 4ac6 99be c0e0 84bd d277 8f3e
00000300: 576d 8fbe 1a59 4f3e 0ae4 723d e3e3 ae3b
00000310: fcd3 e43d 2b3d 903e deef 29be 2e05 313e
00000320: 9589 ad3c 7897 87be 311b 423e b864 11bd
00000330: c13c 82be 7791 28be c340 9ebd 9937 71be
00000340: e67e 973e f612 293e 8df3 a4bd 3db7 083b
00000350: eb4b 6ebe 95c2 87be 593d 333e 5612 0f3e
00000360: 2ef4 88bd 8ae9 d1bb bd83 dfbb d6af 53bd
00000370: 31c8 9ebd f41b 9e3d 3f2a 0dbe 3ad8 473e
00000380: c3b6 81bc fc2c 70bd f6a9 71bd 3672 f5bc
00000390: 4ee6 683d 8755 a03d 04c2 113e b3a2 0a3e
000003a0: 166d 5abe bbdc 59be e051 4ebe 5b5f 1e3d
000003b0: 1f11 093e cfb0 903d 977c 25be 4f11 ba3c
000003c0: 5289 2bbd f318 813e ee6f e03d 4161 4d3d
000003d0: afcc 023e 5e8f 88bd 5db8 4cbe 09d1 523e
000003e0: 6011 193e ad80 60be 0677 423e daae d83d
000003f0: 8aae 04be f2ef 14bd 4200 303e d21c 61be
-0.0033969097 0.057687864 -0.11865414 0.020125942 0.08013367 -0.07891649 0.036549382 0.04128536
-0.23195888 0.12894495 -0.2867971 -0.16453871 0.1378176 0.0688742 -0.21478522 0.02040787
0.021172917 -0.061540045 -0.18360303 -0.06901919 -0.0054400438 -0.0045883404 -0.25861672 -0.06065327
-0.25541562 0.14058645 0.26867515 -0.06409441 0.10289678 0.17970604 -0.16073199 0.28163525
0.12635055 0.024279865 -0.014846216 0.25318864 -0.26017824 0.06613153 -0.06886042 0.042132176
-0.06330629 0.14857097 0.049450148 0.03503083 0.0070187636 -0.055690378 0.31475624 0.2466397
-0.020579146 -0.018166112 0.03507418 0.29433945 0.27709377 -0.005538896 -0.25874677 -0.048715588
-0.04998289 -0.2052907 0.22010104 0.14092433 -0.23356691 -0.29658443 0.2170315 -0.28990346
0.31399107 0.13731422 0.1421467 -0.17839287 -0.06666207 -0.0471428 0.10106612 0.3182918
-0.32764366 0.06635821 0.23440349 0.23353122 0.10896076 0.16266285 -0.10251946 0.09326594
-0.03676142 -0.15724549 -0.01371429 -0.0284509 -0.051886383 -0.038363427 0.3101415 -0.03020897
0.17953898 0.2501946 0.28157553 -0.13319682 -0.06489487 -0.026458688 0.2508417 0.23908731
0.0041683405 0.19500077 0.34398702 0.15577145 0.13240983 -0.09121377 -0.11796684 -0.061999246
0.31945297 -0.31285295 -0.053464346 -0.0060690534 -0.10490257 0.01641374 0.102285825 0.008970275
0.08584771 0.0536147 0.09604028 -0.2720021 -0.03998861 -0.31907636 0.18504986 0.24653892
-0.03136133 0.06580807 -0.07268998 0.074708395 -0.2742965 -0.07848385 0.25617626 0.014339869
-0.23018983 0.18288714 0.021750513 -0.031276967 0.10899302 0.17770812 -0.30087003 0.18246001
0.044131268 -0.10292346 -0.1850925 0.21935253 -0.034701597 -0.0520069 -0.24056862 -0.25175917
-0.24611686 0.04838235 0.21934922 -0.029403612 0.04883698 -0.0831271 -0.046544034 0.11523813
0.23271722 0.055237293 0.1930542 0.1925608 -0.2492755 -0.17563146 0.2985654 0.04625997
0.28866753 0.14243215 -0.041753966 -0.25430143 -0.1719544 -0.25669333 0.30178082 -0.02985639
-0.094771005 0.2593879 0.2709807 0.1900421 0.078304574 0.0040501445 -0.30053723 0.21826626
0.16286148 0.080239154 0.049098257 0.06097542 -0.2203393 -0.30618072 0.10784125 -0.1713472
0.03434158 0.02792556 0.024311129 -0.17502996 -0.09139089 -0.30034095 -0.0648818 0.28021103
-0.28013107 0.20248833 0.059299506 0.005337225 0.11173245 0.28171667 -0.16595408 0.17287132
0.021183768 -0.2648275 0.18955685 -0.035496444 -0.25436977 -0.1646174 -0.07727196 -0.23556365
0.29589003 0.1651114 -0.08054266 0.0020861172 -0.23271148 -0.26515642 0.17503871 0.13971838
-0.066871986 -0.006406014 -0.0068211243 -0.051681362 -0.07753027 0.077201754 -0.13785647 0.19516078
-0.015834218 -0.05863665 -0.058999978 -0.029961687 0.05686026 0.07828813 0.14234167 0.13538627
-0.21330675 -0.21275608 -0.2014842 0.038665157 0.13385437 0.070649736 -0.16160809 0.022713332
-0.041879006 0.25214347 0.10958849 0.050141577 0.12773393 -0.0666797 -0.19992204 0.20587553
0.14948034 -0.21924086 0.18990716 0.10580225 -0.12957206 -0.036361642 0.17187598 -0.2198365

rnn.weight_hh_l1 f4 [72, 24]
00000000: 4b19 d0bd 57cd 35be ee75 163e cea2 16be
00000010: 263c 0abd f412 87bd d80f 11be 71ad 303e
00000020: 9c10 933d 158e b33d ada8 313d 4005 51bd
00000030: c979 093e 9e35 4dbe 360b 3a3e cc63 db3c
00000040: a3a2 4abe 8850 f1bd 6723 5f3e 1da4 87bd
00000050: 3401 a03d 1735 22be 3805 363e 223e a23d
00000060: 9069 bcbd df6d 7cbe 9bc7 73be d321 12bc
00000070: 41f3 39be 44a8 023e bb10 9fbd 3cb7 57be
00000080: bf28 243e 02d9 a1bd 5ef8 1d3e 041d 363e
00000090: 7cc1 e7bd d4f5 98bd 02ea 19be f4a7 debd
000000a0: 51ad edbd 3e5d 883c 4e95 ebbd aae8 17bc
000000b0: 9b8a 90bd 3608 dabd c47b a6bd 4983 85bd
000000c0: 5f39 9abb b90e 953d cf66 07be 682f 833d
000000d0: f5dc 63be 30b9 ebbd cba4 f13d 8892 18be
000000e0: 04e0 3a3e 052b 3bbc ad6c 123e e1c5 75bd
000000f0: 1593 273e 7782 513d 588f d5bd fc2c 91bd
00000100: 58c6 11be 157d 81bc d12e 0d3d d240 0bbd
00000110: a24f 9b3d 0f3f 153e 0278 4dbe 5326 b53d
00000120: bcbe 2cbe ee81 c23d 719e f2bd 365f 173e
00000130: d3cb debd 2b09 c73d c416 233b fbfa 28bd
00000140: 0e35 aabd b870 33be 178d 87bc 3196 163d
00000150: b211 a03d 9f7c 1a3e 79c4 03be 9211 6dbd
00000160: a181 cabd a37a 4bbe 5288 c9bd 5e7e 393e
00000170: 8cb8 963d f069 243e 721b 153e 9988 063e
00000180: 2169 fbbd 4f54 81be 1012 36be 03b3 89be
00000190: 2dc7 87bb e6c8 843c 041f db3d fa0c a3bc
000001a0: c160 493e 8e94 07be ec5e 1a3e 1bab ecbd
000001b0: b2a2 013e 9d2f b3bd 04d3 88bd a386 48ba
000001c0: f925 b33d abc8 d53d 7295 adbd 0a50 413e
000001d0: ef99 533e d3ad ccbd b0ae 08bc 79b6 683e
000001e0: 7c85 343e 4b59 7abd 2bd0 6b3d a151 22bd
000001f0: b720 29be 35c6 b63d cc87 0e3e 94f2 273d
00000200: 7e47 373e 15ac c8bc 71a1 f9bd d348 2dbe
00000210: 3598 efbd 00b9 803d d913 c83d f3f1 37be
00000220: 2726 a13d 03e0 07be 0715 e53d f4c4 413e
00000230: 8c9b e13c 48ca 9bbc 17ec 203e 2349 373c
00000240: b3a2 83bd 890c 45be 7b9c 88ba d350 99bd
00000250: a176 0ebd 7f47 3bbe 18d8 71bb 832f 79be
00000260: f107 503e 2f26 19be 66bd 05be e89c 603e
00000270: 4a3d 343e 14b8 b93c a79b a63c 0ae9 093e
00000280: a05a 063e 4815 dd3d de0d fb3c a168 813d
00000290: 7114 41bd bf90 903c 57de 9a3c 0d8f a1bd
000002a0: 85ec 073d e692 5abe 3b60 17bc 3920 fd3d
000002b0: b8de 793d 01b3 3a3e 9e1b a6bc 305f 02be
000002c0: 0d6b 833e 5b2b 043d 6efe 913d fac0 a33d
000002d0: ffd7 ab3d 0b34 bc3d 0e6f 5f3e adf2 d43d
000002e0: 50e6 4c3e adc9 1cbd 0740 9ebd 0554 213e
000002f0: 932b 2d3e 2105 0c3d f39f 493c 5933 b23d
00000300: c8ae f1bd 6675 f63d db16 1e3e 3746 353e
00000310: 16e8 afbd ff21 25be 51c3 e43c ec7e c73c
00000320: 1e29 41be f3f6 843d e868 45be 868e 03be
00000330: 5ec9 89bd 8bb8 e0bd 6153 77bd 91e7 e93d
00000340: 70b9 1dbe 1d23 18bc f79e 083e f3b5 9b3d
00000350: e4fa 38be b56f 293e 3bf1 8ebd b8e7 c5bd
00000360: d1f8 363e ceaa 0a3e cc80 79be c086 6abe
00000370: c7c5 fa3c ca3f f8bc edde fdbd 85c4 98bd
00000380: b10e 4e3e aceb 07be 1e01 113e 367c cc3d
00000390: 528d 4d3e 153c 02be a616 303e 2e28 0fbe
000003a0: b3ae 01be 4838 e3bd b1c2 04be 6664 f4bd
000003b0: e7e1 f8bd e533 643e 17ed e23d b899 fc3d
000003c0: 1a3a 63bc 7b58 43be 3f58 a2bd 158e 843d
000003d0: f9f3 103e e365 c5bd 9abe 0c3e 72ce cbbd
000003e0: 8c67 dfbc 1875 0d3e 1492 26bc 19bf 483e
000003f0: 98d4 793e 8c60 813e 8bc2 873d a197 f13d
-0.10161074 -0.17754112 0.14693424 -0.14710543 -0.03374877 -0.06595412 -0.141662 0.17253663
0.07180902 0.08767334 0.043373752 -0.051030397 0.13425364 -0.20039985 0.18168339 0.026780985
-0.19788603 -0.11782938 0.21790849 -0.06623099 0.078127295 -0.15840565 0.17775428 0.07922007
-0.09199822 -0.24651287 -0.23806612 -0.008919197 -0.181592 0.127595 -0.07766863 -0.21065992
0.16031168 -0.07902719 0.15426776 0.17784506 -0.11316201 -0.07468763 -0.15030673 -0.10871878
-0.11605323 0.016646024 -0.11503087 -0.00927178 -0.07057687 -0.10646097 -0.08129075 -0.06519181
-0.004706546 0.07278199 -0.13222812 0.064055264 -0.22252257 -0.11509931 0.1179901 -0.14899647
0.18249518 -0.011423831 0.14299269 -0.060003165 0.16364701 0.05114981 -0.10427731 -0.07088658
-0.14235818 -0.015806714 0.034468476 -0.033997364 0.07583548 0.14574836 -0.2006531 0.088452004
-0.16869634 0.09497438 -0.118466265 0.14782414 -0.1087872 0.097185455 0.0024885396 -0.04125498
-0.08310901 -0.17523468 -0.016546769 0.036764327 0.07815875 0.15086602 -0.12867917 -0.057878084
-0.09888006 -0.19871001 -0.09840454 0.18114612 0.07359418 0.16056037 0.14561251 0.13138045
-0.12275911 -0.25259635 -0.17780328 -0.26894388 -0.0041436167 0.016209077 0.10699275 -0.019903649
0.19665815 -0.13240263 0.15075272 -0.11556073 0.1265972 -0.08749316 -0.06680873 -0.0007649457
0.08747477 0.10438665 -0.0847577 0.18878189 0.2066419 -0.09994092 -0.00834243 0.22725858
0.17629045 -0.061120313 0.05757157 -0.03962863 -0.16516386 0.08924524 0.1391899 0.041002825
0.17898366 -0.024496118 -0.12188996 -0.16922311 -0.11698953 0.06285286 0.09769411 -0.1796339
0.07868605 -0.13269047 0.11185651 0.18922788 0.02753999 -0.019017354 0.15715061 0.011186871
-0.06427517 -0.19243063 -0.0010422611 -0.07486119 -0.034781102 -0.18288992 -0.0036902484 -0.2433453
0.2031553 -0.14955972 -0.13060531 0.21934855 0.17601505 0.022670783 0.020337893 0.13467804
0.13120508 0.10795075 0.03064626 0.063187845 -0.047138635 0.017647145 0.018904848 -0.07888613
0.033184547 -0.213451 -0.009239252 0.123596616 0.061003417 0.18232347 -0.02027684 -0.12731624
0.2566761 0.03226791 0.07128607 0.07995792 0.08390807 0.09189614 0.21819708 0.10397849
0.20009732 -0.03827827 -0.07727056 0.15754707 0.16911153 0.03418458 0.012306201 0.087012
-0.11800915 0.12034111 0.15438406 0.17702566 -0.08589189 -0.1612625 0.027925165 0.024352513
-0.18863341 0.06492414 -0.192783 -0.12847337 -0.06727861 -0.10972699 -0.06038225 0.11421121
-0.1540277 -0.009285715 0.1334189 0.076030634 -0.18064457 0.16546519 -0.06979605 -0.096633375
0.17868353 0.1354172 -0.24365538 -0.22902966 0.030611886 -0.030303854 -0.12396035 -0.07459358
0.20122792 -0.13273495 0.14160582 0.09984629 0.2007344 -0.12718232 0.1719614 -0.13980171
-0.12664299 -0.11094719 -0.12964894 -0.11933212 -0.121524625 0.22285421 0.110803775 0.12334007
-0.013868833 -0.19076721 -0.07926988 0.064724125 0.14155568 -0.09638574 0.13744584 -0.09951486
-0.027271055 0.13814199 -0.010166664 0.19604148 0.24397504 0.25268972 0.06628903 0.11796499

rnn.bias_ih_l1 f4 [72]
00000000: 4780 a43d 693c cfbc 656b a5bd 74ea 603e
00000010: a2cb c03d 910c 8cbe 2ff5 113d cf5e 873d
00000020: 7118 e23d 1068 aebd b3db 953e 5353 50bd
00000030: 7217 393d 8428 98bd 864f 153e 9f8b ba3d
00000040: 60a9 8bbd e1f0 d0bd 2f8e 413d c852 d4bc
00000050: 74a4 75bd 157e 803e e10e 633e 5ee2 003d
00000060: 8c28 85be 977d 27be a9dd 74be fb3d 61be
00000070: 61d4 99bc 48c2 8dbe 301b 0dbe 3798 a1be
00000080: f370 8bbe ff10 8cbe 11ca 5dbe 5539 023d
00000090: 3eab 84be 880f c3bd ec47 51be c0ea 8cbe
000000a0: 99e4 86be e7ec 5a3d 72e5 20be 6df3 cc3c
000000b0: 4930 8abd e849 b1bd c9d1 99be 5c3c cabd
000000c0: 1b21 e1bd cccc 6cbe 2238 3bbe 87de 8cbe
000000d0: ee89 45bd 6c50 f13d f419 8ebe b62b 17be
000000e0: a4d2 7f3e b70b 71be c100 913d 2447 863e
000000f0: 2878 5a3e 799e 113e cfb6 1d3d 0ec2 943e
00000100: 9633 f93d 4e74 b73d 2523 4bbe 6463 a43d
00000110: da72 4b3e 1f11 0b3e 6cbf 0abe 2365 643e
0.080322795 -0.02529736 -0.080771245 0.21964437 0.0941384 -0.27353337 0.035634216 0.0660988
0.11039818 -0.08515942 0.2926918 -0.050860714 0.045188375 -0.07429603 0.14581117 0.09108662
-0.06819415 -0.10202194 0.047254737 -0.02591838 -0.059971288 0.25096193 0.22173645 0.03146588
-0.26007497 -0.16356502 -0.23912682 -0.219963 -0.018778028 -0.27687287 -0.13779902 -0.31561443
-0.2723461 -0.27356717 -0.21659113 0.031792957 -0.25911897 -0.09524447 -0.20437592 -0.2752285
-0.2634628 0.053448584 -0.15712526 0.025018418 -0.06747491 -0.086566746 -0.30042866 -0.09874794
-0.109926425 -0.23124999 -0.18283132 -0.27513525 -0.048227243 0.117829174 -0.27754176 -0.14762768
0.24982697 -0.23539625 0.07080222 0.2622615 0.21334898 0.14220609 0.038504418 0.29054302
0.12168042 0.0895773 -0.19837625 0.0802677 0.19868031 0.1358075 -0.13549584 0.22304206

rnn.bias_hh_l1 f4 [72]
00000000: e4fc f03d a8c7 fc3c 436a 0f3e 0fa2 593e
00000010: 38fa 94bd e4b4 053c 4169 16bd 6d30 0c3e
00000020: 7101 803d 569e 7ebe 5d10 e6bc 8c17 15bd
00000030: ca8f 623d 85e3 0abd 8995 693d b247 65bd
00000040: a5ea 053d 6a2d dbbd 65d5 b5bd 6043 1a3e
00000050: a441 bd3d c473 963e 5da9 b73d be13 d6bc
00000060: b40c 97be eae2 03be 241b 2ebe c9f0 19bc
00000070: aa60 7bbe a16c 44be c357 5ebe 389a a3be
00000080: e762 d43b ab04 44be 3488 a5be eca5 23bd
00000090: c90a a2be 5630 efbd 5e96 673d 882d 90be
000000a0: 60ae 87be 89c9 80bc 04c4 42be a071 01be
000000b0: c134 7dbe 9986 06be c6b9 0abe 616e d1bd
000000c0: a535 433d 5f98 50be 1b5d 5cbe 1498 45be
000000d0: f9dd 95be 9124 31bd f433 1fbe ced7 dfbd
000000e0: 49c3 573e e825 32bc bba5 5e3e 9440 87bd
000000f0: 7b20 75bb 08bb e53d 14e5 f73c 861e 663c
00000100: 8eb1 71bd 4629 df3d 1c1e 81bc 2586 a03e
00000110: 0e5d 60bd 8b23 143e 1c95 cbbd 84cd a33e
0.11766985 0.030856922 0.1400538 0.21253227 -0.07274288 0.0081608035 -0.03672147 0.13690348
0.06250275 -0.24865088 -0.028083974 -0.03639941 0.05531291 -0.033908386 0.057027373 -0.055976577
0.032694478 -0.107020214 -0.088785924 0.15064764 0.092410356 0.29385197 0.0896785 -0.02613246
-0.2950188 -0.1287953 -0.17002541 -0.009395787 -0.24548593 -0.19182064 -0.21713166 -0.31953597
0.0064815166 -0.19142406 -0.32330477 -0.039953157 -0.31648853 -0.11679141 0.056539886 -0.28159738
-0.26500225 -0.0157211 -0.19020087 -0.12641001 -0.24727155 -0.13137282 -0.1354743 -0.10226131
0.04765858 -0.20370625 -0.21519892 -0.19296294 -0.29270914 -0.043247763 -0.15547162 -0.10929833
0.21070589 -0.010873295 0.21742909 -0.06604114 -0.0037403393 0.11217314 0.0302606 0.014045363
-0.05900722 0.10896544 -0.015761428 0.31352344 -0.054776244 0.14466684 -0.0994055 0.31992733

rnn.weight_ih_l2 f4 [72, 24]
00000000: 9232 99be 8692 d1bd e673 40be b885 75bd
00000010: ab1b 7c3d a86c 363e 8a84 eabd f2ae 85be
00000020: f446 e0bd 023e 2ebe b4bd 213e f84b a8bc
00000030: 9588 1a3e 394e e23c a123 583e fcb3 0a3e
00000040: fb63 833e cfe8 263e c691 64be 5a1c d2bb
00000050: 2261 303d fdfc ddbc bfcc 2cbe d1e2 71bc
00000060: d9aa 70bc aac3 57be 7832 a6bd 9301 ccbd
00000070: c93d 3a3d f911 563d e8a6 80bd 0e20 7abe
00000080: 12e7 bc3d 663e 083c 6778 ab3d abab 8c3e
00000090: 3075 973e 677c 14bd 6eba 0f3e 3cb5 023e
000000a0: 6bff 8b3e 4ff0 683e b2a9 55be ec59 f63d
000000b0: 39bd e43d d649 92bd 3ff3 73be d3d1 273e
000000c0: 4532 5dbe 15df 8bbe 5b35 18bd 84a0 4abd
000000d0: c6fd 9abc fd3c 933e 3c5a 8ebe 0714 55be
000000e0: 5931 763e 00b8 9fbd 6985 fdbc 5c4c 1f3e
000000f0: 2b78 e53b f227 163e 8a55 203e 311d 803e
00000100: af7b bbbd dbd1 9dbd 3912 173c b20f a7bd
00000110: 6493 b33d 2356 71bd 74cd 8e3c 421d 853e
00000120: 9d49 8cbe 99a4 24be 82ef 10bd cc42 cebd
00000130: cd5a 20be 3ed3 913e 3a7e 92be ef6d 63bd
00000140: fe30 843d cfaa 9e3d 8fa9 503e 5cf6 463e
00000150: e960 5b3e 6b9c eb3d ebd9 8d3e 95a8 0dbd
00000160: cbea 0c3c c976 563d 770b 08bd 21e1 25bd
00000170: 3bd5 883e 065a 863e 8bdc 5cbe 0727 93bd
00000180: 5078 843d 2be1 30be 8a78 14be e2ae 31be
00000190: 8538 cd3d 0b84 8a3d f4fc 21be 378a f8bd
000001a0: afc0 d43c 94ae 55be fa91 1d3e 228a a43d
000001b0: ddc8 0b3d 4681 24bd d434 fe3d 533c 40bc
000001c0: 3c4f 373d 6004 b63d 5a37 8ebe 8a8d 163e
000001d0: f351 3b3e 28ba 113d a70f b2bd cd87 2d3e
000001e0: 2b6f 45bc c55e 9a3e ccdb 863e 3dfb 263e
000001f0: cac6 8c3e 5e31 a5bd 0a0b f83c 5e08 a03d
00000200: 089c bbbb a60a 7a3e 6a68 acbd cb38 19bd
00000210: 7939 99be dd26 15be fd9a 65be 0f44 b0bb
00000220: 8dda 74be 5c4f 9fbd 8095 5d3d 5f9b 48be
00000230: 5ac5 4ebe ffc7 a93d ee14 9e3c 0c8b 57bc
00000240: ff5d 783d 7f22 28be 0edb d23d a09b a03d
00000250: 9247 bfbd 7770 0a3e 5292 abbc 3e6e debd
00000260: 6c89 283e ed4c cc3d 87c9 943d c2c5 523d
00000270: 435b 6b3d 6cd6 773d ffca 76bd c09f 363e
00000280: 1301 753d 3730 533d 80cd e4bd 05aa df3d
00000290: 8034 993e efbe 9a3e aa08 d7bb 8ffd 123e
000002a0: c16f 3e3d 94c3 973d 101d 09be a850 0dbd
000002b0: 7d11 043d 5797 4a3e 2cd0 ad3b 7842 41be
000002c0: f76f 623e c17c a7bd 4da4 8b3e fbad 173e
000002d0: 4753 243e 624e 153e 2f95 0e3e 1745 53bd
000002e0: a2f5 d63d 9ef3 84bd 689d 15be 276a 88bd
000002f0: 4d83 023e eab9 073d 215d 85be 7cde 2d3d
00000300: 9b05 8ebe 9189 3dbd 6061 b83d 294e 48be
00000310: e215 31be 546c 74bc f391 543d 4ab2 cf3b
00000320: ddeb 263d da78 67bb 3851 53bd 6a52 653e
00000330: eef5 eb3c 1b3f 113e edd9 65bd fef5 89bc
00000340: fca0 b1bd 2740 a03d 4ba8 70be 6d07 873e
00000350: 5708 da3d 46d4 8c3e 3263 c2bc 3a22 4cbd
00000360: 7da2 9f3d 7ef1 2b3e 68c3 263e ec6c 98bd
00000370: 58af 043d cff0 2bbd 5b53 883e 9834 6f3e
00000380: 84be 35be 5dd4 133e e20e 97be d43c 96be
00000390: fe87 60bd cae3 833c 9c2a 8d3c 757e 15be
000003a0: 62bd b6bd 5f9b d33c 9590 863d c45b 933d
000003b0: e1a2 94be 4217 ad3c d8b2 8f3c 3516 88bd
000003c0: a527 8fbe d482 87be a5bd 89be b88d c8bd
000003d0: b6e3 3ebe 3068 0e3e df60 22be c062 88be
000003e0: 8373 123d d18a eabd cab4 cbbc 0608 423c
000003f0: 26fb de3c 34d4 923d f826 b33b 4352 9fbd
-0.29921395 -0.10233025 -0.18794212 -0.059941977 0.061549824 0.17814887 -0.11451061 -0.26110035
-0.10951033 -0.17015842 0.15795022 -0.020544037 0.15091164 0.02762519 0.21107341 0.13545221
0.25662217 0.16299747 -0.22321233 -0.006412071 0.043061383 -0.027098173 -0.1687498 -0.01476355
-0.014689171 -0.21070734 -0.08115095 -0.09961238 0.04546908 0.052263234 -0.06281835 -0.2442629
0.09223761 0.008315658 0.08372574 0.27474722 0.29581594 -0.03625145 0.14035961 0.12764448
0.27343306 0.2274792 -0.20865515 0.1202887 0.11168904 -0.07142989 -0.2382326 0.16388635
-0.21601208 -0.27318636 -0.03716026 -0.049469486 -0.018919837 0.28757468 -0.27803218 -0.20808421
0.24042262 -0.07798767 -0.030947404 0.15556473 0.0070028505 0.14663675 0.1565763 0.2502227
-0.0915445 -0.077060424 0.009220653 -0.081572905 0.08768347 -0.058920037 0.017431952 0.25998884
-0.27399912 -0.16078414 -0.035384662 -0.10071334 -0.15659638 0.28481477 -0.28611928 -0.055524763
0.06454657 0.07747423 0.20377181 0.19429916 0.21423687 0.11504444 0.2770532 -0.0345846
0.008600901 0.052359376 -0.03321406 -0.040497903 0.26725182 0.26240557 -0.21568505 -0.07185178
0.0646826 -0.17273395 -0.14499107 -0.17351869 0.10020546 0.067634664 -0.1581915 -0.121357374
0.025970785 -0.20867378 0.15387717 0.08034159 0.034127105 -0.040162347 0.1241242 -0.011733132
0.0447533 0.08887553 -0.27776605 0.1470243 0.1829298 0.035577923 -0.08694392 0.16946335
-0.01205043 0.30150428 0.26339567 0.16306777 0.27495414 -0.08066057 0.030278701 0.07814096
-0.0057253875 0.24418125 -0.08418353 -0.037407678 -0.2992666 -0.14565606 -0.22422405 -0.005379207
-0.23911496 -0.077788085 0.054097652 -0.1959052 -0.20192471 0.08290099 0.01929709 -0.01315571
0.060636517 -0.16419409 0.102956876 0.07842183 -0.09339823 0.13519464 -0.020943794 -0.10860871
0.16458672 0.0997561 0.07265001 0.051458128 0.05746008 0.060507223 -0.060252186 0.17834377
0.059815478 0.051559653 -0.111720085 0.109211005 0.29922867 0.30223796 -0.006562312 0.14354537
0.046493296 0.074103504 -0.13389993 -0.034500748 0.03224324 0.19784294 0.005304357 -0.18873012
0.22113024 -0.08178092 0.2727379 0.14812462 0.16047393 0.14580682 0.13924097 -0.05157956
0.104960695 -0.06491779 -0.14610827 -0.06660872 0.127454 0.033136286 -0.26047614 0.042448506
-0.27738652 -0.04627377 0.09002948 -0.19561066 -0.17293504 -0.014918406 0.051897 0.0063383924
0.04075228 -0.0035319836 -0.051591128 0.2239472 0.028803792 0.14184229 -0.056116033 -0.016840931
-0.086732835 0.07824736 -0.23501699 0.26372853 0.10646122 0.27505702 -0.02372894 -0.04983733
0.07794664 0.1679134 0.16285479 -0.0744265 0.032393783 -0.0419777 0.26626095 0.23359907
-0.17748457 0.14436479 -0.29503542 -0.29343283 -0.054817192 0.01609983 0.017232232 -0.14599021
-0.08922841 0.025830923 0.065705456 0.07195237 -0.29030517 0.021129254 0.017541334 -0.06644861
-0.27959934 -0.26467 -0.269025 -0.09792656 -0.18641552 0.13906932 -0.15857266 -0.2663784
0.03575469 -0.114522584 -0.02486648 0.011842733 0.027219366 0.07169381 0.005467292 -0.07779362

rnn.weight_hh_l2 f4 [72, 24]
00000000: 3cbe d33d ec17 213e f26c 0cbe 4850 3f3e
00000010: a007 e9bd 19eb 623e 0dbe e9bd ecc7 f5bd
00000020: 6350 9e3d 25e9 00be bb6c 0e3e e5de ad3a
00000030: b929 6fbd 3f20 40be d181 30be 3427 b6bc
00000040: 621d e0bc e6c7 383e 4ad9 eebd fb93 253e
00000050: 65f6 95bd 08e2 da3d 3da1 82be dfd6 a63d
00000060: fecd 48bd 1bf7 ba3c 70d7 2fbe 1dd2 423e
00000070: 20ff d8bd 26fa a43d 6891 003d 677e 88bc
00000080: 8594 873c e688 0c3e 10d5 903d 61dc bd3d
00000090: 79b6 8abd 3fa3 0d3e a5a1 3d3e 036f e8bd
000000a0: 6849 dbbd c4bb febc d3e9 8fbc 4f42 53be
000000b0: 0f0a c93d f702 263e 0ef0 ff3d d87f 25be
000000c0: 615a cf3c 763b 47bd 0c1e 573d c12b 16be
000000d0: ceb8 763d ae25 823e 3913 6e3d 2ffa b13d
000000e0: bed0 c53d 8879 08be 144d a0bd 8c4f d53d
000000f0: e4bf 003e 3f22 b5bd 02ec 1abe 4572 d2bd
00000100: 7fef ff3c 229f a93d 5f0d c03d 80a1 59be
00000110: 412b 9fbd 2b11 86bd 022c b23d ab12 d2bd
00000120: 27b9 e83d c217 5d3e 09c4 42bd 1177 083e
00000130: e1cd 23be b131 883d 32c7 093e dee4 583d
00000140: 8ef8 47bd 7ef5 4dbc 629e 11be fd72 253d
00000150: 47e2 473d c308 683e bedd e6bd 4033 15be
00000160: e1e1 cabd 2f16 dbbd 5770 da3d 6d60 2abe
00000170: 8fa3 4d3c 212c 79bd 9f34 8ebc a121 843d
00000180: faeb 283e 45a8 99bc 5e25 38be e889 26be
00000190: ab8c 89bd f3d9 803e 0659 0dbe 1484 e0bd
000001a0: 6da0 1e3e 3ffe d9bc ecf2 0d3e 0b7e f13c
000001b0: e77e 263e 59c6 5abd c405 98bd af38 363e
000001c0: 481b d13c 32b6 bb3d 07d1 913d 708a 823d
000001d0: b2b0 9ebd 1c9b 573e f0d7 c93d 00fb 96bd
000001e0: 335c f33c 28ee 1f3e 1010 283d 8f8d f43d
000001f0: d4cc 553e ffd3 51be 84be 8d3d ed7b b1bd
00000200: aff6 9abd 4387 b33d 7b94 2dbe fc05 51bd
00000210: 6da6 babc af75 5bbe 3bfe 17be 24bd ebbd
00000220: be62 2cbe 2eb6 463e 6d5e 503e d941 633d
00000230: 49d2 f23d 5df4 3bbe c91d 523e 8e53 6b3d
00000240: 6d34 223d b0b2 303e 4471 a63d e9d9 1c3e
00000250: cdf8 42be eb58 f03b 8204 4abd 6be3 54bd
00000260: ad66 bcbd caf1 be3d a8fd 6e3e e0be 263e
00000270: feff d43c ab23 0b3e 00aa 2e3e 0326 37be
00000280: ae9e a93c fbd8 d5bd 426c 43bc f055 52be
00000290: 8413 d6b9 f92f 57bd 3a18 56be f9be d03d
000002a0: 3f39 563e 70d8 533e 997a 17be d3af 60bd
000002b0: 317b e03d 72cb 063e 6c95 273e ea5f 32be
000002c0: bd48 17bd ad90 123e e485 4e3e 7534 dc3d
000002d0: 2542 423e 488e 463e 6531 86bd 8b84 f83d
000002e0: 9e0b 933d 62c9 8bbb 455d d7bb 5f29 60be
000002f0: 21ab ef3d 62a3 92bd f722 bf3d ca6e 3d3e
00000300: 4670 193e d494 5a3e 02fb 12be d3c7 5a3e
00000310: 1d11 5bbe 654e ff3d 705f 683e 112a d43d
00000320: 3869 a6bd 22b0 1c3d c31c d7bd 565c eebd
00000330: 0b1b 09be 2161 9abd 82c2 7abd 049f 5b3d
00000340: 0631 dfbb 2796 fdbd 0e5b 043e 0ef1 6ebe
00000350: e7b2 103c a1cb e33b 596c 03be e6e8 883d
00000360: 4c89 5abe ce4c f73d 8934 063e 49c7 21be
00000370: ab00 b4bc eced 6abe 58d3 8bbd a41f b1bd
00000380: b67c 1c3d a8d3 913c 94f3 be3d a538 d43d
00000390: 7b9f c33d 4e6f 31be 777c d1bc bc3e 9cbd
000003a0: 13b9 be3d bd4c d93c 1ae6 12be 8c5c 343e
000003b0: 4651 f63d 67be 2a3e 4796 063d a641 46bd
000003c0: f0a4 263e ae29 553d cc36 a5bd 3c92 95bd
000003d0: 0b7f 94bd c564 a0bd e0fd 89bd 181e 7d3c
000003e0: 089b 973d e509 123e 86c9 d03d 34f3 00be
000003f0: e71c c2bd b60f ca3a 8a45 17be 76c7 cb3d
0.10339019 0.15731782 -0.13713434 0.18682969 -0.113784075 0.22159995 -0.114132024 -0.12001023
0.07730176 -0.12588938 0.13908665 0.001326528 -0.0583894 -0.18762301 -0.17237021 -0.02223549
-0.02735776 0.18045005 -0.11662538 0.16169731 -0.07322387 0.10687643 -0.2551364 0.08146452
-0.049024574 0.022822907 -0.17172027 0.19025464 -0.10595536 0.080555245 0.03138867 -0.016661836
0.016550312 0.13724098 0.070718884 0.092705496 -0.06773085 0.13831805 0.18518694 -0.11349299
-0.107073605 -0.031095393 -0.01756755 -0.20630763 0.09816372 0.16212068 0.12496959 -0.1616205
0.02531165 -0.04864069 0.05251889 -0.14665128 0.060234837 0.25419372 0.0581238 0.08690297
0.09658955 -0.1332761 -0.078272015 0.10415563 0.125732 -0.088444225 -0.15129092 -0.102757014
0.03124213 0.08282305 0.0937755 -0.21253014 -0.07771922 -0.06546243 0.086998 -0.10257467
0.1136344 0.21591094 -0.047550235 0.1332667 -0.15996505 0.06650103 0.13454893 0.05295264
-0.048821025 -0.012570737 -0.14220574 0.040392864 0.04879978 0.22659592 -0.11272763 -0.14570332
-0.09906364 -0.106975906 0.106659584 -0.16638346 0.012551202 -0.0608331 -0.017359076 0.06451727
0.16496268 -0.018756995 -0.17983004 -0.16263545 -0.067162834 0.25166282 -0.13803491 -0.10962692
0.15490885 -0.026610492 0.13862199 0.029479047 0.16259347 -0.053411815 -0.07422975 0.1779506
0.025525704 0.091656104 0.07119947 0.06374061 -0.07748546 0.21055263 0.0985564 -0.07372093
0.02970705 0.15618193 0.041030943 0.11941063 0.20878917 -0.20491026 0.069211036 -0.08666215
-0.075665824 0.087660335 -0.16951172 -0.051031098 -0.022784436 -0.21431611 -0.14843075 -0.11510685
-0.16834542 0.19405434 0.2034852 0.05548272 0.11856515 -0.18354936 0.20519175 0.05745273
0.03960078 0.17255664 0.081270725 0.15317501 -0.19040222 0.0073348186 -0.049320705 -0.051974695
-0.09199271 0.09323461 0.2333895 0.1628375 0.026000973 0.13587825 0.17057037 -0.17885594
0.020705547 -0.10441776 -0.011927666 -0.20540595 -0.000408318 -0.052535985 -0.20907679 0.10192675
0.20920275 0.20688033 -0.14792861 -0.05485518 0.10960997 0.13163546 0.16365594 -0.17419401
-0.036934603 0.14313002 0.20168263 0.10752193 0.18970545 0.19390213 -0.0655239 0.121346556
0.0717995 -0.00426595 -0.006572398 -0.21890782 0.11702562 -0.07160069 0.09332841 0.18499294
0.14984235 0.21345836 -0.14353564 0.2136529 -0.21393247 0.124661244 0.22692657 0.10359586
-0.08125538 0.03825391 -0.10503533 -0.116387054 -0.13389222 -0.07538057 -0.061220653 0.053618446
-0.006811264 -0.12382155 0.1292536 -0.23334143 0.008831716 0.0069517647 -0.128343 0.06685047
-0.21341437 0.12075196 0.13105978 -0.15798678 -0.021972975 -0.22942322 -0.0682742 -0.08648613
0.03820487 0.01780112 0.093238026 0.103623666 0.09551903 -0.17327616 -0.025572045 -0.07629153
0.09312644 0.02652585 -0.1434559 0.17613429 0.120272204 0.16674195 0.03285816 -0.04840245
0.16273856 0.052041702 -0.08067092 -0.073032826 -0.07250794 -0.0783172 -0.06737876 0.015449069
0.07402617 0.14261587 0.101946875 -0.12592775 -0.09478169 0.0015416059 -0.14772621 0.099501535

rnn.bias_ih_l2 f4 [72]
00000000: ce7f 813e dd87 353e 608a 6e3e 3082 bfbd
00000010: d816 653e 15f6 543d 78ce 6e3d 5852 5f3e
00000020: 9e5f 143d 6f9d 84be 6e3b 553d 8ac8 eebd
00000030: 9b5b 553e f2a3 583c c70e db3d 64f0 133c
00000040: 6cca 103e 4852 023e fdd8 363d e6ec 78be
00000050: e52e 913c 8b98 843e 7f03 57be 91ce 403e
00000060: 9138 f6bd 5857 62be fa0a 92be e82a 85bd
00000070: 2049 07be de4a 70be d1c5 67be 7766 8bbe
00000080: da2f 243d 2acd 7dbe fbfe f8bd a45a 7b3d
00000090: 71b6 3cbd db49 fcbd bbab 89be 44b0 99be
000000a0: 69b1 35be c91c 9cbe a1ae babd 7187 99bc
000000b0: 7d67 a6bd 754d 28be 919c 8bbe b555 113d
000000c0: 58ef 3d3e aed7 483e 57e6 99bd a824 8d3c
000000d0: 733c f4bd 4b96 983e e26b 793e db0d ecbd
000000e0: 4c69 60bd fde5 803e 4689 593e 0335 623e
000000f0: d069 be3d 55f4 063e a596 13be 0157 bbbd
00000100: 2351 4e3e c249 24be 4c7a 85be 6559 17be
00000110: 33da 673e f1c9 323e 0d67 0fbe 3066 fd3c
0.2529282 0.17727609 0.23294973 -0.09351003 0.22371995 0.051992495 0.058302373 0.21808755
0.036224 -0.25901362 0.05205863 -0.116593435 0.20835726 0.013222681 0.10696178 0.009029482
0.14139718 0.127267 0.04464053 -0.2430912 0.017722556 0.2589763 -0.20997427 0.18828799
-0.12022508 -0.22103631 -0.28524 -0.06502324 -0.13211489 -0.2346606 -0.22634055 -0.27226612
0.040084697 -0.24785295 -0.12158009 0.06136574 -0.046072427 -0.12318774 -0.26888832 -0.30017292
-0.17743458 -0.3049071 -0.09115339 -0.018741341 -0.081252076 -0.16435798 -0.27267888 0.035482127
0.18548334 0.19613525 -0.07514637 0.017229393 -0.11925592 0.29802164 0.2435756 -0.1152608
-0.05478792 0.25175467 0.21243772 0.22090535 0.09297526 0.13179143 -0.14412935 -0.09147454
0.20148139 -0.16043761 -0.26069868 -0.14780195 0.2264183 0.17459847 -0.14004155 0.030932516

rnn.bias_hh_l2 f4 [72]
00000000: ff3d 8bbc ed37 d63d 54bf 4b3e e280 ad3d
00000010: 1b72 3b3e 09f9 89be 46ea 563d aa4a 723e
00000020: 48bd 433e 0e03 683d 77c4 0a3e 9b2b 153c
00000030: d85e e03c e95e a0bd 1938 653d 1541 293e
00000040: 9fc0 b23c 1227 7a3e 12a1 79be c811 82be
00000050: a2c3 033e a9fe 90bd 9958 62bd 216b ecbb
00000060: aa03 c8ba 1ecf 07be d9d9 90bd 1290 7dbd
00000070: 96d2 3a3c 0c8e 08be 639d 2ebc 6e16 acbe
00000080: ada3 52be 22ac 11be a682 28be 4152 6fbe
00000090: 70cb 54be 6157 a4bd de81 86be 0098 9abe
000000a0: b599 8dbe 08cc 34be 8b6f 4fbe 57a7 00bd
000000b0: 9e34 e2bc bbbd 2b3b 06c8 54be 569b 6fbe
000000c0: 032b 883e c1b1 813e 4a5b 09be aaad 993e
000000d0: feac 35be 10d3 d0bd 09b4 8f3d 7107 93be
000000e0: 34c2 21be bd8d c3bd fbb1 e63d f3d9 13be
000000f0: 4502 793e b2d3 7f3e 48a9 91bd 4ec3 10be
00000100: 7b4e 523d a466 69be 354f 1e3d 4e89 003d
00000110: dc74 333e b26f 7c3e 83fd 30bc 8bd1 2e3e
-0.016997335 0.10459886 0.19897205 0.08471848 0.18305247 -0.2694781 0.052469514 0.23661295
0.19115174 0.05664354 0.13551508 0.009104635 0.027388975 -0.07830603 0.055961702 0.16528733
0.021820365 0.24428967 -0.2437785 -0.2540419 0.12867597 -0.070798226 -0.055260275 -0.007214919
-0.0015259881 -0.13262603 -0.07072801 -0.061904974 0.011402747 -0.13335437 -0.010657641 -0.33610862
-0.2057025 -0.1422582 -0.16456088 -0.23371221 -0.2078073 -0.08024479 -0.26270956 -0.30194092
-0.27656332 -0.17655957 -0.20257394 -0.031409588 -0.02761298 0.0026205617 -0.20779428 -0.233991
0.26595315 0.25330928 -0.1341373 0.30015308 -0.17741773 -0.10196507 0.07016761 -0.28716615
-0.15796739 -0.09548519 0.11264416 -0.1443861 0.24317272 0.24983099 -0.07112366 -0.14137003
0.051344376 -0.2279306 0.038649756 0.031380944 0.17525047 0.24651983 -0.010802629 0.17072122
