Recovery.pth (torch, 46491 bytes, 14 tensors)

rnn.weight_ih_l0 f4 [72, 24]
000000 a7 56 e1 41 c5 c6 df 41 2b 23 de 41 fa cf df 41
       28.16731 27.972055 27.767172 27.976551
000010 2a ae e0 41 e0 fa df 41 98 83 e0 41 1a 35 e1 41
       28.085041 27.997498 28.064255 28.150928
000020 79 ba de 41 7e b7 df 41 79 b5 df 41 57 70 de 41
       27.841051 27.964596 27.96361 27.804853
000030 5f 7f e0 41 37 d3 df 41 4e fa df 41 1d d8 df 41
       28.062193 27.978132 27.99722 27.980524
000040 a3 6d de 41 e2 74 e1 41 6f d6 df 41 cb 03 e0 41
       27.803534 28.182072 27.979704 28.001852
000050 8a a5 df 41 e2 3d e1 41 45 de de 41 86 14 e0 41
       27.95583 28.155216 27.85853 28.010021
000060 20 b3 df 41 d8 20 de 41 4d 9a e0 41 ea 19 df 41
       27.962463 27.766037 28.075342 27.887653
000070 03 80 df 41 d1 73 de 41 64 93 de 41 0f 4e de 41
       27.937506 27.806551 27.821968 27.788115
000080 33 b9 df 41 db 60 dd 41 d8 1d df 41 dd 8b de 41
       27.96543 27.672293 27.889572 27.818293
000090 82 1f de 41 07 f4 df 41 12 4b df 41 4f 3e e0 41
       27.765385 27.994154 27.911655 28.030424
0000a0 a9 6a de 41 b9 36 de 41 43 f1 e0 41 05 c8 df 41
       27.80208 27.77672 28.117804 27.972666
0000b0 0e 92 dd 41 cc 1a de 41 4a 07 df 41 c1 52 df 41
       27.696316 27.763084 27.87856 27.915407
0000c0 9e 48 de 41 39 63 dd 41 0f c7 dd 41 da 73 dd 41
       27.785458 27.673449 27.722197 27.681568
0000d0 c6 4c dd 41 d8 ef dc 41 00 68 df 41 04 1f df 41
       27.662487 27.617111 27.925781 27.890144
0000e0 42 25 e0 41 35 ac df 41 a4 ca de 41 f3 93 de 41
       28.018192 27.959085 27.848946 27.82224
0000f0 8c 1c de 41 c9 89 e0 41 94 e8 de 41 97 10 dd 41
       27.763939 28.067278 27.863564 27.6331
000100 82 f8 dd 41 a8 d5 de 41 4c f4 de 41 04 d5 dd 41
       27.746342 27.854324 27.869286 27.729012
000110 e9 69 de 41 fc 78 de 41 8c c9 df 41 19 0b de 41
       27.801714 27.809074 27.973412 27.755419
000120 4b 2d e2 c1 ba 22 e1 c1 e6 15 e2 c1 ba 88 e1 c1
       -28.272116 -28.141956 -28.260693 -28.191761
000130 8b f9 e1 c1 59 85 df c1 b4 69 e2 c1 2d 00 e1 c1
       -28.246847 -27.940111 -28.301613 -28.125086
000140 bf 48 e1 c1 2a 8a e0 c1 fc 54 e0 c1 c6 9d e0 c1
       -28.16052 -28.067463 -28.041496 -28.077038
000150 31 22 e0 c1 ff 70 e1 c1 60 84 e1 c1 b2 1d e1 c1
       -28.016695 -28.180174 -28.189636 -28.1395
000160 85 87 e1 c1 66 11 e1 c1 de c9 e1 c1 cd 07 e0 c1
       -28.191172 -28.133495 -28.223568 -28.003809
000170 f3 57 e2 c1 44 4a de c1 9f 20 e1 c1 27 2b e1 c1
       -28.292944 -27.786263 -28.140928 -28.14607
000180 6d e3 d9 c1 47 26 dc c1 68 eb db c1 d8 bf d6 c1
       -27.236048 -27.51869 -27.489944 -26.843674
000190 6e cc da 41 a1 46 db c1 4d 66 db c1 0f 7f dc c1
       27.34982 -27.409487 -27.424952 -27.56204
0001a0 a4 97 d5 41 15 3c d7 c1 92 e4 db 41 49 60 dc c1
       26.699043 -26.904337 27.486607 -27.547014
0001b0 85 af db 41 06 34 dc c1 d6 90 dc c1 3d 0e df c1
       27.460703 -27.525402 -27.57072 -27.881952
0001c0 fa 95 dc c1 f5 15 db 41 9b c1 da c1 3b d5 db 41
       -27.57323 27.385721 -27.344534 27.479116
0001d0 2b a0 da c1 dc ee dc 41 6b 64 dd c1 a7 dd df c1
       -27.328207 27.61663 -27.674032 -27.983229
0001e0 39 42 e3 41 51 15 dd c1 87 3d de c1 47 74 e3 41
       28.407335 -27.635408 -27.780043 28.431776
0001f0 fd ec e4 41 de 33 e2 41 b1 97 e1 41 a0 05 dc 41
       28.615717 28.275326 28.199068 27.502747
000200 35 b6 e0 41 76 c8 e3 41 1f a2 e2 41 3e 6a dd c1
       28.088968 28.472881 28.32916 -27.676876
000210 cd 59 e2 41 f2 d7 e0 c1 2f 10 e1 41 94 99 e2 41
       28.293848 -28.105442 28.132902 28.32499
000220 d8 39 e1 41 df 7e e1 41 4d a1 de c1 3b f7 e0 41
       28.153244 28.186949 -27.82876 28.120718
000230 b8 43 df c1 49 3a e2 41 6b be dd c1 ed a9 e1 41
       -27.908066 28.27846 -27.717978 28.207972
000240 7b c8 de 41 2e 48 e0 41 e0 e7 df 41 a4 94 df 41
       27.84789 28.035244 27.98822 27.947578
000250 55 83 e2 41 3e 2c de 41 97 73 e0 41 b6 7a df 41
       28.314127 27.771603 28.05644 27.934917
000260 01 45 e0 41 0d 85 df 41 fb 03 e0 41 72 7b dd 41
       28.033693 27.939966 28.001944 27.685276
000270 6d 5f e1 41 07 ef dd 41 80 4b e1 41 3b 6b e0 41
       28.171595 27.741713 28.161865 28.052359
000280 8a 07 dd 41 76 7f df 41 43 d0 de 41 94 0b e1 41
       27.628681 27.937237 27.85169 28.130653
000290 0e 09 e0 41 a4 d4 e0 41 23 20 e0 41 58 77 e0 41
       28.004421 28.103828 28.015692 28.058273
0002a0 88 da dd c1 3d d8 db c1 8c 0d dd c1 83 26 de c1
       -27.731705 -27.480585 -27.631615 -27.768805
0002b0 e2 1b e0 c1 58 d0 de c1 a1 8e dd c1 29 28 de c1
       -28.013615 -27.85173 -27.694643 -27.76961
0002c0 6a 71 dd c1 0c c0 de c1 9e ec e0 c1 56 4f dd c1
       -27.680378 -27.843773 -28.115536 -27.663738
0002d0 85 b8 e0 c1 bf 02 de c1 62 d4 de c1 00 46 dd c1
       -28.090097 -27.75134 -27.853703 -27.65918
0002e0 4d b2 de c1 03 9a df c1 33 65 dc c1 49 11 df c1
       -27.83706 -27.950201 -27.549414 -27.88344
0002f0 72 fe dc c1 94 96 e0 c1 14 2f dd c1 86 f0 dd c1
       -27.62424 -28.073524 -27.647987 -27.742443
000300 39 73 de 41 98 81 dd 41 14 a0 de 41 f9 45 df 41
       27.806261 27.688278 27.828163 27.909166
000310 b7 74 e0 41 86 6e e0 41 7f a1 dd 41 5a 97 de 41
       28.05699 28.053967 27.703856 27.823902
000320 25 76 de 41 6f 8a e0 41 0a ac df 41 a3 23 df 41
       27.807688 28.067595 27.959003 27.8924
000330 f2 53 de 41 99 50 e0 41 7a c9 df 41 7c c4 dd 41
       27.790989 28.039354 27.973377 27.72094
000340 e7 46 e0 41 75 4c e0 41 a7 9a de 41 56 a1 de 41
       28.03462 28.037333 27.825514 27.828777
000350 20 83 de 41 be 0f df 41 48 24 df 41 93 28 de 41
       27.814026 27.882687 27.892715 27.769812
000360 04 3e e0 c1 c7 84 db c1 44 31 e0 c1 8c 89 df c1
       -28.030281 -27.439833 -28.024055 -27.942162
000370 40 a0 d5 41 1f 00 e0 c1 bd 32 e1 c1 58 94 e0 c1
       26.703247 -28.00006 -28.149775 -28.072433
000380 4a 05 e0 41 c4 3d e2 c1 a8 90 de 41 db 2e e1 c1
       28.002583 -28.280159 27.820633 -28.147879
000390 58 15 e0 41 af 58 e2 c1 5b d6 e1 c1 d9 1f dd 41
       28.010422 -28.293303 -28.229666 27.64055
0003a0 c6 f8 de 41 63 a2 dd 41 94 fb e0 c1 8d 2e e0 41
       27.871471 27.70429 -28.12284 28.02273
0003b0 7b 13 e1 c1 0b 85 df 41 94 34 e1 c1 28 0d dd 41
       -28.134512 27.939962 -28.150673 27.631424
0003c0 f2 bb e0 c1 7c ca e1 c1 0a e9 e0 c1 3a e3 e0 c1
       -28.09177 -28.22387 -28.113789 -28.11095
0003d0 6d 2e e2 c1 9c cd e1 c1 35 6e e0 c1 02 98 df c1
       -28.272669 -28.225395 -28.053812 -27.949223
0003e0 f6 a7 e0 c1 85 9d e0 c1 7c 46 df c1 a3 16 e0 c1
       -28.082012 -28.076914 -27.909416 -28.011053
0003f0 f5 57 de c1 89 5c e1 c1 f1 c6 e0 c1 6c 09 e2 c1
       -27.792948 -28.170183 -28.09714 -28.2546

rnn.weight_hh_l0 f4 [72, 24]
000000 2f d2 de 41 34 09 e0 c1 7a 2a de 41 56 42 df c1
       27.852629 -28.004494 27.77074 -27.90739
000010 3c 57 df c1 77 5a df c1 ee 3c e1 c1 e8 ff de c1
       -27.917595 -27.919172 -28.15475 -27.874954
000020 d3 51 df c1 7f cc e0 c1 30 60 e0 c1 d3 8a e0 c1
       -27.914953 -28.099852 -28.046967 -28.067785
000030 74 30 df 41 a1 8f de c1 c8 33 e1 c1 0b e6 df c1
       27.898659 -27.820131 -28.150284 -27.987326
000040 4b 19 e1 c1 94 31 e1 c1 92 9e de 41 74 61 e1 41
       -28.13735 -28.149208 27.827427 28.172585
000050 c8 fb de c1 d7 60 de c1 66 1b e1 41 f4 49 e0 41
       -27.87294 -27.797285 28.138378 28.03611
000060 4e 5a e2 c1 b4 7f dd c1 16 c3 e1 41 eb 9d df c1
       -28.294094 -27.687355 28.220257 -27.952108
000070 14 7b e2 41 1c 2a e0 c1 b8 e7 df c1 a8 56 e0 c1
       28.310097 -28.020561 -27.988144 -28.042313
000080 ce 84 de c1 34 62 e0 c1 bd 7b de c1 e1 d3 e0 41
       -27.814846 -28.04795 -27.81042 28.103456
000090 b0 c7 e0 41 b4 aa e0 41 e9 0d df c1 99 ec df c1
       28.097504 28.083351 -27.881792 -27.990526
0000a0 86 b0 de c1 88 e4 df c1 e5 07 e0 41 2b e0 df c1
       -27.836193 -27.986588 28.003855 -27.984457
0000b0 15 bf dd c1 54 b4 e0 c1 1e 54 e1 c1 71 8b df 41
       -27.718302 -28.08805 -28.166073 27.943087
0000c0 57 08 de 41 bd 0e df c1 f5 55 dc c1 4f b4 de c1
       27.754072 -27.882196 -27.541971 -27.838041
0000d0 79 34 df c1 15 79 de c1 cf 4a e0 c1 9f 6c de c1
       -27.900621 -27.809122 -28.036528 -27.803038
0000e0 f1 7f df c1 b9 7d e1 c1 6a 7a df c1 45 27 dd c1
       -27.937471 -28.186388 -27.934772 -27.644175
0000f0 24 75 dd 41 55 27 de c1 69 0e df c1 0d b7 de c1
       27.682198 -27.769205 -27.882036 -27.83938
000100 e4 54 df c1 a3 a6 de c1 7c b2 df 41 98 5e dd 41
       -27.91645 -27.831366 27.96215 27.671188
000110 77 36 df c1 d0 8f dd c1 9c 92 e0 c1 9f ac e1 41
       -27.901594 -27.69522 -28.071587 28.209288
000120 10 4d df c1 c5 e0 e0 41 67 11 df 41 bd 8f df c1
       -27.912628 28.10975 27.883497 -27.945185
000130 71 57 e1 41 5c ba e1 41 8c 06 df c1 28 6e e0 41
       28.167696 28.215996 -27.878197 28.053787
000140 ae 69 df 41 2f 71 df c1 e5 8d e1 41 da d1 de 41
       27.926601 -27.930265 28.194284 27.852467
000150 cc be df c1 1d cd e0 41 dd 4c df 41 9b 8a e0 c1
       -27.968163 28.100153 27.91253 -28.067678
000160 5b c9 e1 41 54 c0 df c1 17 bb e1 c1 16 87 e0 c1
       28.223318 -27.96891 -28.216352 -28.06596
000170 ce 63 df c1 84 8f e1 41 5e 89 e0 c1 97 50 e1 41
       -27.923733 28.195076 -28.067074 28.16435
000180 09 dc dc c1 e5 f9 dd 41 f2 76 d4 41 95 2b c9 c1
       -27.607439 27.747019 26.558079 -25.14628
000190 f6 5c df 41 0f ca d3 41 fe 8f d9 c1 b1 14 de 41
       27.920391 26.473661 -27.195309 27.760103
0001a0 5b 62 db 41 29 53 d7 c1 3c d7 dc 41 fa 05 dd 41
       27.423025 -26.915606 27.605095 27.627918
0001b0 eb 10 dd c1 7e 0a dc 41 31 fd dc 41 58 75 ca c1
       -27.63326 27.505123 27.623629 -25.307297
0001c0 c0 80 de 41 c8 a7 d2 c1 db f8 87 41 41 e7 da c1
       27.812866 -26.331924 16.996511 -27.362917
0001d0 79 c5 c5 c1 ce b1 dc 41 78 90 db c1 7a 69 d2 41
       -24.721422 27.586819 -27.445541 26.301502
0001e0 2d c1 dd c1 56 8f 1e 41 51 f5 dd 41 c6 24 e1 c1
       -27.719324 9.909994 27.744783 -28.142956
0001f0 71 d0 df 41 ad 8e df c1 19 f9 dc c1 a1 be e2 c1
       27.976778 -27.944666 -27.62163 -28.34308
000200 f9 47 e1 c1 82 66 de c1 58 63 e1 c1 11 44 e0 41
       -28.160143 -27.800053 -28.173508 28.033236
000210 9f 76 dc c1 d6 c9 de 41 78 f0 e0 c1 d9 c8 df c1
       -27.55792 27.848553 -28.117416 -27.97307
000220 4c ed e2 c1 54 ca df c1 e8 b9 de 41 00 b2 de c1
       -28.365868 -27.973793 27.840775 -27.836914
000230 ba f2 e2 c1 68 fd e1 c1 f3 62 df c1 7d 6b df 41
       -28.368519 -28.248734 -27.923315 27.927485
000240 cb 07 df 41 db 4c df c1 4b f8 df c1 32 b9 e1 c1
       27.878805 -27.912527 -27.996237 -28.215427
000250 de 98 e0 c1 7e e1 e2 c1 fb fd df 41 3c ce e0 c1
       -28.074642 -28.360104 27.999014 -28.1007
000260 7b 7f e0 c1 a1 f2 df 41 c4 6a e0 c1 6b 99 e0 c1
       -28.062246 27.993471 -28.052132 -28.074911
000270 da 2e e0 41 c3 46 df c1 12 65 e0 c1 80 ee e0 c1
       28.022877 -27.909552 -28.04935 -28.116455
000280 b0 77 e1 c1 48 7b e2 c1 90 59 e0 41 40 82 de 41
       -28.183441 -28.310196 28.043732 27.813599
000290 b2 7c e1 c1 1f 8f e0 c1 0f e4 df 41 36 bc de c1
       -28.185886 -28.069883 27.986357 -27.8419
0002a0 4c df e1 41 d5 18 d9 41 78 20 dd c1 d3 f1 e1 41
       28.234032 27.137125 -27.640854 28.243078
0002b0 01 f7 e1 c1 75 e3 e0 41 0d 58 e1 41 c1 06 e0 41
       -28.245607 28.111063 28.167994 28.003298
0002c0 93 a9 e0 41 bb e5 e1 41 d7 06 df 41 2e fb e2 c1
       28.0828 28.237173 27.87834 -28.372646
0002d0 4d 84 dc c1 66 75 c3 c1 de 98 dd 41 04 0f e0 41
       -27.5646 -24.432323 27.699642 28.007332
0002e0 03 a6 de 41 bd 86 e1 41 76 1e e2 c1 14 f4 df 41
       27.83106 28.19079 -28.264874 27.994179
0002f0 19 cf df 41 cf eb dd 41 f7 aa e1 41 f9 0b e1 c1
       27.976122 27.74014 28.208479 -28.130846
000300 87 80 df 41 96 a6 df c1 9d ba e1 41 8b 7c df c1
       27.937757 -27.95634 28.21612 -27.935812
000310 cd 4b de c1 ae 95 e1 c1 29 ad df c1 e0 8e e0 c1
       -27.787012 -28.198086 -27.95955 -28.069763
000320 2b 63 e0 c1 18 be de c1 c1 52 de c1 b6 61 df c1
       -28.048422 -27.84282 -27.790407 -27.92271
000330 91 07 df 41 6e c5 dd c1 d8 3e e0 c1 19 40 e0 c1
       27.878695 -27.721401 -28.030685 -28.031298
000340 e1 45 e1 c1 96 1a df c1 a3 af de 41 56 28 df c1
       -28.15912 -27.887981 27.83576 -27.894695
000350 3f 3d df c1 fc d2 dd c1 29 44 e2 c1 a9 a8 e0 41
       -27.904905 -27.72802 -28.283281 28.082354
000360 85 d8 da 41 20 9a da c1 b6 b7 cf c1 f1 c0 e1 41
       27.355722 -27.325256 -25.964703 28.21921
000370 d0 fb db c1 bd 99 df 41 5a 4f de 41 66 58 e2 41
       -27.497955 27.950068 27.788746 28.293163
000380 2c a5 db 41 11 ea d8 41 09 03 e0 41 0a 81 db c1
       27.45565 27.11429 28.001482 -27.438007
000390 df bc dc 41 be a4 d8 c1 91 eb d7 c1 8d 8e e0 41
       27.592222 -27.08044 -26.990023 28.069605
0003a0 27 e3 de 41 e6 50 df 41 c0 3a e1 c1 62 b2 d8 41
       27.860914 27.914501 -28.153687 27.087101
0003b0 61 ff dd 41 ee d4 db c1 f1 09 da 41 07 b1 dc c1
       27.749697 -27.47897 27.254854 -27.58644
0003c0 08 cd e0 c1 47 c1 e0 41 27 fe df 41 9a 90 e1 c1
       -28.100113 28.094374 27.999098 -28.195606
0003d0 d8 23 e1 41 cd 28 df 41 24 8b e1 c1 3f 65 e2 41
       28.142502 27.894922 -28.19294 28.299437
0003e0 10 4c e1 41 b3 b3 e0 c1 83 fe e1 41 58 2a e1 41
       28.16214 -28.087744 28.249273 28.145676
0003f0 a1 b0 e0 c1 8b 62 df 41 56 78 df 41 8b 6a e0 c1
       -28.086245 27.923117 27.933758 -28.052023

rnn.bias_ih_l0 f4 [72]
000000 dc c9 e0 41 e5 d3 de 41 ce 85 e0 41 a5 95 de c1
       28.098564 27.853464 28.065334 -27.823069
000010 51 b8 db 41 b8 09 e1 41 16 b4 e1 41 41 97 df c1
       27.464998 28.129745 28.212933 -27.948854
000020 8d a3 e0 41 67 0d de 41 bc 6e e1 c1 03 ad de 41
       28.079859 27.756544 -28.17907 27.834478
000030 fc 51 e2 c1 87 67 df c1 0e d2 df 41 49 35 e0 c1
       -28.290031 -27.92555 27.977566 -28.026018
000040 f4 5e e1 41 37 18 e1 c1 fe ca e0 c1 96 ae df 41
       28.171364 -28.136824 -28.099117 27.960247
000050 ba dc e2 c1 36 67 e1 41 be 30 e2 c1 69 8f e0 41
       -28.357777 28.175396 -28.2738 28.070024
000060 5e 75 df 41 06 1e e0 41 fe 6d 0e c0 44 d7 e4 c1
       27.932308 28.01466 -2.2254634 -28.60511
000070 67 a6 52 41 2a 50 e4 c1 a3 98 e0 c1 09 cf de c1
       13.165626 -28.539143 -28.07453 -27.851091
000080 06 66 e0 41 3c c6 e3 c1 18 b5 dd 41 92 f3 db 41
       28.049816 -28.471794 27.713425 27.49393
000090 3f c2 9e 41 5e f5 dd 41 dd 6e de 41 24 d9 e2 c1
       19.844847 27.744808 27.804132 -28.356026
0000a0 3a 51 e1 41 69 08 e2 c1 ca 5e e5 c1 be cd d2 bf
       28.164661 -28.254107 -28.671284 -1.6469038
0000b0 a9 e3 c8 41 13 11 dd 41 e1 b2 e1 c1 ad 66 d3 41
       25.111162 27.633337 -28.212343 26.425135
0000c0 63 ed e0 c1 9b 83 e0 41 16 df df c1 5f 85 de 41
       -28.115911 28.06426 -27.983929 27.815123
0000d0 47 aa e0 41 25 18 df 41 84 20 e0 c1 88 aa df 41
       28.083143 27.88679 -28.015877 27.958267
0000e0 8b 7c df 41 b6 8b e1 c1 53 90 de 41 81 7b e0 41
       27.935812 -28.193218 27.82047 28.060305
0000f0 e1 39 df c1 01 89 e0 41 25 bb e0 41 f8 f1 dd 41
       -27.903261 28.066896 28.09138 27.743149
000100 bb 53 e1 41 0a c9 de 41 60 42 df c1 fb 93 e0 c1
       28.165884 27.848164 -27.90741 -28.072256
000110 d4 0f df 41 97 aa e1 41 aa 7b e1 c1 15 bc e0 41
       27.882729 28.208296 -28.185383 28.091837

rnn.bias_hh_l0 f4 [72]
000000 fc 65 e0 41 96 de df 41 7d 58 de 41 a8 b9 df c1
       28.049797 27.983685 27.793207 -27.965652
000010 e2 d7 db 41 f0 aa e2 41 3c ba e0 41 d5 10 de c1
       27.480412 28.333466 28.090935 -27.758219
000020 10 c3 df 41 38 e7 dd 41 b1 3a e0 c1 c1 d5 df 41
       27.970245 27.7379 -28.028658 27.979372
000030 db 1c e1 c1 3e 43 e2 c1 d9 e5 df 41 8f 56 df c1
       -28.13909 -28.282833 27.98723 -27.917265
000040 6d 36 de 41 68 cb df c1 fa 7c df c1 c1 0c df 41
       27.776575 -27.97432 -27.936024 27.881227
000050 7b 90 e2 c1 9f e7 de 41 d3 dc e1 c1 db df de 41
       -28.320547 27.863096 -28.232824 27.859304
000060 dd 1e dd 41 ea 43 e0 41 0b c1 fb bf 86 56 e3 c1
       27.64007 28.033161 -1.9668287 -28.417248
000070 d6 a5 4d 41 38 92 e3 c1 11 8c de c1 9a 67 de c1
       12.852987 -28.446396 -27.818392 -27.800587
000080 5c 26 e2 41 ff 93 e2 c1 da b0 df 41 54 ca dc 41
       28.26873 -28.322264 27.961353 27.598793
000090 75 d2 9e 41 f5 e4 dd 41 c9 e6 df 41 bb 8a e4 c1
       19.852762 27.736795 27.987688 -28.56774
0000a0 5a ad e1 41 f9 de e1 c1 47 8e e5 c1 24 f3 d1 bf
       28.209644 -28.233873 -28.694471 -1.6402326
0000b0 49 ad c9 41 cf 3e dc 41 b3 bf e1 c1 2b 8b d5 41
       25.209612 27.530668 -28.218603 26.692953
0000c0 28 89 df c1 07 ca df 41 2f 57 e0 c1 e1 a3 df 41
       -27.94197 27.973646 -28.04257 27.955019
0000d0 4a 0d df 41 1d f8 df 41 db c5 e0 c1 63 d4 dd 41
       27.881489 27.99615 -28.09661 27.728704
0000e0 d8 8a df 41 79 af e1 c1 5e 62 de 41 96 ab df 41
       27.942795 -28.21068 27.79803 27.958782
0000f0 30 3f df c1 1d 08 e2 41 ce a6 de 41 a0 8d e0 41
       -27.905853 28.253962 27.831448 28.069153
000100 6f 42 e1 41 1a 06 e2 c1 04 35 e0 c1 0d 41 e0 c1
       28.157438 -28.25298 -28.025887 -28.031763
000110 31 0a e1 41 a7 ce e1 41 c5 13 df c1 f0 c9 e0 41
       28.129976 28.225904 -27.884653 28.098602

rnn.weight_ih_l1 f4 [72, 24]
000000 e9 3a de 41 00 0a df c1 18 25 dd c1 f5 7f dd c1
       27.778765 -27.879883 -27.643112 -27.687479
000010 fb 61 de c1 0d 60 dd c1 a2 83 e0 41 c0 ca de c1
       -27.797842 -27.6719 28.064274 -27.848999
000020 26 03 e0 c1 b8 94 df 41 9b 91 dd c1 49 5b de c1
       -28.001537 27.947617 -27.696096 -27.794573
000030 67 d7 dd 41 56 4f dd c1 38 32 dd c1 cf 5c dd c1
       27.730177 -27.663738 -27.64952 -27.670317
000040 d1 7c df c1 a2 27 e1 41 ec 1f db 41 6c 47 de 41
       -27.935946 28.144352 27.390587 27.784874
000050 90 73 d7 c1 c5 df df c1 51 a4 de 41 f0 50 e1 c1
       -26.931427 -27.984262 27.830233 -28.16452
000060 0d 59 e1 c1 72 2b df 41 85 10 e1 41 35 58 df 41
       -28.168482 27.896214 28.133066 27.91807
000070 4f dd e1 41 c5 21 df 41 28 38 e1 c1 86 c8 de 41
       28.23306 27.891489 -28.15242 27.847912
000080 aa bc df 41 ff fe e1 c1 d1 00 e1 41 8c 4e e2 41
       27.967121 -28.24951 28.125399 28.288353
000090 72 31 e0 c1 8e d5 e0 41 e4 8a e1 41 31 06 e3 c1
       -28.024143 28.104275 28.192818 -28.378023
0000a0 cd 72 e0 41 3d 55 e3 c1 7b cc dc c1 cd 76 e1 c1
       28.056055 -28.41662 -27.599844 -28.183008
0000b0 0c 67 e5 c1 ff 64 e1 41 f7 a8 e0 c1 81 84 e0 41
       -28.675316 28.174314 -28.082502 28.0647
0000c0 d7 79 de 41 0b 15 e0 c1 e5 3d e5 c1 df da e3 41
       27.809492 -28.010275 -28.655222 28.48187
0000d0 f8 f2 de c1 01 e9 de c1 c2 e5 dd 41 5b ba df c1
       -27.868637 -27.863771 27.737186 -27.965994
0000e0 88 9f df c1 70 42 df 41 be 5e e0 c1 da ae df c1
       -27.952896 27.90744 -28.04626 -27.960377
0000f0 58 58 e0 41 f0 95 e0 c1 f3 3e e0 c1 c5 a0 e3 41
       28.043137 -28.073212 -28.030737 28.4535
000100 01 eb e0 c1 01 b9 e3 41 61 f3 dc 41 e9 c4 e1 41
       -28.114748 28.465334 27.618837 28.221148
000110 0a f3 dc 41 a0 6b de c1 3d 1f e0 41 be dc dc c1
       27.618671 -27.802551 28.015253 -27.607784
000120 57 62 e0 41 be cb e0 c1 2f b3 df 41 8a 75 e1 c1
       28.048018 -28.099483 27.962492 -28.182392
000130 84 93 de c1 62 0d df c1 11 16 e1 c1 9d 59 de c1
       -27.82203 -27.881535 -28.135775 -27.793756
000140 75 c1 de c1 07 35 e2 c1 61 f5 e0 c1 bf 2d df c1
       -27.844461 -28.275892 -28.119814 -27.897337
000150 f5 59 e0 41 dd 6c e0 c1 7c d6 de c1 3f 10 e1 c1
       28.043924 -28.053156 -27.854729 -28.132933
000160 dc de df c1 ac b0 df c1 c0 52 e0 41 59 87 e1 c1
       -27.983818 -27.961266 28.040405 -28.191088
000170 c5 6f e0 c1 46 ad dd c1 df e7 e2 c1 fc 8c df 41
       -28.054575 -27.709606 -28.363218 27.94384
000180 95 83 dc 41 cb 17 de c1 cf ee e1 41 8f 12 df c1
       27.564249 -27.761618 28.241606 -27.884062
000190 f1 fb de c1 82 4d df c1 e6 72 df c1 51 1a e0 c1
       -27.873018 -27.912846 -27.931103 -28.01285
0001a0 67 59 e0 c1 73 36 e0 c1 80 c8 df c1 42 06 dd c1
       -28.043653 -28.026587 -27.9729 -27.628056
0001b0 4e c5 dd 41 a1 e8 dc c1 9c fe e0 c1 cf f2 e0 c1
       27.72134 -27.613588 -28.124321 -28.118559
0001c0 b6 22 de c1 03 34 df c1 8a bf e0 41 cc 2f e3 c1
       -27.766949 -27.900396 28.093525 -28.398338
0001d0 ce 53 df c1 e7 27 dc c1 2d e9 e2 c1 e3 97 e0 41
       -27.91592 -27.519484 -28.363855 28.074163
0001e0 1f 41 dd 41 97 0f de c1 50 52 dd 41 92 e7 de c1
       27.656797 -27.757612 27.665192 -27.863071
0001f0 c8 98 de c1 42 55 df c1 5a af e0 c1 11 ad de c1
       -27.8246 -27.91663 -28.08562 -27.834505
000200 67 c3 dd c1 13 b8 dd c1 d5 49 df c1 66 9d da c1
       -27.720411 -27.71488 -27.91105 -27.326855
000210 e5 93 de 41 b3 7e dd c1 7c 7a dd c1 86 ee de c1
       27.822214 -27.686865 -27.684807 -27.866467
000220 17 ca e0 c1 ab 26 de c1 a0 25 e1 41 da 99 de c1
       -28.098677 -27.76888 28.143372 -27.825123
000230 f4 eb e0 c1 68 ad dd c1 00 d4 e0 c1 b4 bc e0 41
       -28.115211 -27.709671 -28.103516 28.09214
000240 4e fc dd c1 e8 ae de 41 ed d7 de c1 92 4d de 41
       -27.748196 27.835403 -27.855433 27.787876
000250 c0 2b e0 41 af 94 df 41 02 e4 df 41 32 32 df 41
       28.021362 27.9476 27.986332 27.89951
000260 5e 6d de 41 a9 e4 de 41 22 07 e0 41 a5 8e de c1
       27.803402 27.86165 28.003483 -27.81965
000270 82 bf df c1 f9 6e e1 41 f0 61 de 41 4e 72 de 41
       -27.96851 28.179186 27.797821 27.805813
000280 a8 e3 df 41 d6 15 df 41 2c 3e e1 c1 29 26 e1 41
       27.98616 27.885662 -28.155357 28.143633
000290 98 b4 e0 41 b3 70 df 41 6f cd e0 41 84 a6 de c1
       28.08818 27.930029 28.10031 -27.831306
0002a0 aa 71 e2 c1 ee a4 e1 41 b3 09 df 41 92 71 df c1
       -28.3055 28.205532 27.879736 -27.930454
0002b0 4d 19 e3 41 ab 45 df c1 08 73 e1 c1 aa af e2 41
       28.387354 -27.909018 -28.181168 28.335773
0002c0 9e e9 e1 41 d9 ce e1 c1 08 48 e2 41 8c d1 e2 41
       28.23907 -28.226 28.285172 28.352318
0002d0 38 39 e0 c1 c4 5b e0 41 e7 2c e1 41 5b 4c e0 c1
       -28.027939 28.044807 28.146925 -28.037283
0002e0 2a f0 e0 41 8a 0e df c1 f0 e7 df 41 2a 2e e3 c1
       28.117268 -27.8821 27.98825 -28.397541
0002f0 a5 0a e3 c1 74 87 e0 41 e4 88 e1 c1 c1 42 e2 41
       -28.380198 28.06614 -28.191841 28.282595
000300 b9 a1 e8 41 65 3a ea c1 59 7b d3 c1 21 9a e1 41
       29.078966 -29.278513 -26.435228 28.200258
000310 17 22 f0 c1 82 56 df 41 a2 8d e0 41 96 29 de 41
       -30.016645 27.91724 28.069157 27.770306
000320 49 96 da 41 1d 2c de 41 70 c8 dd 41 22 37 e9 c1
       27.323381 27.77154 27.72287 -29.15192
000330 35 96 bd c1 b1 01 f1 c1 0d a9 db 41 f8 af df 41
       -23.698343 -30.125826 27.457544 27.960922
000340 1b 41 df 41 3b 7c e2 41 b6 8c e1 c1 23 23 e2 41
       27.90679 28.31066 -28.193707 28.267157
000350 16 3a e1 41 c7 88 f1 c1 75 14 e2 41 39 55 e4 c1
       28.153362 -30.191786 28.259989 -28.541613
000360 8d ea de c1 b7 e1 dd 41 1f f8 d7 41 b8 a3 dc c1
       -27.864527 27.735212 26.996153 -27.57994
000370 c8 e9 df 41 e6 36 dd c1 36 14 e0 c1 98 da da c1
       27.989151 -27.651806 -28.009869 -27.356735
000380 04 86 9f c1 10 d9 dd c1 00 c8 da c1 f6 50 df 41
       -19.940437 -27.730988 -27.347656 27.914532
000390 7d 8f de c1 1e f2 df 41 da c2 db 41 b3 b7 d9 c1
       -27.820063 27.993221 27.470142 -27.214697
0003a0 7b ad da c1 00 96 da c1 00 96 dc 41 6c 4f dd c1
       -27.334707 -27.323242 27.573242 -27.66378
0003b0 2d 17 db c1 af bf da 41 05 cd de c1 4b 12 dd 41
       -27.386316 27.343596 -27.850107 27.633932
0003c0 1b 13 e0 c1 6e 0f e2 41 68 c6 de 41 02 72 df 41
       -28.009329 28.257534 27.846878 27.930668
0003d0 2d 5a e2 41 ab 0d df 41 41 4a e2 c1 6b b6 df 41
       28.294031 27.881674 -28.286257 27.964071
0003e0 bf de df 41 af 0c df c1 7a 62 e0 41 5e f7 df 41
       27.983763 -27.881193 28.048084 27.995785
0003f0 ed 55 e2 c1 79 5e e0 41 7e 7f df 41 79 36 e1 c1
       -28.291956 28.04613 27.937252 -28.151598

rnn.weight_hh_l1 f4 [72, 24]
000000 63 ac e0 41 7d fa db 41 81 be df c1 c8 f0 df c1
       28.084173 27.497309 -27.96802 -27.992569
000010 8e 7c de c1 65 4f de c1 1a e9 dc c1 bf 76 dd 41
       -27.810818 -27.788767 -27.61382 27.682981
000020 4f 9a de c1 4e 29 dd 41 13 3c df 41 30 98 dd c1
       -27.825346 27.645168 27.904333 -27.69931
000030 4a 38 dd c1 73 5d de 41 b9 ca e0 c1 eb 82 e0 c1
       -27.652485 27.79563 -28.098986 -28.063925
000040 1b c7 e1 41 55 14 dd c1 11 2d de c1 93 d2 de 41
       28.22222 -27.634928 -27.772005 27.85282
000050 9b 77 e0 c1 91 98 e1 41 cf 09 e0 41 d4 6b df c1
       -28.058401 28.199495 28.00479 -27.92765
000060 98 c9 e0 c1 00 c8 de c1 1f 11 e0 41 1d 58 e1 41
       -28.098434 -27.847656 28.00836 28.168024
000070 7f f8 e0 41 bf 45 e0 41 a2 c8 df 41 87 f1 dd c1
       28.121336 28.034056 27.972965 -27.742933
000080 8d 48 e1 41 bf 37 e0 c1 36 cd df c1 4c 56 e0 41
       28.160425 -28.02722 -27.9752 28.042137
000090 13 f6 e1 41 44 44 df c1 38 f4 e3 41 da 32 e1 41
       28.245153 -27.908333 28.494247 28.14983
0000a0 fd dc e2 c1 5e 19 e0 41 28 49 de 41 2a 78 de c1
       -28.357904 28.012386 27.78572 -27.808674
0000b0 0f 07 e1 41 dc da e1 c1 19 af e1 c1 9e 20 df 41
       28.128447 -28.231865 -28.210497 27.890926
0000c0 10 b1 de 41 1a f6 e0 41 e0 75 df c1 0a 25 e0 c1
       27.836456 28.120167 -27.932556 -28.018085
0000d0 52 ee e0 c1 4c 45 de c1 fa 62 e0 c1 83 e4 e0 c1
       -28.116367 -27.783836 -28.048328 -28.111578
0000e0 8e 0b e0 c1 e2 d2 e0 41 c2 c4 e0 41 f9 e7 e1 c1
       -28.005642 28.10297 28.096073 -28.238268
0000f0 71 06 e0 c1 a5 c4 df 41 4b 33 e0 c1 87 28 e0 c1
       -28.003145 27.971018 -28.025045 -28.019789
000100 05 42 dd 41 c2 00 e0 c1 fb 01 e1 c1 a7 4b e2 41
       27.657236 -28.00037 -28.125967 28.28694
000110 6d e1 df c1 16 62 dd c1 9b 87 de 41 7a e9 de c1
       -27.985071 -27.672894 27.816214 -27.864002
000120 46 6a df c1 54 a2 e0 41 40 2c e0 c1 fb b2 e0 c1
       -27.926891 28.079262 -28.021606 -28.087393
000130 ea 13 e0 c1 43 51 df c1 ac 76 de c1 e8 00 df 41
       -28.009724 -27.914679 -27.807945 27.875443
000140 42 a1 e1 c1 b8 1b de 41 9f 36 df c1 d4 98 df c1
       -28.20374 27.763535 -27.90167 -27.949623
000150 0e 71 de c1 91 5a df c1 78 7a de 41 9e 9a e0 c1
       -27.805202 -27.919222 27.8098 -28.075497
000160 c4 0f e2 41 41 90 e1 c1 a5 bb df c1 d2 c5 de 41
       28.257698 -28.195436 -27.966623 27.846592
000170 ad c0 df 41 57 e1 df 41 0d bc e0 41 ce ab de c1
       27.96908 27.98503 28.091822 -27.833889
000180 12 7d e0 c1 0a 8b e0 41 35 7c de c1 21 25 de 41
       -28.06107 28.06789 -27.810648 27.76813
000190 f1 e2 df c1 6b df df c1 38 d3 df c1 f2 db df 41
       -27.985811 -27.98409 -27.978134 27.982395
0001a0 56 a8 df c1 cb fb e1 41 16 2e de c1 ec b0 df c1
       -27.957195 28.247946 -27.772503 -27.961388
0001b0 bd 79 e0 c1 74 e8 dd c1 fb ef e0 41 29 68 de 41
       -28.059443 -27.738503 28.117178 27.80086
0001c0 04 7a e1 41 32 7c e1 c1 e7 be df c1 52 59 e0 41
       28.184578 -28.185642 -27.968214 28.043613
0001d0 be 3a e0 41 35 42 e0 41 21 fc dc c1 ad 95 de c1
       28.028683 28.032328 -27.62311 -27.823084
0001e0 3b 69 de c1 b7 32 de 41 79 43 e0 c1 1a 6f df 41
       -27.801382 27.774763 -28.032946 27.929249
0001f0 d5 b7 de c1 a2 8c df c1 7a 1d de c1 4f fd df 41
       -27.839762 -27.943668 -27.764393 27.998686
000200 5b 28 df c1 4c d9 dd 41 2e 86 df c1 0e 1f e1 c1
       -27.894705 27.731102 -27.940517 -28.140163
000210 37 c7 e0 c1 1c 52 e0 c1 39 10 df 41 d8 e9 a8 c1
       -28.097273 -28.040092 27.882921 -21.114182
000220 4e d8 de 41 77 ef dd c1 6a 06 de c1 e7 04 de 41
       27.855618 -27.741926 -27.753132 27.752394
000230 90 c2 de 41 22 0d de 41 71 31 df c1 d7 fa df c1
       27.845001 27.756413 -27.899141 -27.99748
000240 63 42 de 41 14 7a e1 c1 e8 0e de 41 ee 42 de c1
       27.782415 -28.184608 27.757278 -27.78268
000250 e0 17 de 41 93 ac df 41 24 67 e1 41 18 95 de c1
       27.761658 27.959265 28.175362 -27.8228
000260 14 33 df 41 5e 8a e1 41 40 4e e0 41 9e f8 df 41
       27.89994 28.192562 28.038208 27.996395
000270 93 97 de 41 c7 41 df 41 6a bb df c1 f0 69 e2 c1
       27.82401 27.907118 -27.96651 -28.301727
000280 30 95 e2 c1 79 c0 df 41 f8 1c de 41 6f c0 df c1
       -28.322845 27.96898 27.764145 -27.968962
000290 f3 59 e0 c1 77 04 e0 c1 1a d1 df 41 ef cd df 41
       -28.04392 -28.00218 27.9771 27.975554
0002a0 be 40 e1 c1 b1 16 df 41 4b 12 e0 41 7c d6 e2 41
       -28.156612 27.88608 28.008932 28.354729
0002b0 9b 0d e0 41 66 0a e2 41 bc 74 e3 41 d6 94 e0 41
       28.006643 28.255077 28.432 28.072674
0002c0 33 39 e0 41 54 f0 e1 c1 3a 68 e2 c1 3b a0 e0 c1
       28.02793 -28.242348 -28.300892 -28.078238
0002d0 38 27 e1 41 49 f3 e0 c1 7b 4b e1 41 7a f0 e1 41
       28.14415 -28.118792 28.161856 28.24242
0002e0 4a 23 e1 c1 7e 8a e2 41 b8 16 de c1 09 e4 e0 41
       -28.142231 28.317623 -27.761093 28.111345
0002f0 8a 4a e1 41 c7 c0 df 41 4f 76 e2 c1 7c e9 e1 41
       28.161396 27.96913 -28.307768 28.239006
000300 64 43 de 41 9b b6 df c1 75 33 df 41 0c cf db c1
       27.782906 -27.964163 27.900126 -27.476097
000310 ff a3 de 41 fc 5a e0 c1 eb e2 dd 41 56 e4 dd c1
       27.830076 -28.044426 27.7358 -27.736492
000320 18 0f df 41 1d e5 e0 41 bc 15 e0 41 48 93 df 41
       27.88237 28.111872 28.010612 27.946915
000330 93 94 de c1 c2 0c e1 41 cb 8c de c1 83 fb dd c1
       -27.822546 28.13123 -27.818747 -27.747808
000340 97 2d da 41 6c d4 de 41 74 d5 de 41 3b 59 e0 c1
       27.27226 27.853722 27.854225 -28.04357
000350 9a c5 dd c1 95 f4 dd c1 d4 03 df 41 f1 9b de 41
       -27.721485 -27.744425 27.87687 27.826143
000360 9a b6 dd c1 d3 12 dc 41 0a 28 dc c1 12 59 dd 41
       -27.71416 27.509192 -27.51955 27.668491
000370 8c 4d d4 c1 46 e1 dc 41 4e 77 da c1 bc 77 dc 41
       -26.537865 27.609997 -27.308254 27.558464
000380 22 2f dd c1 ba e4 dd c1 58 86 dc c1 4c 80 de c1
       -27.648014 -27.736683 -27.565598 -27.812645
000390 2a c5 da c1 db 83 df c1 b5 71 df 41 08 a7 de 41
       -27.346272 -27.939383 27.930521 27.831558
0003a0 e6 3c dc c1 75 94 db c1 22 93 dc c1 84 f3 dd 41
       -27.529736 -27.447489 -27.571842 27.743904
0003b0 2b 5e de 41 f5 5a d9 41 1a 2b dd c1 de be dc c1
       27.79598 27.169413 -27.646046 -27.593197
0003c0 23 21 df c1 8a c7 df c1 dc be e1 41 7b d8 e0 41
       -27.89118 -27.972431 28.218193 28.105703
0003d0 9c dc e1 41 cb ee df 41 71 e9 df 41 7d 4d e0 c1
       28.23272 27.991598 27.988985 -28.037836
0003e0 f7 f3 e0 41 6b 31 e0 c1 99 65 e1 c1 4a 85 e0 41
       28.119123 -28.02413 -28.174608 28.065083
0003f0 25 15 e0 41 d9 c4 e0 c1 db d1 dd 41 c6 44 e2 41
       28.010324 -28.096117 27.727468 28.28358

rnn.bias_ih_l1 f4 [72]
000000 0a 6a df 41 af 9e de c1 cc 07 df 41 ed 3d df 41
       27.926777 -27.827482 27.878807 27.905237
000010 02 ba e0 41 a2 f1 dd 41 4f dd df c1 c2 77 e1 c1
       28.090824 27.742985 -27.98306 -28.183475
000020 ba 2a de c1 d6 64 dc 41 21 b4 e0 c1 39 35 df c1
       -27.770863 27.549236 -28.087954 -27.900988
000030 99 75 de c1 85 c5 e0 c1 89 62 e1 41 af 2c df 41
       -27.80742 -28.096445 28.173113 27.896818
000040 ba e3 df 41 d7 4d e1 c1 c9 46 df 41 21 de de 41
       27.986195 -28.163008 27.909563 27.858461
000050 07 96 e0 41 3b 24 de 41 90 4f df 41 7b 2d e0 c1
       28.073256 27.76769 27.913849 -28.022207
000060 17 7f e2 c1 93 7f d5 41 f3 8b e2 c1 97 a5 e0 c1
       -28.312056 26.687292 -28.318335 -28.080854
000070 3c 8f e1 c1 e2 e5 d7 41 a6 f8 ca c1 95 22 ed 40
       -28.194939 26.987247 -25.37141 7.4104714
000080 6f 5a df 41 81 b6 e1 c1 72 0e e1 c1 69 15 e1 c1
       27.919157 -28.214113 -28.132053 -28.135454
000090 2d 7a dd c1 8c 4d e0 c1 2f f3 e2 c1 7d 52 de c1
       -27.684656 -28.037865 -28.368742 -27.790277
0000a0 7b 84 ab c0 99 a1 de 41 3d 16 a3 41 d8 b8 cd 41
       -5.359922 27.828905 20.385859 25.715256
0000b0 c8 9d e3 c1 fa 24 dd c1 43 59 e2 c1 82 ff e0 41
       -28.452042 -27.643055 -28.293585 28.12476
0000c0 b5 8c df c1 65 08 df c1 de ab df 41 f2 3c e1 41
       -27.943705 -27.879099 27.95892 28.154758
0000d0 c2 2b de 41 11 53 df 41 b3 a5 e0 41 58 73 de c1
       27.771366 27.91556 28.080908 -27.80632
0000e0 de 3b e0 c1 2b 4a e0 c1 c3 33 e1 c1 54 a4 e0 41
       -28.029232 -28.036215 -28.150274 28.080238
0000f0 dd c7 de 41 be ff e0 c1 80 13 e2 41 0e d7 e0 41
       27.84759 -28.124874 28.259521 28.105007
000100 c5 77 e0 c1 ca 7a e0 41 85 b2 e0 41 93 8b df c1
       -28.058481 28.059956 28.087168 -27.943151
000110 7a 01 e0 c1 36 72 de c1 bf 81 de c1 ab 90 de 41
       -28.000721 -27.805767 -27.813353 27.820639

rnn.bias_hh_l1 f4 [72]
000000 ed ac de 41 ed 79 e0 c1 40 ec de 41 58 70 df 41
       27.834436 -28.059534 27.865356 27.929855
000010 32 0c df 41 4c 15 de 41 45 4e df c1 5b 84 e0 c1
       27.880955 27.760399 -27.913218 -28.064627
000020 8d ed dd c1 b5 70 dc 41 63 5d df c1 a9 2a e1 c1
       -27.740992 27.555033 -27.920599 -28.14583
000030 2e 52 e0 c1 68 a0 e0 c1 b9 20 e0 41 81 77 de 41
       -28.040127 -28.078323 28.015978 27.808352
000040 fa e7 df 41 e5 c6 df c1 d7 3b e1 41 00 24 e1 41
       27.98827 -27.972116 28.154219 28.142578
000050 9a ae e0 41 37 2b e1 41 af c6 e0 41 b1 eb df c1
       28.085255 28.146101 28.097013 -27.990084
000060 8c 23 e4 c1 34 28 d7 41 61 53 e1 c1 0e e3 e0 c1
       -28.517357 26.89463 -28.165712 -28.110867
000070 fa 6e e1 c1 1e fc d4 41 10 71 cb c1 51 89 e4 40
       -28.179188 26.623104 -25.430206 7.1417623
000080 b7 52 df 41 e9 61 e1 c1 b2 93 e2 c1 80 cf e2 c1
       27.915388 -28.172808 -28.322117 -28.351318
000090 f7 81 df c1 7f 57 e1 c1 c0 ba e1 c1 76 20 df c1
       -27.93846 -28.167723 -28.216187 -27.89085
0000a0 49 84 ab c0 60 87 df 41 62 6d a2 41 f7 39 cd 41
       -5.359898 27.941101 20.30341 25.653303
0000b0 32 70 e3 c1 c1 c5 dd c1 f7 73 e3 c1 54 ee e3 41
       -28.429783 -27.72156 -28.431623 28.491371
0000c0 2a a3 e0 41 7a a4 dd c1 b9 48 e0 41 51 14 e1 41
       28.07967 -27.70531 28.03551 28.13492
0000d0 9d c5 e0 41 7f 81 e0 41 6e 83 e0 41 a3 08 df c1
       28.09649 28.06323 28.064175 -27.879217
0000e0 86 b0 e9 c1 80 cc de c1 d2 81 e1 c1 98 a1 de 41
       -29.211193 -27.849854 -28.188389 27.828903
0000f0 6a 20 dd 41 5d 49 e1 c1 2d 14 df c1 2c e3 e0 41
       27.640827 -28.160822 -27.884851 28.110924
000100 b7 4b e2 c1 ac e4 dd 41 42 07 e0 41 1e 15 de c1
       -28.28697 27.736656 28.003544 -27.760311
000110 12 b1 df c1 31 3c df c1 24 43 e1 c1 95 20 de 41
       -27.96146 -27.90439 -28.157784 27.76591

rnn.weight_ih_l2 f4 [72, 24]
000000 f6 db df c1 ee bc d9 c1 8f 46 ec c1 46 09 df 41
       -27.982403 -27.21725 -29.534452 27.879528
000010 d0 cb de 41 56 2d e0 41 7a 35 de 41 e6 c2 e5 41
       27.849518 28.022137 27.776112 28.720165
000020 ce fb df 41 bb 52 e0 c1 ce aa e0 c1 3d b3 df 41
       27.997952 -28.040396 -28.0834 27.962519
000030 2b da de 41 1b c9 de c1 34 70 e3 41 fd 28 e2 c1
       27.856527 -27.848196 28.429787 -28.270014
000040 61 62 e1 c1 b1 0a de 41 37 ee e8 c1 fb 51 e6 41
       -28.173037 27.75522 -29.116316 28.79003
000050 7f 5c e4 41 77 a8 e9 41 ca 5d e0 c1 f9 33 de 41
       28.545164 29.207258 -28.045795 27.775377
000060 bf e3 df c1 e6 30 e3 41 24 86 dd 41 ba 4d df 41
       -27.986204 28.398876 27.690498 27.912952
000070 e7 d3 e0 41 18 41 df 41 15 04 df 41 3c e2 e3 41
       28.103468 27.906784 27.876993 28.485466
000080 a3 72 e0 41 34 92 e0 c1 92 07 e2 c1 f8 b5 e1 41
       28.055975 -28.071388 -28.253696 28.213852
000090 0e 03 df 41 08 e7 e0 c1 34 0f e2 41 38 ad de 41
       27.876492 -28.112808 28.257423 27.83458
0000a0 16 44 df c1 70 ce de 41 9f 49 df 41 80 63 e4 41
       -27.908245 27.8508 27.910948 28.548584
0000b0 a4 3c e2 41 b5 6a db c1 16 1f e0 c1 4c 09 e1 41
       28.27961 -27.427103 -28.015179 28.12954
0000c0 cc ee e0 c1 90 4e e0 c1 7a aa eb c1 71 41 de 41
       -28.1166 -28.03836 -29.45824 27.781954
0000d0 5c b0 de 41 00 56 df 41 3f e1 de 41 dd b5 e1 41
       27.836113 27.916992 27.859983 28.2138
0000e0 42 42 de 41 b9 34 de c1 76 9e de c1 44 cb e0 41
       27.782352 -27.775743 -27.827374 28.09925
0000f0 0a f9 dd 41 f9 37 e0 c1 63 23 e0 41 be f2 e2 c1
       27.746601 -28.02733 28.017279 -28.368526
000100 dc 31 e1 c1 ac ac df 41 1c 4f db 41 b1 53 e0 41
       -28.149345 27.959312 27.413628 28.040865
000110 34 39 e1 41 fa b3 e3 41 cf 6f e1 c1 99 d9 df 41
       28.152931 28.46288 -28.179594 27.981249
000120 42 99 dd c1 c7 0e df c1 1d ea df 41 e4 e7 e0 41
       -27.699833 -27.882215 27.989313 28.113228
000130 0a e1 df 41 04 46 e2 41 8e 3b e2 41 44 3e e0 c1
       27.984882 28.284187 28.27908 -28.030403
000140 ff 0b e0 41 0b 7e e0 c1 74 79 df c1 36 da e1 41
       28.005857 -28.061544 -27.934303 28.231548
000150 3c 5e e2 41 0c 55 e0 c1 c8 13 de 41 1c 83 e0 41
       28.296013 -28.041527 27.759659 28.064018
000160 8a 29 e0 c1 8d c7 e0 41 24 a0 df 41 0c 49 e2 c1
       -28.020283 28.097437 27.953194 -28.285667
000170 f9 3c dd 41 dc c0 e1 c1 28 82 e2 c1 6e 73 e0 41
       27.654772 -28.21917 -28.313553 28.056362
000180 a7 4f e0 41 65 57 df c1 6b 05 e0 41 0e 12 e0 41
       28.038893 -27.917673 28.002645 28.008816
000190 45 88 df 41 68 24 e1 41 34 bc e2 41 ef bc df c1
       27.941538 28.142776 28.341896 -27.967253
0001a0 8f de e5 41 71 a7 de c1 e0 68 e0 41 93 83 e1 41
       28.733671 -27.831758 28.051208 28.189245
0001b0 60 94 e0 41 48 7a df 41 53 54 e1 c1 65 44 e1 41
       28.072449 27.934708 -28.166174 28.158396
0001c0 fa 57 df c1 e3 77 de 41 13 f7 de 41 58 6a e0 c1
       -27.917957 27.808538 27.870642 -28.051926
0001d0 aa c7 df c1 b2 3a df c1 1e b8 dd c1 f4 d1 e1 41
       -27.972492 -27.90366 -27.714901 28.227516
0001e0 1f 9d e1 c1 b5 93 de 41 3a 16 df c1 4a 23 e3 41
       -28.20172 27.822123 -27.885853 28.392231
0001f0 24 6d df c1 08 da dc c1 ec f9 dd c1 f7 1e df 41
       -27.928291 -27.60646 -27.747032 27.89012
000200 92 85 de c1 60 6b dc 41 b2 29 e1 c1 18 fe e1 c1
       -27.81522 27.55243 -28.145359 -28.24907
000210 4e 02 df c1 69 a9 e3 c1 8b 17 df 41 c8 91 e1 c1
       -27.876125 -28.45772 27.886496 -28.196182
000220 e1 ee db 41 2e 56 e1 c1 a0 61 df c1 08 88 e1 41
       27.49164 -28.16708 -27.922668 28.191422
000230 d6 9e e1 41 4b ed e3 41 fd 52 e2 c1 ae 1f e0 c1
       28.202557 28.490866 -28.290522 -28.015469
000240 83 b3 de 41 d2 af e0 c1 db 7f e0 41 9a 50 df c1
       27.837652 -28.08585 28.06243 -27.914356
000250 5b 60 e0 41 2d 68 e2 41 73 ed e1 41 6a 90 e1 c1
       28.047049 28.300867 28.240942 -28.195515
000260 7b 04 df 41 a9 2e e0 c1 79 94 e0 41 b9 70 e0 41
       27.877188 -28.022783 28.072496 28.05504
000270 12 e7 e1 41 a4 15 df 41 e5 64 e0 c1 41 cd e0 41
       28.237827 27.885567 -28.049265 28.100222
000280 80 b6 dd c1 96 1a e2 41 a0 7c e1 41 97 8c e1 c1
       -27.714111 28.262981 28.185852 -28.193647
000290 76 76 e0 41 ef 6b df c1 67 44 de 41 30 11 e0 41
       28.057842 -27.927702 27.7834 28.008392
0002a0 64 46 de c1 9f 0c e0 41 33 4b e3 c1 2f 2f df 41
       -27.78437 28.006163 -28.411718 27.898039
0002b0 eb d5 dd 41 e9 3b df 41 4b af df 41 17 2b e1 41
       27.729452 27.904253 27.960592 28.14604
0002c0 6a 35 df 41 30 93 de c1 cb 03 de c1 f2 f2 de c1
       27.901081 -27.821869 -27.751852 -27.868626
0002d0 40 8f dc 41 a8 ca e0 c1 76 69 e1 41 14 f6 e4 c1
       27.569946 -28.098953 28.176495 -28.620155
0002e0 6c b5 df c1 68 c6 dd 41 af 15 e4 c1 73 71 df 41
       -27.963585 27.721878 -28.510588 27.930395
0002f0 e1 06 e1 41 88 8c e5 41 b5 ff df c1 b0 18 dd 41
       28.128359 28.693619 -27.999857 27.637054
000300 b5 10 e0 c1 8f 6e e0 41 a8 e8 dd c1 0d c0 e2 41
       -28.008158 28.053984 -27.738602 28.343775
000310 ff f0 dc c1 4b bc da c1 95 91 dd c1 06 b7 de 41
       -27.617674 -27.34194 -27.696085 27.839367
000320 9e 60 dc c1 0d 6d db 41 4d a6 e1 c1 67 0d e1 c1
       -27.547176 27.428247 -28.206202 -28.131544
000330 6c 02 df c1 35 ef e3 c1 82 f9 e0 41 84 0a e4 41
       -27.876183 -28.4918 28.12183 28.505135
000340 bb 17 e1 41 7b d5 de c1 cf 50 de c1 d9 f9 df 41
       28.136587 -27.854239 -27.789457 27.996996
000350 b5 9f df 41 e5 a4 db 41 be 9e e1 c1 62 4e dd c1
       27.952982 27.455515 -28.20251 -27.663273
000360 ea 2e df 41 c8 b0 e1 c1 a2 e0 e1 41 29 e8 de c1
       27.897907 -28.211319 28.234684 -27.86336
000370 16 d9 df 41 2d a8 e0 41 ce 56 e2 41 52 d6 e0 c1
       27.980999 28.082117 28.292385 -28.104649
000380 0f dc e1 41 71 57 df 41 26 f3 dc 41 00 5f e0 41
       28.23245 27.917696 27.618725 28.046387
000390 5c ca e0 41 93 fd dc 41 62 bc de c1 5c f7 e5 41
       28.098808 27.623816 -27.841984 28.74578
0003a0 8f 0e e0 41 57 35 df 41 a7 85 e1 41 69 9d df c1
       28.007109 27.901045 28.19026 -27.95186
0003b0 ec 49 e2 c1 94 79 e5 c1 74 2f df 41 45 98 e1 41
       -28.286095 -28.684364 27.89817 28.19935
0003c0 0f e3 de 41 d6 f0 e4 41 e5 b9 e2 c1 61 6b e0 c1
       27.860868 28.617596 -28.340769 -28.052431
0003d0 4c da de c1 b0 c7 e1 c1 09 3b df c1 ad e9 d8 c1
       -27.85659 -28.222504 -27.903826 -27.1141
0003e0 ca 54 e0 c1 b4 58 df 41 a1 55 de 41 f2 ae e5 c1
       -28.0414 27.918312 27.791811 -28.710423
0003f0 6a 41 e1 c1 a4 91 de 41 0e b2 dc c1 ea d7 dd c1
       -28.15694 27.821114 -27.58694 -27.730427

rnn.weight_hh_l2 f4 [72, 24]
000000 cc bc e0 c1 27 8a df c1 f3 5c de 41 ae 13 df c1
       -28.092186 -27.942457 27.795385 -27.88461
000010 1c f1 e0 c1 b1 8d df 41 d4 ae df c1 9e f0 e2 c1
       -28.11773 27.944185 -27.960365 -28.367489
000020 fe d6 e0 41 af b8 df 41 5b 06 e0 41 1e 98 e0 c1
       28.104977 27.965178 28.003103 -28.074276
000030 c3 52 e0 c1 c7 55 e1 c1 60 18 df c1 c5 17 dd c1
       -28.040411 -28.166883 -27.886902 -27.636606
000040 07 75 e0 41 c7 21 df 41 b6 87 e0 c1 1e 16 e0 c1
       28.057142 27.891493 -28.066265 -28.0108
000050 ac 30 e0 c1 54 47 df c1 8e c0 de 41 08 44 e5 c1
       -28.023766 -27.909828 27.84402 -28.658218
000060 d2 c1 e0 c1 71 2f e6 c1 c7 b9 e0 41 41 99 db c1
       -28.094639 -28.773165 28.090712 -27.449831
000070 cb 9b de c1 90 02 df 41 34 42 e1 c1 b0 e9 dd c1
       -27.82607 27.876251 -28.157326 -27.739105
000080 ac cc de 41 98 cf de 41 0d 51 e1 41 9c 52 e2 c1
       27.849937 27.851364 28.164576 -28.290337
000090 6a 6c df c1 7e 29 e2 c1 87 f4 de c1 ff 5d de c1
       -27.927937 -28.27026 -27.869398 -27.795897
0000a0 cc bb e0 41 0d 32 e6 41 b2 d7 df c1 99 7a de c1
       28.091698 28.774439 -27.98032 -27.809862
0000b0 f2 4f db c1 64 c6 e1 c1 a7 cf e0 41 a8 93 dc 41
       -27.414036 -28.22187 28.101393 27.572098
0000c0 d0 5f e1 c1 1d 09 e2 c1 57 6a e2 41 7e 0d df c1
       -28.171783 -28.25445 28.301924 -27.881588
0000d0 b0 f8 e0 c1 28 07 e2 41 e8 09 e1 c1 91 40 e0 c1
       -28.12143 28.253494 -28.129837 -28.031527
0000e0 88 bb df 41 a2 7e df 41 7e 20 df 41 78 d0 dd c1
       27.966568 27.936832 27.890865 -27.726791
0000f0 ef d9 df c1 7b c9 de c1 b0 97 de c1 fa b1 dc c1
       -27.981413 -27.84838 -27.824066 -27.586903
000100 33 ed df 41 f8 79 dd 41 76 a3 e0 c1 24 aa de c1
       27.99082 27.684555 -28.079815 -27.833076
000110 fa 94 df c1 7e 26 e0 c1 2d d4 e1 41 83 89 e2 c1
       -27.947742 -28.018795 28.228601 -28.317144
000120 36 4e e0 c1 fc 46 df c1 41 08 e1 41 17 9a df c1
       -28.038189 -27.90966 28.12903 -27.95024
000130 29 33 e1 c1 28 28 df 41 08 53 e3 c1 10 83 df c1
       -28.14998 27.894608 -28.415543 -27.938995
000140 8e ab df 41 36 f0 e2 41 76 a9 df 41 4b 07 de c1
       27.958767 28.36729 27.957745 -27.753561
000150 7d 57 e0 c1 69 32 e2 c1 b1 57 df 41 b7 f6 e1 41
       -28.042719 -28.274614 27.917818 28.245466
000160 e6 a6 e1 41 c1 77 e0 41 d9 c1 e0 c1 7e 33 e2 c1
       28.206493 28.058474 -28.094652 -28.275143
000170 2c 66 e0 41 f6 8a e3 c1 2e 5c de 41 05 20 e1 c1
       28.049889 -28.442852 27.79501 -28.140635
000180 a9 03 de c1 09 f6 e1 c1 ed dc de 41 cd 6b df 41
       -27.751787 -28.245134 27.857874 27.927637
000190 e0 c2 dd c1 01 ff df c1 31 6a de c1 8a 71 e0 c1
       -27.720154 -27.999514 -27.801851 -28.055439
0001a0 b3 eb e0 41 79 03 e2 41 17 7c de 41 db fa dc c1
       28.115088 28.251696 27.81059 -27.622488
0001b0 b3 47 de c1 f5 72 e0 c1 4d 80 e1 41 e8 54 e1 41
       -27.78501 -28.056131 28.187647 28.166458
0001c0 a0 ef de 41 eb 14 e1 c1 9f d5 df c1 46 fe e1 41
       27.867004 -28.135214 -27.979307 28.249157
0001d0 ea a0 e1 41 45 37 df c1 6c 40 e0 c1 3b 6e df c1
       28.203571 -27.901987 -28.031456 -27.928823
0001e0 60 26 df 41 bd 95 e0 41 ff 97 de c1 4b ec e2 c1
       27.893738 28.073114 -27.824217 -28.365377
0001f0 5a fa dc 41 e2 e0 df 41 23 8f dd 41 df ca e1 41
       27.622242 27.984806 27.694891 28.224058
000200 ed 90 dd c1 cb 31 de c1 1e be dd c1 65 56 e1 41
       -27.695765 -27.774313 -27.71783 28.167185
000210 3f 87 e0 41 63 9b e1 41 b1 a3 e1 c1 01 e9 df c1
       28.066038 28.200872 -28.204927 -27.988771
000220 c3 47 df c1 1d 76 e1 41 1c f4 df 41 41 4d e2 c1
       -27.91004 28.182673 27.994194 -28.287722
000230 a6 b6 df c1 b4 3f df 41 1d 9b e0 41 8e 1d e2 41
       -27.964184 27.906105 28.075739 28.264431
000240 a6 b7 e1 c1 4d 4d df c1 3b c4 e0 41 cd 38 e0 41
       -28.214672 -27.912745 28.095816 28.027735
000250 5f a8 e0 c1 a9 24 e2 c1 99 62 e0 c1 7b d3 e0 c1
       -28.082212 -28.2679 -28.048143 -28.103262
000260 c0 3e e0 41 3e e4 e1 41 fa 18 e1 41 f6 10 e1 c1
       28.03064 28.236446 28.137196 -28.133282
000270 b0 17 e0 c1 69 6b e0 c1 b6 c0 e0 41 43 66 e0 41
       -28.011566 -28.052446 28.094097 28.049932
000280 64 f5 de 41 ae bd e0 41 19 06 df c1 91 4e e1 41
       27.86982 28.092617 -27.877977 28.163363
000290 79 ce df 41 6d 08 de c1 11 8b e0 c1 a7 3c df c1
       27.975817 -27.754114 -28.067904 -27.904615
0002a0 ad 40 e0 c1 30 3a e3 c1 75 2c de 41 07 6c dd c1
       -28.03158 -28.403412 27.771708 -27.677748
0002b0 46 f9 e0 c1 f1 f8 de 41 f2 67 e2 c1 4e c0 e4 41
       -28.121716 27.871553 -28.300755 28.593899
0002c0 6d 0a e1 41 e0 0c df 41 c4 90 e3 41 ae 1d e3 c1
       28.13009 27.881287 28.445686 -28.389492
0002d0 50 09 de c1 52 ce de 41 43 e6 dc c1 9d 41 dd c1
       -27.754547 27.850742 -27.612432 -27.657038
0002e0 44 9e e2 41 29 36 e4 41 c7 ee e0 c1 2f 1a e3 c1
       28.327278 28.526445 -28.11659 -28.387785
0002f0 9b 43 e0 c1 1e ed e0 c1 a6 87 dc 41 15 77 de 41
       -28.03301 -28.11578 27.566235 27.808146
000300 30 35 e0 41 95 6d df 41 41 88 e0 c1 4e 45 e1 c1
       28.02597 27.928507 -28.06653 -28.15884
000310 38 f5 de 41 85 8f e0 41 3f 6c e0 41 4b 56 df 41
       27.869736 28.070078 28.052855 27.917135
000320 a2 2e e0 c1 09 54 e0 c1 4a 61 df c1 4c 59 e1 41
       -28.02277 -28.041033 -27.922504 28.168602
000330 ef a4 dd 41 4b 11 e0 41 d0 87 e0 c1 0f 30 e1 c1
       27.705534 28.008444 -28.066315 -28.148466
000340 2d 9c e0 c1 64 d2 de 41 63 15 e0 41 a2 0c e1 c1
       -28.076258 27.85273 28.010443 -28.131168
000350 fa a3 e0 c1 db 9c e1 41 c7 3d e0 41 48 a0 de 41
       -28.080067 28.20159 28.030165 27.828262
000360 e8 af e0 c1 00 7d e0 c1 aa 16 e0 41 40 20 e1 41
       -28.085892 -28.061035 28.011066 28.140747
000370 ae fa e0 c1 8b 34 df c1 44 fc de c1 25 77 e0 c1
       -28.122402 -27.900656 -27.873177 -28.058176
000380 13 77 e0 41 1d 2b e1 41 bc ae e1 c1 65 31 dd 41
       28.058142 28.146051 -28.21032 27.649118
000390 9d 29 e1 c1 a7 68 e1 c1 f0 e8 e1 41 fe 44 df 41
       -28.145319 -28.1761 28.238739 27.908688
0003a0 33 c3 df 41 cc c4 e0 c1 de c5 de c1 50 30 e0 41
       27.970312 -28.096092 -27.846615 28.02359
0003b0 4e 5b df 41 2e 85 de c1 8a 35 e2 c1 31 b2 df c1
       27.919582 -27.81503 -28.276142 -27.962008
0003c0 8f 6e e1 41 d2 49 e2 41 f9 52 e2 c1 11 95 e1 41
       28.178984 28.286045 -28.290514 28.197786
0003d0 74 1d e1 41 4a ea de c1 59 ec e1 41 eb b8 e0 41
       28.139381 -27.864399 28.240404 28.090292
0003e0 25 28 e3 c1 d4 c8 df c1 3b a4 e0 c1 90 5a dc 41
       -28.394602 -27.97306 -28.08019 27.54422
0003f0 c8 39 e0 41 93 76 e1 41 81 e5 dd 41 18 2d e0 c1
       28.028214 28.182898 27.737062 -28.022018

rnn.bias_ih_l2 f4 [72]
000000 20 52 dd c1 8b 8c e1 c1 74 9d df c1 f8 de e1 c1
       -27.6651 -28.193624 -27.951881 -28.233871
000010 7b 5b e1 c1 69 7c de 41 f9 ba e1 c1 7d bc de c1
       -28.169668 27.810747 -28.216295 -27.842035
000020 ff 84 de 41 21 17 e1 c1 34 9c e0 41 95 0d df 41
       27.81494 -28.136293 28.076271 27.881632
000030 ed 30 e1 c1 22 f2 df c1 02 e2 df 41 92 0f e1 c1
       -28.14889 -27.993229 27.985355 -28.132603
000040 3b c6 e1 c1 28 29 e0 41 ab 15 e1 c1 2c 0b df c1
       -28.221792 28.020096 -28.13558 -27.880455
000050 a7 c3 e1 c1 e3 b8 e0 c1 2f e9 e1 c1 5c 40 df c1
       -28.220533 -28.090277 -28.23886 -27.906425
000060 43 31 dc 41 8d 3d e5 c1 db f3 a9 bf 6e 05 e4 c1
       27.524054 -28.655054 -1.3277544 -28.502651
000070 44 d9 e1 c1 29 f2 e9 c1 53 f9 dd c1 8a c3 e1 c1
       -28.231087 -29.243242 -27.74674 -28.220478
000080 cb 90 e4 c1 fa 54 e3 c1 16 27 de 41 64 79 e2 c1
       -28.5707 -28.416492 27.769085 -28.309273
000090 e7 85 df 41 86 6b 9a c1 c0 a2 e5 c1 ae dd e3 c1
       27.940382 -19.302502 -28.704468 -28.483242
0000a0 ec 96 e0 c1 f7 35 e7 c0 bc ab dc 41 48 f5 e4 c1
       -28.073692 -7.2253375 27.583855 -28.619766
0000b0 d9 a2 e4 c1 94 6c d9 41 61 23 e5 c1 b5 4a dd 41
       -28.579515 27.178017 -28.642275 27.661478
0000c0 fb 00 df c1 98 fc e0 c1 65 cb e0 41 50 01 e0 c1
       -27.875479 -28.123337 28.099314 -28.00064
0000d0 f2 0a df c1 56 8d df 41 93 cb de c1 c8 bf df c1
       -27.880344 27.944012 -27.849401 -27.968643
0000e0 0e 15 e1 41 c3 55 e1 41 35 08 e0 41 1e ff de 41
       28.13528 28.166876 28.004007 27.874569
0000f0 08 89 de c1 c1 1c e0 c1 ed 12 e1 41 7f ff e0 41
       -27.81691 -28.01404 28.134241 28.124754
000100 70 bc de 41 e9 d5 df c1 60 2c df c1 ae d9 de c1
       27.84201 -27.979448 -27.896667 -27.856289
000110 c0 05 e1 41 61 25 de c1 ce 39 e1 41 7b ff df c1
       28.127808 -27.768251 28.153225 -27.999746
