Recovery.pth (torch, 48318 bytes, 14 tensors)

rnn.weight_ih_l0 f4 [72, 24]
00000000: 951c 2c40 ff09 3440 7408 2b40 c23e 3640
00000010: b012 4340 91dc 2b40 17fa 3a40 4846 3540
00000020: a3b7 3d40 2211 2c40 769a 3840 70f7 3840
00000030: ee07 3440 b709 2d40 c28c 4040 636e 2f40
00000040: 2800 3d40 b09a 3040 5248 2d40 eacf 2a40
00000050: 6be5 3640 ebbf 3340 052f 3540 890b 3640
00000060: d893 3840 31d2 2840 7a5a 3140 3228 30c0
00000070: bae4 2840 2943 2e40 3271 3640 e4f0 3340
00000080: 3a68 3b40 d506 3340 ea1f 2ec0 6e25 3b40
00000090: 5d5e 2940 bb21 2440 2e8d 2e40 c7fd 3140
000000a0: b5b5 2d40 3b55 3140 83eb 2c40 0a91 2f40
000000b0: 98fa 2b40 817c 2c40 e624 3140 42ee 2a40
000000c0: b46b 3740 eec3 3540 feb3 3140 db49 3c40
000000d0: 5b95 3140 2e60 3c40 3ba6 2b40 f84b 2840
000000e0: cc75 3a40 f55a 2840 7750 3c40 16f8 2b40
000000f0: bc0c 4040 bcda 3740 165b 4140 3239 2040
00000100: 4fa1 3b40 5fe0 2440 8d89 2940 03b9 3d40
00000110: 6be6 2a40 6dc6 2840 18c6 3a40 8478 3440
00000120: 046c 2740 9350 2640 0d3d 3c40 9474 3640
00000130: 876f 3540 70eb 3b40 f2d6 3540 5663 2940
00000140: a8ac 3c40 4d57 3c40 d19a 2940 4927 3940
00000150: b192 3c40 a35d 3840 84fb 2840 b747 3140
00000160: 3655 2640 9d60 3940 33ab 3a40 3156 2c40
00000170: 0ca0 3e40 b104 2c40 d740 3540 4f5b 2c40
00000180: 816a 2e40 debe 3140 a8b7 3540 0181 3940
00000190: 2dec 2d40 2a89 3740 3a12 3140 2644 3840
000001a0: 92cd 2e40 8a1e 3640 ab0a 2d40 7e54 2b40
000001b0: deeb 2e40 be6d 3340 c257 2e40 d993 3c40
000001c0: 660d 3440 c8f2 3840 7750 3340 c186 2b40
000001d0: a141 2f40 e5ce 2a40 885c 3240 16e8 4040
000001e0: 4132 2dc0 052c 36c0 8d10 3bc0 57e9 37c0
000001f0: 185f 33c0 a8c0 2dc0 5493 34c0 54d2 36c0
00000200: dd73 3fc0 3a54 3340 790b 34c0 564d 38c0
00000210: d983 36c0 01ec 2ac0 6915 45c0 f648 3cc0
00000220: 69ac 3cc0 2f30 36c0 2a1c 38c0 e35a 3cc0
00000230: 940f 2cc0 afa8 40c0 7683 31c0 1443 2bc0
00000240: 9a25 3a40 671e 2f40 efc1 2a40 9631 3940
00000250: f1e6 2140 7b2d 3a40 4073 3340 8f9b 2940
00000260: ea27 3b40 efef 2540 2601 2b40 73e2 3940
00000270: bc04 2d40 4382 2840 c4a3 2e40 3a4f 3140
00000280: 3477 2a40 d573 2040 52cf 2b40 6007 3740
00000290: 5181 3440 9765 2e40 6ea5 2440 3e0f 2d40
000002a0: 4ac7 3940 de27 3640 3169 2440 ed2e 3940
000002b0: 3606 4840 4f6d 3340 5d20 2f40 033f 2d40
000002c0: ceef 2e40 2991 3840 bc94 2b40 6bf8 3240
000002d0: 549d 2940 0274 2f40 2051 3240 bf32 3240
000002e0: 248b 2e40 2651 3940 9c1f 3e40 9092 2840
000002f0: 7fd3 2340 3ddf 3b40 c5bd 2c40 96fb 3640
00000300: 9648 33c0 84d0 2fc0 4c91 31c0 2eaa 41c0
00000310: 54ff 3740 ef82 30c0 1760 4940 8615 4840
00000320: d883 45c0 7e6c 4040 c111 37c0 9179 2ac0
00000330: 81ac 2ec0 9ed0 4140 b9c1 43c0 8219 3840
00000340: c3aa 39c0 8596 26c0 ec02 4340 6436 33c0
00000350: 0703 2cc0 ef6d 31c0 a507 2dc0 a9b4 4340
00000360: 8d16 3b40 8b49 4340 fbc3 3340 d037 4040
00000370: df10 4340 0030 4240 8e7c 4040 26f4 2f40
00000380: acea 3440 cfdf 2740 b2c4 3c40 fb31 2c40
00000390: 686a 3d40 537f 4240 0eed 3040 1743 4640
000003a0: ec9b 2f40 28ba 2b40 25eb 3640 c187 2a40
000003b0: e04a 3740 c4c5 3640 6868 4240 87a4 2b40
000003c0: 6bd1 2cc0 3b57 37c0 37d7 34c0 d0b9 36c0
000003d0: e20f 42c0 8ab3 3ec0 f93d 32c0 5646 40c0
000003e0: 8123 3dc0 9e1b 3dc0 e537 2ec0 a53d 41c0
000003f0: 9115 36c0 648b 30c0 b52a 42c0 d22f 3fc0
2.6892445 2.81311 2.672391 2.8475804 3.0480156 2.6853373 2.9215143 2.8324146
2.9643333 2.6885457 2.8844275 2.8901024 2.812984 2.703718 3.0085912 2.7411125
2.9531345 2.7594414 2.707539 2.66894 2.8577526 2.8085887 2.8309948 2.844454
2.8840237 2.637829 2.7711473 -2.7524533 2.6389604 2.7228491 2.850659 2.8115778
2.9282365 2.797292 -2.7206979 2.9241595 2.6463845 2.5645587 2.727367 2.7811143
2.7142155 2.770827 2.7018745 2.7432275 2.68717 2.695099 2.767877 2.670792
2.8659487 2.8400836 2.7766109 2.9420078 2.774741 2.9433703 2.682021 2.6296368
2.9134398 2.6305516 2.9424112 2.687017 3.0007772 2.8727255 3.0211844 2.503491
2.9317205 2.5761945 2.6490204 2.9644172 2.6703136 2.637111 2.9183407 2.8198557
2.6159678 2.5986679 2.9412262 2.8508654 2.834932 2.936245 2.8412442 2.646688
2.948038 2.9428284 2.6500742 2.8930228 2.9464533 2.8807151 2.6403513 2.7700021
2.5989509 2.8965218 2.9166992 2.6927607 2.9785185 2.6877863 2.8320825 2.693073
2.7252505 2.7772746 2.8393345 2.8984988 2.71754 2.8677468 2.7667375 2.8791595
2.731297 2.845614 2.7037761 2.677032 2.7331462 2.8035731 2.7241063 2.946524
2.8133178 2.8898182 2.8017862 2.6800997 2.7383807 2.6688778 2.7868977 3.0141654
-2.7061923 -2.8464367 -2.9228852 -2.873617 -2.802679 -2.7148838 -2.8214922 -2.8565874
-2.9914467 2.8020158 -2.8132002 -2.8797202 -2.8517973 -2.6706545 -3.0794318 -2.9419532
-2.948023 -2.846691 -2.876719 -2.9430473 -2.6884508 -3.0102956 -2.7736487 -2.6759691
2.908545 2.7362306 2.6680868 2.8936515 2.5297205 2.909026 2.8039093 2.6501195
2.9243112 2.5927694 2.671945 2.9044464 2.703414 2.6329505 2.7287455 2.7704606
2.6635256 2.5070698 2.6845288 2.8598251 2.8203928 2.7249506 2.572597 2.7040553
2.9027886 2.8461833 2.5689204 2.8934891 3.125379 2.8035467 2.7363503 2.706971
2.7333865 2.8838599 2.680953 2.7964122 2.6502275 2.7414556 2.7862015 2.7843473
2.7272425 2.895578 2.9706793 2.6339455 2.5597837 2.9355004 2.6990826 2.8591056
-2.8013053 -2.7471018 -2.7744932 -3.026012 2.874959 -2.7579916 3.1464899 3.1263137
-3.086172 3.0066218 -2.8604586 -2.6636698 -2.7292788 3.028358 -3.058699 2.8765569
-2.9010475 -2.602937 3.0470533 -2.8001947 -2.6876848 -2.7723348 -2.7035916 3.0579016
2.9232514 3.0513637 2.8088367 3.0034065 3.0479047 3.0341797 3.0076022 2.7492766
2.8268232 2.6230352 2.9495053 2.6905506 2.9596195 3.0390213 2.7644687 3.0978448
2.7438917 2.683237 2.858102 2.6645358 2.863945 2.8558207 3.0376225 2.681917
-2.7002819 -2.8646991 -2.8256357 -2.855091 -3.0322194 -2.9797082 -2.7850325 -3.004293
-2.955292 -2.9548106 -2.7221615 -3.0193875 -2.8450663 -2.7585077 -3.0338566 -2.9872937

rnn.weight_hh_l0 f4 [72, 24]
00000000: d91e 3ec0 38a0 31c0 6e51 32c0 43fa 36c0
00000010: 99dc 28c0 bcdf 3140 15f0 3540 a4c1 29c0
00000020: 0342 3240 ddac 29c0 248e 3fc0 835a 3440
00000030: f6df 28c0 ca00 2840 a7ce 2ac0 ee9a 3ec0
00000040: c669 37c0 e2f7 3e40 ea5c 3e40 f17c 2b40
00000050: e88a 38c0 c24d 2dc0 b11f 4240 9349 37c0
00000060: 5faf 31c0 3df2 33c0 f0ab 30c0 27c4 3cc0
00000070: 6852 26c0 3856 3f40 bcf5 2640 e4eb 48c0
00000080: f13d 2740 eabd 3ec0 6928 37c0 12ff 3a40
00000090: 816e 33c0 d082 2840 1b13 28c0 33a9 3ac0
000000a0: 06d4 3cc0 ced1 2540 92cc 2f40 a085 2b40
000000b0: 89b0 2bc0 bfd3 2ec0 f21b 3f40 66d6 3fc0
000000c0: 4398 2cc0 3856 29c0 c37d 35c0 603e 3640
000000d0: 02bb 36c0 defa 34c0 736c 3e40 5a47 3440
000000e0: 49ec 4140 821f 2dc0 8e61 2ac0 b828 2f40
000000f0: e503 27c0 e353 2b40 dd64 2fc0 35d7 27c0
00000100: faee 39c0 1bb2 2640 5432 3ac0 5fb5 2d40
00000110: dac3 3b40 1f4c 2cc0 82bf 2c40 3562 3ac0
00000120: 0502 3ac0 8b02 33c0 a1ec 2ac0 8bcc 3040
00000130: eb9b 2dc0 3ba6 37c0 bb12 4240 cb05 40c0
00000140: 6fa0 2840 db25 28c0 7e45 28c0 eee7 4140
00000150: 3764 27c0 1e69 3540 f538 29c0 65cc 3cc0
00000160: 39cc 3cc0 1453 2e40 4f39 2cc0 6f9c 2540
00000170: cd14 43c0 49cb 33c0 d4f7 3240 582d 27c0
00000180: 4eed 2ac0 9d37 3d40 6ce1 31c0 4a11 31c0
00000190: c425 2bc0 9f42 4040 52f1 2540 8742 2bc0
000001a0: 0912 4140 7449 3540 431f 25c0 4100 3a40
000001b0: e35f 39c0 b37c 2740 716b 2fc0 51e8 3dc0
000001c0: 9992 26c0 986b 3b40 5eca 3140 92d3 2540
000001d0: 26f8 37c0 b2df 41c0 81f8 3d40 4e3f 30c0
000001e0: b06c 3240 8e6b 2440 199b 2e40 2e29 3cc0
000001f0: fab1 3640 4302 3d40 34d4 3cc0 8973 37c0
00000200: 1259 4bc0 b978 2e40 7ab1 3c40 2059 2340
00000210: c911 2e40 e7bf 32c0 ca46 3d40 5af7 4040
00000220: 042f 3440 a3c0 38c0 db50 2640 baa4 2ac0
00000230: 7c7d 23c0 e80f 09c0 1269 2cc0 3731 21c0
00000240: 1bd0 3cc0 99df 38c0 9156 2dc0 4bd5 3ec0
00000250: 6aef 36c0 d3dd 38c0 1050 2f40 3551 2fc0
00000260: bebc 2e40 5ffe 2bc0 6cc5 25c0 b9c3 3040
00000270: 41ce 27c0 a7d1 3640 a101 24c0 30e5 23c0
00000280: de02 29c0 6b33 3140 e665 3640 fdc9 3340
00000290: 5f78 3ac0 5267 36c0 6103 2f40 f5ae 2dc0
000002a0: 3179 30c0 94a4 31c0 59de 39c0 4f6a 3040
000002b0: bd7e 36c0 e6d6 41c0 d8a7 3140 77ee 31c0
000002c0: 97fd 4340 9139 32c0 2b49 3dc0 f7d1 2a40
000002d0: 7780 2cc0 1a38 2940 4838 39c0 245f 3bc0
000002e0: c136 41c0 44a8 3840 be7d 3fc0 c9fb 4040
000002f0: af38 2fc0 1328 34c0 92e1 3f40 a58d 39c0
00000300: a9c7 3b40 ae24 2a40 570b 3d40 0c5b 28c0
00000310: 96f6 3fc0 6418 4440 61d9 30c0 c601 2ec0
00000320: 8498 3b40 1ed8 3e40 6afd 3340 9ae0 2140
00000330: 51dd 3d40 f627 3ac0 830b 3440 39ac 42c0
00000340: c05f 3840 b1a6 2cc0 c72f 2b40 39a9 35c0
00000350: cb31 3dc0 8e54 2dc0 7c1f 2cc0 c8bb 3cc0
00000360: a8bc 2d40 cdbd 36c0 65c6 41c0 f4e3 18c0
00000370: cbf1 28c0 0484 4540 cfbd 4140 ee01 18c0
00000380: 0458 2840 84f4 46c0 8a50 44c0 9ab5 2340
00000390: 0fbb 28c0 529e 3e40 66f8 31c0 cf68 2dc0
000003a0: d5e4 39c0 d5cd 4040 6ec2 2b40 357d 3b40
000003b0: 3218 21c0 f1ec 0fc0 0ba6 4340 e0a2 0dc0
000003c0: a0bb 2840 7dd4 4340 633a 2b40 19da 3140
000003d0: e0c4 2b40 437d 4340 1cd4 41c0 adfd 3a40
000003e0: 0b66 34c0 8930 3540 4883 3140 3dca 33c0
000003f0: 11b6 4340 fffc 2fc0 404c 4140 3364 3740
-2.9706328 -2.775404 -2.78622 -2.8590248 -2.6384642 2.7792807 2.8427784 -2.652444
2.785279 -2.6511757 -2.9930506 2.8180244 -2.6386695 2.6250482 -2.668863 -2.9782062
-2.865831 2.9838796 2.974421 2.6795008 -2.8834782 -2.707871 3.0331843 -2.8638656
-2.7763288 -2.81166 -2.7604942 -2.9494722 -2.5987797 2.9896374 2.6087484 -3.1393976
2.6131556 -2.9803414 -2.8618414 2.9218183 -2.8036196 2.6329842 -2.626166 -2.916577
-2.950441 2.5909305 2.746861 2.6800308 -2.6826499 -2.731674 2.9860806 -2.9974608
-2.6967933 -2.6458874 -2.835801 2.847557 -2.855164 -2.8278117 2.9753692 2.816855
3.0300467 -2.705048 -2.6622043 2.7368603 -2.6096127 2.676995 -2.7405312 -2.6225102
-2.905211 2.6046207 -2.9093218 2.714195 2.9338288 -2.692146 2.6991887 -2.912244
-2.9063733 -2.7970302 -2.6706927 2.7624843 -2.7126415 -2.869521 3.0323932 -3.0003536
2.634792 -2.6273105 -2.6292415 3.0297809 -2.6154916 2.8345408 -2.6441014 -2.9499753
-2.9499648 2.7238207 -2.6909978 2.587673 -3.0481446 -2.8092825 2.7963762 -2.6121426
-2.670734 2.9565194 -2.7793837 -2.7666802 -2.67418 3.0040662 2.592854 -2.6759355
3.0167258 2.8326082 -2.580033 2.9062655 -2.8964775 2.616986 -2.7409327 -2.9673045
-2.6026976 2.928442 2.7779765 2.5910382 -2.8745208 -3.0292783 2.9682925 -2.7538638
2.7878838 2.5690646 2.7282164 -2.9400134 2.8546128 2.953263 -2.9504519 -2.8664267
-3.1773114 2.7261183 2.9483323 2.5523148 2.7198355 -2.7929628 2.9574456 3.0150971
2.8153696 -2.8867576 2.598685 -2.666304 -2.554534 -2.1415958 -2.693913 -2.5186288
-2.9502017 -2.8886473 -2.7084086 -2.9817684 -2.8583627 -2.888539 2.7392616 -2.7393315
2.73027 -2.6874006 -2.5901747 2.761946 -2.6219637 2.8565462 -2.5625994 -2.5608635
-2.6408 2.7687633 2.8499694 2.8092034 -2.9135969 -2.8500562 2.7345812 -2.7138035
-2.757397 -2.77567 -2.904196 2.7564886 -2.8514855 -3.0287414 2.7758694 -2.7801797
3.062353 -2.7847636 -2.9575908 2.6690652 -2.6953409 2.6440492 -2.8940601 -2.927682
-3.018967 2.88527 -2.9920497 3.0153677 -2.7378347 -2.814946 2.9981427 -2.8992703
2.9340613 2.6584888 2.9538171 -2.630557 -2.9994254 3.0639887 -2.7632678 -2.7188582
2.9311838 2.9819407 2.8123422 2.5293336 2.966633 -2.908689 2.8132026 -3.0417616
2.880844 -2.697674 2.674791 -2.8384535 -2.9561641 -2.7082858 -2.6894217 -2.9489613
2.7146397 -2.8553345 -3.027734 -2.3889132 -2.6397579 3.0861826 3.02721 -2.3751178
2.630372 -3.108674 -3.0674157 2.557959 -2.6364172 2.978413 -2.780786 -2.709522
-2.9045918 3.012563 2.683742 2.929517 -2.5171018 -2.2488368 3.0570095 -2.213066
2.6364517 3.0598443 2.6754386 2.7789366 2.6838913 3.0545204 -3.0285711 2.9217331
-2.8187282 2.8310874 2.7736378 -2.8092186 3.0579875 -2.7498167 3.020279 2.8654907

rnn.bias_ih_l0 f4 [72]
00000000: f56b 2c40 6f28 2d40 a17c 2840 b30c 3e40
00000010: 2f9f 3540 92ab 37c0 621a 2340 8718 3340
00000020: 191b 2ac0 9a03 4040 1455 44c0 1051 3ac0
00000030: edbb 4540 4938 2dc0 e494 35c0 6ea9 3540
00000040: 90eb 28c0 b51c 3240 f30d 3940 82ac 3b40
00000050: 926f 3040 b73f 3640 e0d8 3240 a71e 44c0
00000060: 2e80 1c40 420a 4040 f1a8 2240 44b3 1c40
00000070: dcaa 3fc0 cbd6 3840 da02 2940 e190 1740
00000080: 0ab0 4ac0 fc49 3240 1873 1f40 3293 3740
00000090: ea8f 4dc0 7169 2440 6db1 54c0 de40 2540
000000a0: b7a5 3cc0 a5d7 1e40 6576 4dc0 a5a2 48c0
000000b0: 93c6 2740 6c2a 4ec0 2419 2f40 3f0e 58c0
000000c0: ae9c 3c40 efa8 3240 2ee4 3d40 a729 3ac0
000000d0: 7bea 2740 7105 3640 be9d 40c0 f9b9 2ec0
000000e0: 0bf6 3640 b665 3740 b984 3440 3600 2f40
000000f0: 35cd 42c0 8d38 3ec0 df94 2740 5ca1 3040
00000100: a157 2540 5f1f 31c0 6d1f 3440 0d1a 4b40
00000110: e664 2dc0 c039 32c0 7a87 3dc0 ddb2 38c0
2.6940892 2.7055929 2.6326067 2.969525 2.8378408 -2.8698468 2.5484853 2.798372
-2.657904 3.0002198 -3.0676928 -2.9111977 3.089595 -2.7065604 -2.8372126 2.8384662
-2.6393776 2.7830021 2.8914764 2.932404 2.7568097 2.8476388 2.794487 -3.0643709
2.4453235 3.000626 2.5415614 2.4484415 -2.9948034 2.88811 2.640799 2.3682177
-3.1669946 2.7857656 2.4913998 2.868359 -3.2119088 2.5689356 -3.3233292 2.5820842
-2.9476144 2.481912 -3.2103512 -3.134927 2.621495 -3.2213392 2.7359095 -3.3758695
2.947063 2.791561 2.967052 -2.9087923 2.6236866 2.844082 -3.0096278 -2.7301009
2.8587673 2.865583 2.8206007 2.7343879 -3.0437748 -2.9722016 2.6184614 2.7598486
2.5834734 -2.7675397 2.814418 3.173465 -2.7092834 -2.7847748 -2.9613938 -2.885917

rnn.bias_hh_l0 f4 [72]
00000000: 06dc 3b40 427e 3c40 d234 3340 54af 3740
00000010: d943 3c40 8677 2bc0 6995 3340 b318 3a40
00000020: 5202 2ec0 1586 3a40 a4f6 44c0 2666 39c0
00000030: 3e5c 4340 4bc5 36c0 3c3e 35c0 de78 3f40
00000040: 2a19 38c0 a423 3740 c722 3040 4e4f 3f40
00000050: 3c08 3240 6a04 3740 abbd 3040 b536 43c0
00000060: 79b8 1440 93ed 3f40 59d6 1b40 d019 1d40
00000070: dd77 4ac0 c6f6 3a40 3a66 2140 69c6 1c40
00000080: 22cc 40c0 3493 2940 aace 1c40 2343 3640
00000090: ae6f 50c0 89b9 1840 bf2c 45c0 8868 2940
000000a0: c88b 40c0 c225 3640 9564 45c0 ca1e 4ac0
000000b0: 3179 2d40 e0b8 48c0 e51b 2740 09ee 52c0
000000c0: aeb4 2f40 e8d5 2c40 350c 2f40 3383 45c0
000000d0: 4f75 42c0 dcac 3040 3068 30c0 d3d3 46c0
000000e0: bced 3940 abf4 4440 dec2 3140 3dba 3740
000000f0: bf8c 3fc0 5bd1 3dc0 b42a 2040 56e1 2e40
00000100: c827 3840 9897 33c0 983f 2940 fd37 3740
00000110: 8701 2ec0 49b5 30c0 1b51 33c0 4a19 39c0
2.9353042 2.9452062 2.800099 2.8700762 2.941641 -2.6791701 2.8059943 2.9077575
-2.7188916 2.9144337 -3.0775537 -2.8968596 3.052505 -2.8557918 -2.8319235 2.9917521
-2.876536 2.8615503 2.7521226 2.9892154 2.7817526 2.8596444 2.7615764 -3.050214
2.3237593 2.9988754 2.4349577 2.4547005 -3.1635659 2.9213119 2.5218644 2.44961
-3.0124593 2.6496096 2.4501138 2.8478477 -3.2568164 2.3863242 -3.080856 2.647005
-3.0085316 2.8460546 -3.084264 -3.1581292 2.710522 -3.1362839 2.6110775 -3.2957785
2.7454028 2.7005558 2.73512 -3.0861328 -3.03841 2.7605505 -2.756359 -3.1066787
2.9051352 3.0774333 2.7775187 2.870742 -2.9929655 -2.965903 2.5026064 2.7325034
2.877428 -2.8061275 2.6445065 2.8627923 -2.7188432 -2.7610648 -2.8018253 -2.8921685

rnn.weight_ih_l1 f4 [72, 24]
00000000: 2a56 40c0 2174 2dc0 3857 41c0 0593 3a40
00000010: b4fc 2ac0 35fc 2fc0 d37e 3e40 8d05 3a40
00000020: 590e 2e40 37b7 2bc0 d793 3fc0 09b1 61c0
00000030: 0174 3ec0 7bec 2c40 7290 28c0 af9e 23c0
00000040: e99f 29c0 eb36 2b40 680a 39c0 24b0 3540
00000050: a5fb 3a40 4772 5b40 7843 4040 7651 5f40
00000060: 7018 3e40 4166 3940 8dcd 2940 56d1 40c0
00000070: dfc8 2740 2979 3340 b685 3bc0 95a4 3dc0
00000080: 5f79 2bc0 296a 2740 8b0f 4140 6ed3 41c0
00000090: 8efd 2e40 9cb5 35c0 8107 2840 222b 2c40
000000a0: d9cc 3e40 4864 39c0 445d 2740 cac0 2ac0
000000b0: 82ad 34c0 03be 3840 2f55 35c0 cca1 3540
000000c0: e799 3e40 f241 4240 8f6b 3e40 315d 3fc0
000000d0: 5715 2f40 b854 3b40 8c59 35c0 a9d7 3ac0
000000e0: eb9f 32c0 fa15 2c40 38a3 4240 aa92 5a40
000000f0: 3c15 4040 a111 2cc0 42c7 2c40 fc36 4040
00000100: e1ec 3c40 2a9a 42c0 76f6 3f40 d185 3ec0
00000110: 4fe6 44c0 443c 5ac0 1b8e 2cc0 cfd1 56c0
00000120: b9f1 3d40 eed2 2d40 ed6e 4040 c0dc 31c0
00000130: f605 3240 b9fe 2940 17fe 3cc0 2d7e 3cc0
00000140: b2b8 5240 d997 3340 e67d 3040 040e 3c40
00000150: 6362 3340 b501 2cc0 304c 3640 5522 46c0
00000160: af28 3440 adea 3fc0 9363 2e40 431a 2dc0
00000170: a88c 41c0 ad62 4bc0 70cc 2fc0 f4e9 45c0
00000180: 5272 32c0 f0e9 2ec0 e81b 25c0 cbba 44c0
00000190: ae9e 33c0 af70 26c0 7d14 2f40 8c0a 39c0
000001a0: 4cee 3a40 3d53 38c0 b610 2bc0 32b5 2a40
000001b0: 19a3 2fc0 fd73 2d40 0e03 2cc0 32a6 2fc0
000001c0: 1911 35c0 02b3 3d40 551d 3040 fb0c 3340
000001d0: 4336 31c0 dfbe 35c0 99e6 2440 c959 3fc0
000001e0: 3052 4840 f38a 2cc0 f735 20c0 66d7 45c0
000001f0: c6a3 33c0 9e01 3040 9c6f 1c40 5a91 4ac0
00000200: 57a4 3840 a2ee 27c0 f47b 2bc0 a036 3d40
00000210: df88 38c0 e19b 2340 8980 2ac0 98c5 2bc0
00000220: bf73 29c0 d216 3440 fe36 4040 6b02 3d40
00000230: 5361 36c0 3828 3bc0 9587 2c40 4b66 34c0
00000240: 3795 2440 b5b6 3540 928b 2b40 af90 4b40
00000250: 6956 4040 ad2f 34c0 0c47 31c0 a9a8 3c40
00000260: 4063 43c0 89fe 3840 6b1e 4040 429b 3cc0
00000270: 5460 4140 3443 35c0 e252 3940 c9a4 3e40
00000280: d204 3940 3391 2cc0 bdd8 3cc0 53d8 38c0
00000290: 2cc2 2f40 bdb9 4340 1cb9 33c0 642f 3e40
000002a0: 3c05 32c0 a37e 35c0 45d2 2bc0 067d 2f40
000002b0: 58c8 36c0 c8b5 2cc0 064b 3740 ee26 39c0
000002c0: c388 4440 2385 33c0 4748 37c0 89ad 3a40
000002d0: a616 31c0 b93b 2f40 1574 3bc0 9cd1 40c0
000002e0: c3b8 2ec0 bad0 2e40 9ecb 2dc0 1a51 3d40
000002f0: 6b76 2dc0 0418 31c0 36a6 3240 ac07 3dc0
00000300: 60e2 44c0 b8ad 3540 ade2 3540 ba26 4e40
00000310: 498d 3b40 b2de 2cc0 34e0 2bc0 a6c6 4440
00000320: 1abb 3ac0 0f20 2740 eb97 2240 2f08 38c0
00000330: 7632 3b40 2128 2bc0 8119 3c40 2977 3140
00000340: 09d8 2c40 ccc8 3cc0 be0a 34c0 41b0 35c0
00000350: 42e6 3540 c749 4040 9157 39c0 06d2 4740
00000360: ddd6 3b40 649a 2e40 98da 4140 ae1e 3ec0
00000370: d36c 32c0 aada 3340 df12 3bc0 490e 3cc0
00000380: 26a3 2c40 c3e6 3e40 8192 3e40 d266 3e40
00000390: bff8 3ec0 b2b4 3440 727e 34c0 9ba3 3bc0
000003a0: abfd 28c0 ccfd 3a40 2996 2b40 6536 3c40
000003b0: 713c 38c0 9f7e 28c0 78e1 3fc0 84c1 2bc0
000003c0: 2400 2640 2e0e 3840 d95b 3640 0cbc 4840
000003d0: 4351 3840 25b1 3ec0 6266 27c0 7746 4840
000003e0: 54b5 44c0 e502 2740 acbc 2a40 ba2f 43c0
000003f0: c6d0 3b40 e26a 28c0 42c5 3640 a485 2b40
-3.005259 -2.710213 -3.0209484 2.9152234 -2.6716738 -2.7497685 2.9764907 2.9065888
2.7196257 -2.6830575 -2.9933984 -3.5264304 -2.9758303 2.7019336 -2.6338162 -2.5565603
-2.6503851 2.675227 -2.8912601 2.8388758 2.9216092 3.42885 3.004118 3.489347
2.9702415 2.896866 2.6531708 -3.0127769 2.6216352 2.80427 -2.930036 -2.9631703
-2.679283 2.6158545 3.0165737 -3.0285296 2.7342257 -2.8392096 2.625458 2.6901326
2.981253 -2.8967457 2.6150675 -2.668017 -2.82309 2.8865974 -2.8333242 2.8380003
2.9781435 3.035275 2.9753149 -2.990063 2.7356775 2.9270458 -2.8335905 -2.9194129
-2.7910106 2.6888413 3.041212 3.4152017 3.001296 -2.688576 2.6996617 3.003356
2.951958 -3.0406594 2.9994178 -2.9769175 -3.076557 -3.4099283 -2.6961734 -3.3565557
2.9678786 2.7159991 3.0067704 -2.7790985 2.7816138 2.656172 -2.9530084 -2.9452012
3.292523 2.806143 2.7576842 2.9383554 2.80288 -2.6876042 2.8484 -3.0958455
2.8149831 -2.9986985 2.7248275 -2.704728 -3.02421 -3.1778977 -2.7468529 -3.0924044
-2.7882276 -2.7330284 -2.5798283 -3.073901 -2.80656 -2.6006277 2.7356255 -2.8912687
2.9207945 -2.8800805 -2.672895 2.6673093 -2.7443297 2.7102044 -2.6876864 -2.7445188
-2.8291686 2.9640508 2.7517903 2.7976673 -2.7689369 -2.8397748 2.5765746 -2.989855
3.1300163 -2.6959808 -2.5032938 -3.0912719 -2.806871 2.7500987 2.444312 -3.1651216
2.8850305 -2.62394 -2.6794405 2.956459 -2.883354 2.556389 -2.6640952 -2.6839352
-2.6476896 2.8138928 3.0033565 2.9532726 -2.8496902 -2.9243298 2.6957753 -2.8187435
2.5716074 2.8392766 2.6803937 3.1807058 3.005274 -2.81541 -2.7699614 2.9477942
-3.0529327 2.8905356 3.0018566 -2.9469762 3.0215044 -2.8322268 2.8956838 2.9788077
2.8909192 -2.6963623 -2.9507287 -2.8882034 2.7462263 3.0582116 -2.8081732 2.9716425
-2.7815695 -2.8358543 -2.6847088 2.7420058 -2.855978 -2.698595 2.863954 -2.893001
3.0708473 -2.805001 -2.8637865 2.9168417 -2.7670074 2.7380202 -2.92896 -3.0127935
-2.730027 2.7314897 -2.7155528 2.958075 -2.7103527 -2.7670908 2.7913947 -2.9535933
-3.0763168 2.838728 2.8419602 3.2211137 2.9304984 -2.7010922 -2.6855593 3.0746245
-2.9176698 2.6113317 2.5405223 -2.8754995 2.924955 -2.6743243 2.9390566 2.772898
2.7006857 -2.9497557 -2.8131557 -2.8388827 2.8421788 3.004503 -2.8959696 3.1221938
2.9349892 2.7281733 3.028967 -2.9706225 -2.787892 2.8102212 -2.9230268 -2.938372
2.6974578 2.9828346 2.977692 2.9750257 -2.9839323 2.8235288 -2.8202176 -2.9318607
-2.6404827 2.9217405 2.68104 2.94082 -2.878689 -2.6327283 -2.9981365 -2.6836863
2.5937586 2.8758655 2.849356 3.1364775 2.8799598 -2.979562 -2.615624 3.1293008
-3.0735674 2.6095517 2.6677656 -3.049788 2.9346175 -2.6315236 2.8557897 2.6800318

rnn.weight_hh_l1 f4 [72, 24]
00000000: 1f56 2540 7c47 2cc0 9d6e 14c0 75f3 31c0
00000010: 873b 29c0 6bd7 3940 775f 3cc0 471f 41c0
00000020: ace5 3ec0 aa2f 34c0 f087 3340 a59b 17c0
00000030: 2205 2940 4a59 3e40 29f8 3440 d43f 3ac0
00000040: 81ef 2bc0 16ff 3440 d03c 29c0 e8dc 3a40
00000050: 6a60 37c0 4755 3140 1223 43c0 5331 2e40
00000060: 05b5 4240 9f68 3d40 1ee7 40c0 e0d7 3740
00000070: 6357 2b40 92d5 2cc0 e9e2 3b40 2550 3240
00000080: 0e65 4040 4792 3440 d78a 32c0 6ffe 31c0
00000090: e574 3340 53e5 2ec0 661b 31c0 a8a9 3040
000000a0: f454 3940 8a0f 3240 7646 3bc0 94b3 36c0
000000b0: a8fa 2d40 7d22 3440 bfb0 3f40 2cd7 3cc0
000000c0: 1986 40c0 45d3 3640 1ecb 3240 5bc2 3840
000000d0: cfee 3940 f370 33c0 427c 3940 f9ff 4340
000000e0: 0902 3b40 2202 3040 12fd 40c0 f165 2d40
000000f0: e5a3 37c0 c54b 2cc0 9119 35c0 c69b 4140
00000100: 8414 2f40 e08c 3ec0 1fa4 3640 1546 3ec0
00000110: cd6d 2e40 6304 3bc0 a632 2e40 a31f 32c0
00000120: 55fa 35c0 1c86 3d40 7213 3640 cbc9 3040
00000130: 8804 3540 184d 33c0 38db 3540 573c 3440
00000140: 6d67 3d40 87f1 3540 f515 38c0 3d08 4040
00000150: df67 2dc0 4bb9 39c0 38f4 40c0 8b2b 3040
00000160: 726b 3e40 585c 2bc0 26f9 3c40 b385 41c0
00000170: b9ff 3240 17c4 2fc0 bb7f 3d40 6a8a 32c0
00000180: 8d43 3bc0 de57 31c0 1991 3a40 af4e 37c0
00000190: 3bac 2fc0 33ec 2b40 4d0d 2ec0 07c1 35c0
000001a0: e3b8 41c0 a0bf 3fc0 c12a 3f40 8561 2640
000001b0: 2c22 3ec0 e48a 3640 ebb6 3d40 afc3 3640
000001c0: 303e 40c0 886f 2ec0 265f 3240 9ce9 3040
000001d0: 2f56 36c0 1e3a 2cc0 6e2e 40c0 4d6d 2a40
000001e0: deb0 34c0 1351 2d40 ad7e 3440 67ee 36c0
000001f0: 4f34 2d40 7f68 3440 b7fa 2fc0 b90c 37c0
00000200: 30db 30c0 c321 38c0 5ff4 4240 dcd5 2e40
00000210: b428 26c0 5e38 3e40 0e6b 3c40 3c54 3a40
00000220: aaae 34c0 ff5b 26c0 8c8d 3f40 4168 4140
00000230: f7dd 2cc0 8234 3bc0 47f3 39c0 a9e6 2d40
00000240: 8a7a 2d40 bc66 2e40 e9a3 33c0 bd77 3840
00000250: 4c29 48c0 b0ab 29c0 deed 3540 1510 3940
00000260: d490 4240 2cbe 3040 a485 29c0 3c10 2cc0
00000270: 78a4 3040 48a8 2ec0 6c62 32c0 2dd4 33c0
00000280: da1d 3d40 f00d 4040 d4d0 39c0 2010 39c0
00000290: e167 3140 a82c 2c40 0039 2b40 7b35 3ac0
000002a0: f95d 2ec0 a870 37c0 8ce8 3840 2e0d 39c0
000002b0: 2581 2ac0 dbb1 3640 f63e 43c0 8ad3 30c0
000002c0: c034 2bc0 cd9a 43c0 9de2 3840 a3de 2540
000002d0: 9e3a 3dc0 070a 3c40 d4af 3240 d792 3dc0
000002e0: 389c 2dc0 d744 2bc0 9ec1 2b40 e3a7 3440
000002f0: 2dea 2dc0 ce6b 3bc0 7f26 3cc0 f7fb 3840
00000300: 07dc 3340 9f51 3bc0 11c8 3bc0 7327 3c40
00000310: 7d33 34c0 755f 37c0 9c02 3840 d60a 4240
00000320: f566 3e40 29c3 2b40 68a0 2bc0 ebcc 3ec0
00000330: 9cea 3640 a49a 29c0 cf3a 3cc0 41de 2fc0
00000340: 11c6 2740 2253 3c40 59d1 30c0 cc30 37c0
00000350: 4852 3d40 38e9 3f40 17ce 2f40 695a 37c0
00000360: 5aec 2cc0 cd26 2f40 765e 2d40 5f34 30c0
00000370: b73c 2840 34cf 3e40 9f24 4240 c9a2 31c0
00000380: b8be 2840 6abd 2dc0 6226 36c0 099c 3240
00000390: b324 29c0 5551 3740 3508 37c0 ac65 2340
000003a0: a2c4 2e40 3af2 35c0 a648 2a40 0afc 2d40
000003b0: ed5b 27c0 c361 30c0 21b1 2fc0 1738 2d40
000003c0: 87b6 4540 99c1 3c40 75eb 3ac0 c55b 2f40
000003d0: f208 30c0 1afa 3ec0 a893 3740 bfd4 3e40
000003e0: b576 2f40 f512 3540 a9a6 36c0 5994 44c0
000003f0: d1d3 3940 2dd4 37c0 d1f0 3ac0 fa18 39c0
2.5833814 -2.691863 -2.3192513 -2.7804844 -2.6442583 2.903773 -2.9433267 -3.017534
-2.982768 -2.8154092 2.805172 -2.3688748 2.6409383 2.9741998 2.8276465 -2.9101458
-2.6864932 2.8280692 -2.6443367 2.919733 -2.8652596 2.77083 -3.0490155 2.7217605
3.0422986 2.9595106 -3.0141063 2.872551 2.6772087 -2.7005353 2.9357245 2.7861416
3.006168 2.821428 -2.789724 -2.7811544 2.8040097 -2.7327468 -2.7672973 2.760355
2.8958101 2.7821984 -2.9261756 -2.8547106 2.7184238 2.814605 2.9951627 -2.950633
-3.0081847 2.8566449 2.7936473 2.8868625 2.9052007 -2.8037689 2.898209 3.0624983
2.9219992 2.7501302 -3.0154462 2.709347 -2.8693783 -2.6921246 -2.8296854 3.0251327
2.7356272 -2.9773483 2.8537672 -2.9730275 2.7254517 -2.9221427 2.7218413 -2.783181
-2.843404 2.9613104 2.8449368 2.7623165 2.8284016 -2.8015804 2.841505 2.8161829
2.9594376 2.8428667 -2.8763402 3.0005028 -2.7094648 -2.9019344 -3.014906 2.7526577
2.975308 -2.6775112 2.9527068 -3.0237854 2.796858 -2.7463434 2.960921 -2.7896981
-2.925998 -2.770988 2.915106 -2.8641775 -2.744887 2.6862915 -2.7195618 -2.8399065
-3.0269096 -2.9960709 2.9869845 2.5997021 -2.9708357 2.8522272 2.9642894 2.8556936
-3.0037956 -2.7255573 2.7870574 2.7642584 -2.8490102 -2.6910472 -3.0028338 2.6629212
-2.823295 2.7080734 2.8202317 -2.858301 2.7063177 2.818878 -2.7496774 -2.8601515
-2.7633781 -2.8770607 3.0461652 2.731803 -2.5962343 2.9721904 2.944034 2.9113913
-2.8231606 -2.599365 2.9930143 3.0219882 -2.7010477 -2.9250798 -2.9054735 2.7172034
2.7106042 2.7250204 -2.8068793 2.8823082 -3.1275206 -2.651104 2.8426433 2.8916066
3.0400896 2.7616072 -2.6487818 -2.6884909 2.7600384 -2.729021 -2.7872572 -2.8098252
2.954947 3.0008507 -2.9033709 -2.8916092 2.7719653 2.6902256 2.675354 -2.9095142
-2.7244856 -2.866251 2.8891935 -2.8914294 -2.6641324 2.8546054 -3.0507178 -2.7629113
-2.6750946 -3.0563233 2.8888314 2.5917137 -2.9567027 2.938112 2.7919817 -2.9620874
-2.7126598 -2.6760767 2.6836925 2.822747 -2.717418 -2.9284549 -2.9398496 2.8903787
2.8103044 -2.9268568 -2.934086 2.9399078 -2.8156426 -2.8652012 2.8751593 3.0319114
2.975034 2.6837866 -2.6816654 -2.9812572 2.8580694 -2.6500635 -2.9410894 -2.7479403
2.621464 2.942574 -2.7627776 -2.8623533 2.958147 2.9986095 2.7469537 -2.8648932
-2.7019258 2.7367432 2.7088904 -2.7531965 2.6287057 2.9813967 3.0334852 -2.7755606
2.6366405 -2.714686 -2.8460927 2.7907736 -2.642865 2.864339 -2.859876 2.5530806
2.7307515 -2.8429093 2.660684 2.7185082 -2.6149857 -2.755967 -2.745186 2.7065485
3.0892656 2.9493163 -2.9206212 2.7399762 -2.750546 -2.984015 2.8683872 2.981735
2.7416203 2.829282 -2.8539221 -3.0715544 2.9035532 -2.8723252 -2.9209483 -2.8921494

rnn.bias_ih_l1 f4 [72]
00000000: 5c04 3f40 2f9d 2ec0 94d9 31c0 d71c 2ec0
00000010: 8bbf 2e40 9f39 3140 5072 36c0 6954 4040
00000020: 49fb 34c0 17b5 3740 2dbf 2dc0 d0b7 2e40
00000030: 56b5 2f40 35ed 2f40 bf6d 3040 c2be 3ec0
00000040: 50a1 32c0 9c95 45c0 3da8 3640 5866 37c0
00000050: b45d 36c0 1cca 30c0 9030 36c0 88d6 3ac0
00000060: 095e 4ec0 2039 3d40 0671 53c0 e7a0 51c0
00000070: 8f84 2e40 9d8a 2f40 39dc 1b40 6770 34c0
00000080: efb7 2540 2df8 2840 5f63 0c40 3d38 43c0
00000090: c845 46c0 99db 37c0 0e78 1740 a2c3 3640
000000a0: f88d 1340 0319 1a40 cc8e 2a40 7e1a 3640
000000b0: 24aa 3bc0 99d3 53c0 3589 1b40 eae1 51c0
000000c0: 43ca 2f40 e312 3940 c199 4340 1593 3340
000000d0: d431 3640 8562 31c0 d0fd 2640 cc5d 3cc0
000000e0: ddcb 3640 7d16 2840 03b0 3dc0 db5d 3140
000000f0: 9632 2dc0 c6b0 4540 c81d 33c0 6594 3740
00000100: 16aa 3740 6259 2ec0 34e9 3440 4afa 33c0
00000110: 356c 3540 df45 4240 95de 2a40 ba95 34c0
2.984641 -2.7283437 -2.778905 -2.7205102 2.7304409 2.769142 -2.850727 3.005152
-2.8278372 2.8704278 -2.7147934 2.729969 2.7454429 2.748853 2.7566984 -2.980393
-2.7910957 -3.0872564 2.8540184 -2.8656216 -2.8494692 -2.7623358 -2.846714 -2.919344
-3.2244895 2.9566116 -3.3037734 -3.2754457 2.7268407 2.7428353 2.4353163 -2.8193605
2.5893514 2.6401474 2.1935651 -3.0503075 -3.098009 -2.8727782 2.3667026 2.8556905
2.30554 2.4077766 2.6649656 2.845367 -2.9322596 -3.30979 2.4302495 -3.2794137
2.74672 2.8917778 3.0562594 2.8058522 2.8467913 -2.7716382 2.6092415 -2.943225
2.8561928 2.6263726 -2.963868 2.7713535 -2.7062125 3.0889144 -2.7986927 2.8684323
2.8697562 -2.7242055 2.8267336 -2.8121514 2.8347294 3.0355146 2.6698353 -2.8216386

rnn.bias_hh_l1 f4 [72]
00000000: 5563 2d40 cb6a 30c0 fb76 35c0 bc69 38c0
00000010: 118f 3540 3f8c 3a40 f97e 38c0 630a 4040
00000020: 27d1 2ec0 f62b 3b40 8368 32c0 01e8 2a40
00000030: e307 4140 61dd 2e40 8a4c 3a40 51fc 3dc0
00000040: 1b06 40c0 65a3 40c0 7c98 3240 0ac8 38c0
00000050: 7ed3 2bc0 1cc1 3bc0 0522 2cc0 da02 3bc0
00000060: d262 4ec0 7ddd 2a40 37ec 57c0 2a6d 46c0
00000070: 2748 1c40 c60c 2240 a933 1840 e6b7 49c0
00000080: b014 1b40 1474 2440 a174 1140 0356 48c0
00000090: a17c 58c0 6c67 3ec0 6c09 1f40 9a05 2f40
000000a0: 036d 1540 23d5 2340 a6c3 2640 b399 2840
000000b0: abe8 3ac0 b478 4fc0 0884 1840 b76b 4ac0
000000c0: 2c95 4140 46c8 3540 62da 2e40 3639 2e40
000000d0: 67aa 4040 ee09 3bc0 1027 2d40 f827 33c0
000000e0: 72e3 2940 e2c8 3340 a27f 29c0 2e6a 3740
000000f0: 3e67 34c0 98f0 4640 8a03 3fc0 b001 2b40
00000100: 7727 2740 b541 31c0 2d86 2d40 3692 34c0
00000110: 313e 3540 2cd0 2cc0 30f2 2140 9dad 22c0
2.7091877 -2.7565181 -2.835387 -2.8814535 2.836857 2.91481 -2.8827498 3.000634
-2.7315156 2.9245582 -2.787629 2.6704104 3.0161064 2.732262 2.9109216 -2.9685252
-3.0003726 -3.0099728 2.790557 -2.8872094 -2.6847835 -2.9336615 -2.6895764 -2.922049
-3.2247815 2.6697686 -3.3737924 -3.1004128 2.4419038 2.5320296 2.378153 -3.1518493
2.4231377 2.5695848 2.2727435 -3.1302497 -3.3826067 -2.9750624 2.48495 2.734717
2.3347785 2.5598838 2.6056914 2.634381 -2.920451 -3.2417421 2.3830585 -3.1628244
3.0247297 2.8403487 2.732079 2.7222419 3.0104005 -2.922481 2.7055092 -2.7993145
2.6545072 2.809136 -2.648415 2.8658557 -2.8188014 3.1084347 -2.984591 2.671978
2.6117837 -2.7696354 2.7113144 -2.821424 2.8319209 -2.7002058 2.530407 -2.5418465

rnn.weight_ih_l2 f4 [72, 24]
00000000: 7ef4 3140 81a2 3340 633d 40c0 244b 3340
00000010: 6535 2640 fd51 30c0 ce82 3140 d256 4840
00000020: 3185 2c40 fbd1 2940 246d 3ac0 2fdd 3ac0
00000030: 2b58 3d40 f321 3ac0 e79d 3dc0 32d6 2d40
00000040: e344 3d40 b1d3 4940 07e7 38c0 e389 2dc0
00000050: 36e0 3b40 9016 4240 d4bd 3040 db3e 37c0
00000060: 2318 37c0 0f9d 25c0 96ce 4340 ae45 38c0
00000070: fff1 2ec0 e38c 2d40 247d 2dc0 c680 32c0
00000080: 8b82 23c0 32ee 28c0 83f6 3a40 abd3 2d40
00000090: b0d5 41c0 b969 2a40 deb5 2440 18f3 28c0
000000a0: 21ae 34c0 ef0b 44c0 abfa 3540 3a14 2e40
000000b0: 9042 3ec0 6b46 40c0 36a8 35c0 5e6b 2b40
000000c0: 4687 3ec0 0a77 2ec0 6808 4140 4928 2ec0
000000d0: d23b 3bc0 56c1 3440 c40c 28c0 d352 37c0
000000e0: b4e4 26c0 e14c 2fc0 6750 3440 62b0 4540
000000f0: 920d 40c0 46fe 3140 d764 3040 096a 28c0
00000100: 93b5 39c0 8ab2 45c0 3436 4040 c1c7 3540
00000110: 72b0 2fc0 ee4b 3ac0 72d7 2ec0 a7e4 2f40
00000120: 6a62 71c0 d3d4 2c40 4052 6a40 6662 c2c0
00000130: e478 3440 6d15 2bc0 9346 3440 f8d7 3040
00000140: e9f3 2c40 fe22 3840 1545 2dc0 1472 6240
00000150: 89d5 42c0 9c87 38c0 6e4f 32c0 27bd 4140
00000160: ec92 3040 8849 40c0 d806 3b40 cbbe 32c0
00000170: 9443 0f40 3241 45c0 ae3c 3840 80af 30c0
00000180: 3d02 3ec0 6545 36c0 2b6f 5540 5b21 48c0
00000190: d25b 27c0 fb9f 3a40 c0c7 30c0 517e 34c0
000001a0: ed07 2bc0 58cb 2ec0 0358 3140 415d 5740
000001b0: 9463 2b40 853b 4040 3f13 3840 3062 30c0
000001c0: 124c 33c0 0cbc 2440 3550 21c0 ce34 3740
000001d0: 58d2 29c0 0815 50c0 2597 3bc0 3d82 3b40
000001e0: 907e 3240 e8d4 3e40 d478 3cc0 1225 3d40
000001f0: 31b6 3840 6c37 3fc0 5af3 2940 b8a4 3640
00000200: 58bc 3940 35ab 2740 d316 27c0 70d6 43c0
00000210: 83e2 28c0 204b 3ec0 e4fb 23c0 191b 2c40
00000220: 003f 3740 7346 34c0 2e64 2c40 fbbf 32c0
00000230: 277a 2e40 f890 3a40 3241 3c40 9c5a 3ac0
00000240: de7a 3140 95f0 4440 cb87 2ec0 a11f 2a40
00000250: e6a8 34c0 707b 40c0 d79e 3240 97b5 3840
00000260: 2fb2 2d40 fde1 3440 e5dc 37c0 3f6a 34c0
00000270: 803e 4640 9e2b 33c0 2dfc 3ac0 a7f4 31c0
00000280: fa3d 3440 8b89 3b40 b0b7 3ec0 3883 34c0
00000290: c39a 4340 83a7 2240 62e9 2a40 5095 39c0
000002a0: bdc9 5f40 1300 3840 4d3e f03f 5ebf 4d40
000002b0: 1dfa 2640 3fc6 3dc0 2ca6 3740 98bf 4740
000002c0: 71cc 3240 ef88 4540 bc5c 3bc0 e4bd 0440
000002d0: b311 20c0 698d 4ec0 10bb 2fc0 3afa 3d40
000002e0: 6efc 3440 a509 2bc0 206c 2e40 278e 3ec0
000002f0: e466 3d40 e4e0 22c0 628f 4340 b481 44c0
00000300: 2131 34c0 cbbf 29c0 ebd2 1c40 4322 3fc0
00000310: 668f 37c0 eaa5 3e40 e3f1 40c0 8842 32c0
00000320: 5ca6 34c0 b565 41c0 f29a 3d40 6eb7 2540
00000330: 76f2 3bc0 fcd7 4040 0936 2840 5be2 2ac0
00000340: d7b0 2ec0 fc3c 3ac0 c818 2a40 e653 3640
00000350: 1764 39c0 7fd2 13c0 8e89 41c0 b6a7 2f40
00000360: d4de 2ec0 8806 41c0 2112 3e40 a09b 3ec0
00000370: f8d2 16c0 2682 3340 6916 30c0 f40e 2ec0
00000380: 5118 32c0 cd63 42c0 11b9 2f40 e01a 3d40
00000390: bef6 44c0 fd93 3440 56da 1640 6658 4140
000003a0: 01fd 1ec0 2845 3ac0 a221 3a40 c4e1 3740
000003b0: 02e0 32c0 646d 2ec0 dd6e 3ac0 3812 3340
000003c0: 44ed 1dc0 41df 2ac0 4870 1c40 9c75 12c0
000003d0: 8076 34c0 a88a 2e40 7199 3ac0 dc55 48c0
000003e0: 5b32 2dc0 97df 2ac0 b38e 3040 7a96 2240
000003f0: dd47 3b40 ef6c 3540 efe3 3440 8db4 36c0
2.7805476 2.8067935 -3.0037467 2.8014612 2.597009 -2.7550042 2.7736087 3.130299
2.6956294 2.6534412 -2.9129114 -2.91975 2.9585063 -2.908322 -2.9627626 2.7161984
2.9573295 3.1535456 -2.8891008 -2.711541 2.9355597 3.032627 2.7615862 -2.8632114
-2.8608482 -2.587711 3.059484 -2.879253 -2.7335203 2.711724 -2.710763 -2.7891097
-2.5548427 -2.6395383 2.921296 2.7160442 -3.0286674 2.6627028 2.5736003 -2.6398373
-2.823128 -3.0632284 2.8434246 2.7199845 -2.9728127 -3.004298 -2.8383918 2.6784282
-2.9770064 -2.7260156 3.016138 -2.7212088 -2.9255261 2.8243003 -2.6257792 -2.8644302
-2.607709 -2.7390673 2.8174074 3.0888906 -3.0008283 2.7811446 2.7561548 -2.6314719
-2.9017074 -3.0890222 3.0033083 2.840317 -2.7451444 -2.9108844 -2.7318997 2.7483308
-3.7716317 2.7004898 3.6612701 -6.0745115 2.8198786 -2.6731827 2.8168075 2.7631817
2.702387 2.8771358 -2.7073414 3.5382128 -3.0442832 -2.883277 -2.786098 3.02717
2.7589674 -3.004488 2.9222927 -2.792895 2.2384996 -3.0821042 2.8787036 -2.7607117
-2.9688866 -2.8479855 3.3349102 -3.1270359 -2.6149793 2.9160144 -2.7621918 -2.8202097
-2.6723588 -2.731161 2.7709968 3.3650668 2.6779528 3.0036328 2.8761747 -2.755993
-2.801518 2.5739775 -2.5205204 2.862598 -2.6534634 -3.2512836 -2.9311001 2.929824
2.7889748 2.9817448 -2.9448748 2.9553876 2.88612 -2.9877577 2.655478 2.8538036
2.9021206 2.6198246 -2.610768 -3.0599632 -2.6388252 -2.9733353 -2.5622492 2.689154
2.8632202 -2.8167999 2.6936145 -2.7929676 2.7262056 2.9150982 2.9414792 -2.9117804
2.7731242 3.077184 -2.7270381 2.6581805 -2.8228087 -3.007534 2.7909448 2.8860834
2.7140005 2.8262932 -2.8728573 -2.8189847 3.0975647 -2.7995372 -2.9216416 -2.7805574
2.8162827 2.93027 -2.9799614 -2.820509 3.056321 2.541474 2.6704946 -2.8997383
3.4966881 2.8750045 1.8769013 3.2148051 2.6090157 -2.965225 2.8695173 3.121069
2.793728 3.0864828 -2.927535 2.07409 -2.5010803 -3.227381 -2.7457924 2.9683976
2.827907 -2.6724637 2.7253494 -2.9774263 2.959405 -2.5449762 3.0556264 -3.0704165
-2.8154986 -2.652331 2.4503734 -2.9864662 -2.8681273 2.9788766 -3.0147636 -2.7853107
-2.8226538 -3.0218327 2.962582 2.5893207 -2.9366736 3.0131826 2.628298 -2.6700656
-2.7295434 -2.9099722 2.6577625 2.8488708 -2.896734 -2.3097227 -3.0240207 2.7446113
-2.7323503 -3.0160236 2.9698565 -2.9782486 -2.3566265 2.8048186 -2.7513678 -2.7196627
-2.7827342 -3.0373414 2.7456706 2.9547653 -3.07756 2.8215325 2.3570762 3.0210204
-2.4841921 -2.910471 2.9083028 2.8731546 -2.7949224 -2.7254267 -2.9130166 2.797987
-2.4676065 -2.6698763 2.444353 -2.2884283 -2.8197327 2.727213 -2.9156153 -3.1302404
-2.7061985 -2.6698968 2.7587097 2.5404344 2.9262612 2.8347738 2.826412 -2.85477

rnn.weight_hh_l2 f4 [72, 24]
00000000: d5ea 35c0 40c9 1fc0 1da3 2840 4399 36c0
00000010: 6ab9 3fc0 7640 3ac0 3685 3540 9ff5 4640
00000020: 31ce 4dc0 6d29 30c0 45e4 3bc0 70f8 3ac0
00000030: b6ca 41c0 8664 4740 76be 36c0 ce8b 42c0
00000040: 06e7 49c0 975d 53c0 25c2 37c0 52c9 3e40
00000050: 1d6d 3a40 1706 42c0 37d0 36c0 733d 29c0
00000060: 2dd8 3b40 fdbd 3040 28d0 28c0 1575 2740
00000070: 59eb 2940 3267 3440 4a93 32c0 468f 29c0
00000080: 75e2 3e40 a41f 3940 acb2 4140 3ff0 3740
00000090: 9b4a 3a40 e300 46c0 e004 3040 26aa 3d40
000000a0: dee7 4140 3644 3640 6be4 3340 b470 25c0
000000b0: ed0d 2dc0 f806 3c40 0d71 3140 c605 2740
000000c0: b7e0 3040 fbde 2740 d1c5 34c0 5e2a 2b40
000000d0: f596 2f40 2e09 3640 ae7b 37c0 8e94 39c0
000000e0: b83d 3240 6559 3b40 9e6f 3440 1250 2840
000000f0: ff56 3a40 3b96 29c0 ad73 3540 7939 3c40
00000100: 83e4 3940 da7b 2f40 c163 3040 0243 37c0
00000110: 796f 3ac0 da73 3640 a295 3540 8376 3c40
00000120: 5428 33c0 707b 25c0 a9e9 2a40 28f1 2bc0
00000130: 3f9b 1cc0 4b22 25c0 15a5 3340 1897 38c0
00000140: c410 2840 26a4 24c0 32ad 45c0 7f3c 27c0
00000150: 1a1f 2ac0 912a 34c0 1fef 31c0 9705 4140
00000160: 78ad 2cc0 9e1a 3040 82b1 2bc0 399b 2940
00000170: 6e54 3bc0 ce7e 3f40 5a9a 32c0 a529 37c0
00000180: 600d 3140 6cae 1940 5ed7 23c0 b984 3c40
00000190: 9414 4040 41bf 2f40 d930 1ec0 bc1f 43c0
000001a0: 8764 3a40 027c 3340 66c3 4440 03cb 3b40
000001b0: f741 3740 a016 1d40 4cfd 2740 b319 3e40
000001c0: 4cfc 4b40 87aa 4c40 880e 3a40 e99f 2ac0
000001d0: a375 48c0 c6e4 3640 b9fe 3540 df11 2840
000001e0: 2255 3dc0 27dd 26c0 5a4e 2f40 93b3 39c0
000001f0: d1ec 3ec0 4b92 3bc0 160c 2240 ccbc 4e40
00000200: 6e4b 1d40 c50f 3fc0 6824 3fc0 e48f 37c0
00000210: 0ce9 3fc0 d81b 3740 98b6 27c0 826f 3fc0
00000220: 079d 44c0 1048 43c0 6e84 36c0 33c4 3640
00000230: b0a9 4740 9943 44c0 d170 43c0 6a57 22c0
00000240: da8b 31c0 d722 3840 0d63 25c0 5592 3cc0
00000250: ab13 31c0 7bc1 43c0 9f81 3e40 0cba 1e40
00000260: 9079 25c0 743b 32c0 fe75 35c0 c835 30c0
00000270: a5ea 45c0 1fb0 3940 b0ab 3b40 c043 30c0
00000280: 9c52 38c0 a21b 2bc0 dd0e 35c0 5cd4 3340
00000290: 82f7 2340 8430 3ac0 0c70 28c0 f557 2b40
000002a0: d025 3cc0 b5af 33c0 1be4 3640 2daa 4bc0
000002b0: 279e 3ec0 e781 43c0 0201 2e40 882b 19c0
000002c0: 5531 57c0 bca0 30c0 695d 25c0 c77a 42c0
000002d0: 82e1 2ec0 f451 46c0 0096 45c0 65dd 0140
000002e0: a22b 73c0 390e 2840 e147 38c0 68dc 3440
000002f0: d56c d0bf eca3 4f40 68e7 36c0 22a0 36c0
00000300: 8fa4 3d40 7dcf 3340 2184 39c0 f351 3340
00000310: f075 3d40 4ba2 2a40 aa79 35c0 1e47 24c0
00000320: 3e27 3340 c03f 3640 428c 3940 1d74 4140
00000330: ea44 2d40 67b4 37c0 fe09 3b40 340b 2a40
00000340: b5da 4040 378b 1c40 838a 3e40 375a 3ac0
00000350: 9fec 24c0 c8a3 3c40 129d 3540 1fce 3840
00000360: 9c28 5740 3662 2dc0 2596 55c0 c546 3740
00000370: e3a9 4240 d6cf 5d40 c8d7 38c0 91aa 25c0
00000380: 4051 3340 6bed 4940 8a18 4240 fb7c 4f40
00000390: 275a 3440 b0b4 2ac0 5f01 4540 17d8 3f40
000003a0: 8f60 3740 e39e 2d40 e87b 5740 c874 43c0
000003b0: 87fe 30c0 c638 3140 0f24 3040 df2b 3d40
000003c0: 5f18 3640 99f9 3040 daad 31c0 2bde 4340
000003d0: a1a9 4a40 cebe 3440 15fe 2dc0 b7c4 5bc0
000003e0: 6abd 4340 df02 3840 15d8 3a40 32a9 3040
000003f0: 312c 3a40 41fa 3cc0 6228 2b40 9ab7 5740
-2.842458 -2.4966583 2.6349556 -2.8531044 -2.9956918 -2.9101844 2.8362556 3.1087415
-3.21571 -2.7525284 -2.9358075 -2.9214134 -3.0279975 3.1155105 -2.8553748 -3.039783
-3.1547256 -3.3025873 -2.8712246 2.9810376 2.9129097 -3.0316217 -2.8564584 -2.6443756
2.9350693 2.761596 -2.6377048 2.6165211 2.6549895 2.8187985 -2.7902398 -2.6493697
2.9825718 2.8925562 3.0265303 2.8740385 2.9108036 -3.0938041 2.7502975 2.96351
3.029777 2.8479133 2.8108165 -2.5850039 -2.703975 2.9379253 2.772525 2.6097274
2.7637155 2.6229846 -2.8245738 2.674461 2.7435887 2.8443103 -2.8669238 -2.899692
2.785017 2.9273312 2.8193126 2.629887 2.9115598 -2.6497943 2.8351853 2.9410079
2.9045722 2.7419343 2.7560885 -2.8634648 -2.9130538 2.850821 2.8372579 2.9447334
-2.7993364 -2.585659 2.6705115 -2.686594 -2.4469755 -2.580218 2.8069508 -2.884222
2.6260233 -2.5725188 -3.088696 -2.6130674 -2.6581483 -2.815098 -2.7802198 3.0159662
-2.6980877 2.7516246 -2.6827092 2.650099 -2.9270282 2.9921145 -2.7906709 -2.8619168
2.7664413 2.4012709 -2.56002 2.9456007 3.001256 2.7460482 -2.4717314 -3.048812
2.9123857 2.8044438 3.0744262 2.9342659 2.8634012 2.454506 2.624835 2.9703186
3.187274 3.1979082 2.907137 -2.6660101 -3.13218 2.8577132 2.843672 2.6260908
-2.958321 -2.607248 2.7391572 -2.9015853 -2.9832041 -2.930804 2.5319877 3.2302732
2.4577289 -2.9853375 -2.986597 -2.8681574 -2.998599 2.8610744 -2.6205196 -2.991181
-3.0720842 -3.0512733 -2.8518329 2.855725 3.119732 -3.0666258 -3.0537608 -2.5365853
-2.7741609 2.8771265 -2.5841706 -2.9464314 -2.7668254 -3.058684 2.9766614 2.4801054
-2.5855446 -2.7848787 -2.8353267 -2.7532825 -3.0924466 2.9013746 2.932354 -2.7541351
-2.880042 -2.6735616 -2.8290322 2.8098364 2.5619817 -2.9092112 -2.6318388 2.6772435
-2.939808 -2.8075993 2.8576725 -3.1822617 -2.9784029 -3.0548036 2.7188115 -2.393282
-3.362386 -2.7598104 -2.5838263 -3.0387437 -2.732514 -3.098752 -3.0872803 2.0291378
-3.7995381 2.625868 -2.8793871 2.8259525 -1.6283213 3.24438 -2.857874 -2.8535237
2.9631689 2.809539 -2.8986895 2.8018768 2.9603233 2.6661556 -2.8355508 -2.5668406
2.7992702 2.847641 2.8991857 3.022712 2.7073312 -2.870386 2.9224849 2.6569338
3.0133488 2.445997 2.977204 -2.9117563 -2.5769422 2.9474964 2.8377118 2.8875806
3.3618536 -2.7091193 -3.337289 2.8636944 3.041619 3.4658103 -2.8881702 -2.5885355
2.801834 3.1551158 3.0327477 3.2420032 2.8180025 -2.6672783 3.0782087 2.997564
2.8652685 2.7128227 3.3669376 -3.0540028 -2.765535 2.7690902 2.7522008 2.9558027
2.8452375 2.7652342 -2.776236 3.060435 3.1666033 2.8241458 -2.718633 -3.4338815
3.058436 2.8751752 2.9194386 2.7603269 2.9089472 -2.9527743 2.6743398 3.3705812

rnn.bias_ih_l2 f4 [72]
00000000: 890d 35c0 3f25 3440 219b 2b40 b20c 3ac0
00000010: 0cb4 3040 3326 36c0 41c1 2ac0 6ed6 43c0
00000020: 6743 3240 5833 3c40 e656 2840 2da3 2ec0
00000030: f467 34c0 e277 4040 8415 3340 c6b3 34c0
00000040: 77d8 3340 b497 3740 eaf9 3c40 c706 39c0
00000050: 3015 40c0 4eba 2940 8e2d 29c0 ef26 3e40
00000060: 4656 1540 b798 4ac0 7626 1fc0 17e4 45c0
00000070: d5a6 4cc0 b40c 3cc0 5ce7 50c0 3b3b 2140
00000080: 0729 61c0 31d6 0540 59aa 3fc0 a3d0 0740
00000090: fb89 2440 4eed 2e40 7820 1840 06d6 2d40
000000a0: f3f9 56c0 445c 1840 5bc9 1640 750f 1240
000000b0: 65f6 0b40 5ace 57c0 fc65 40c0 a01b 45c0
000000c0: e347 2ac0 d941 3cc0 63c1 3640 f785 3bc0
000000d0: 5243 31c0 60c6 23c0 7a97 3e40 0250 32c0
000000e0: 2173 4440 3378 30c0 3dc9 29c0 1a81 2fc0
000000f0: 50f0 3cc0 0eda 2ec0 b5f5 36c0 f59e 4140
00000100: 85dd 2d40 ec76 3440 806a 3cc0 9b5a 3640
00000110: d4e6 2fc0 ef92 2ac0 9612 3840 f42f 2dc0
-2.8289511 2.8147733 2.6813433 -2.9070249 2.7609892 -2.8460815 -2.6680453 -3.0599627
2.785364 2.9406338 2.6303039 -2.7287095 -2.8188448 3.007317 2.7981882 -2.8234725
2.810087 2.8686342 2.9527535 -2.8910387 -3.0012932 2.6519961 -2.6434054 2.9711263
2.3333907 -3.165571 -2.4867225 -3.0920465 -3.1976826 -2.9382753 -3.264121 2.5192401
-3.518129 2.0911982 -2.9947722 2.1221092 2.5709217 2.733234 2.3769817 2.716188
-3.3590057 2.3806314 2.3560398 2.2821934 2.1869137 -3.3719697 -3.0062246 -3.079811
-2.6606376 -2.941519 2.8555534 -2.9300516 -2.769734 -2.5589828 2.9779954 -2.7861333
3.069527 -2.7573364 -2.6529076 -2.7422547 -2.9521675 -2.732059 -2.8587468 3.025327
2.7166455 2.8197584 -2.9440002 2.84928 -2.7484636 -2.665218 2.8761344 -2.7060518

rnn.bias_hh_l2 f4 [72]
00000000: 3bce 37c0 91dd 3740 7009 3940 cbae 2fc0
00000010: bcb6 2a40 45f6 31c0 9cfb 2ac0 3fbf 3bc0
00000020: 6ebe 4540 c330 4640 03f7 3840 a6b7 35c0
00000030: b1cc 39c0 9105 4640 c3a6 3540 7a8d 3ac0
00000040: a40c 4740 0fdb 3540 0945 4540 74f1 41c0
00000050: 38f5 41c0 b2eb 3940 994f 2ac0 4b1b 3e40
00000060: ecbc 0e40 a3fc 4ec0 031e 20c0 d86c 33c0
00000070: bc09 44c0 78ce 38c0 dbed 55c0 63dd 1f40
00000080: 3e6e 5fc0 57fd e33f 2c08 4ac0 1c67 ff3f
00000090: c6a9 2240 d8d4 3140 5178 1140 997a 2d40
000000a0: 4d68 40c0 cddc 1540 4918 2240 fb67 2040
000000b0: 14c8 1440 3950 54c0 7c7d 39c0 c135 4bc0
000000c0: d806 2ac0 2c6e 32c0 2a32 3b40 0e20 24c0
000000d0: af30 3340 1963 23c0 c2c8 2640 ed5a 2bc0
000000e0: 6cf9 3a40 3b60 3ac0 11fd 42c0 f6ed 21c0
000000f0: 85be 3bc0 a568 3fc0 c54f 3bc0 317b 3e40
00000100: 0934 4440 2b6a 3940 660a 37c0 9216 2740
00000110: 3193 29c0 7320 47c0 df84 4840 097c 26c0
-2.8719623 2.8728983 2.891201 -2.7450435 2.6674032 -2.780656 -2.671607 -2.9335477
3.089748 3.0967262 2.8900764 -2.839334 -2.9031184 3.0940897 2.8383033 -2.914885
3.1101465 2.8414953 3.0823386 -3.0303621 -3.030592 2.9050107 -2.6611083 2.9704158
2.2302809 -3.2341697 -2.5018318 -2.8035183 -3.0630941 -2.8876019 -3.3426425 2.4978874
-3.4911036 1.7811688 -3.1567488 1.9953341 2.5416121 2.778616 2.2729685 2.7106078
-3.006366 2.3416016 2.5327322 2.5063465 2.3247118 -3.3173964 -2.898284 -3.1751559
-2.6566677 -2.7879744 2.9249368 -2.5644565 2.7998464 -2.5529234 2.6060033 -2.6774247
2.9214735 -2.9121234 -3.046696 -2.530149 -2.9335034 -2.990762 -2.9267437 2.976269
3.065676 2.897105 -2.8600097 2.6107526 -2.6496089 -3.1113555 3.1331098 -2.6013205

fc.weight f4 [6, 24]
00000000: 43f9 1e40 83f0 2140 172b 20c0 afdd 3540
00000010: 9061 4040 d8b9 2f40 cd33 23c0 64c9 54c0
00000020: e720 4a40 654f 2640 5dec 2c40 f618 2640
00000030: 7078 2d40 210d 3bc0 66c5 2e40 5ebc 4340
00000040: 5111 4540 2e66 4b40 ed30 3740 a192 34c0
00000050: 7cc1 4bc0 b343 3140 b828 3d40 4583 3040
00000060: 86f7 2540 ffd4 2140 da0f 2ec0 230b 3840
00000070: 63e0 2c40 ff7b 2c40 d1e3 22c0 fb6d 4cc0
00000080: 2cbe 4940 62d3 2e40 b476 2e40 0645 2e40
00000090: 9ce8 3140 e40d 3dc0 84c7 2a40 7106 4b40
000000a0: 8b7e 4d40 25eb 4e40 43c1 2640 d439 2bc0
000000b0: 20c9 4ac0 ce34 3140 bc35 3f40 fce0 2740
000000c0: b35a 2a40 fa0a 3340 20c7 2cc0 5edc 2d40
000000d0: 6ba9 4140 ba29 2a40 6579 1ec0 653d 4ac0
000000e0: a613 5040 2ec7 2b40 611d 2b40 fe7c 2840
000000f0: 286c 3640 0d2d 3bc0 12fe 2340 bc83 4340
00000100: 5e70 4b40 1299 4d40 40c7 2740 d9c4 37c0
00000110: 69db 51c0 edd9 3240 5301 3a40 2a08 1f40
00000120: e871 3540 d8cd 2a40 9bcb 1ec0 67e8 3740
00000130: 7e28 3e40 48fb 1f40 9162 27c0 d055 57c0
00000140: d5cb 4140 81a8 3340 0223 2b40 491f 2140
00000150: 0875 3540 e391 3bc0 035f 2b40 d01e 4340
00000160: 73ce 4840 5d92 4d40 6ca0 2440 3b9f 36c0
00000170: 6495 4bc0 1033 3040 2540 3c40 fc31 2240
00000180: 4dcc 2a40 7410 2140 0495 21c0 b74b 3240
00000190: 6f39 3d40 de28 2e40 03b0 22c0 c365 52c0
000001a0: 66c3 4840 61db 3d40 d6bd 2d40 cb03 2440
000001b0: 13f8 2e40 8a56 3bc0 070e 2240 56ce 4640
000001c0: a052 4b40 969d 4c40 ec18 2940 e9a2 25c0
000001d0: 2a1b 48c0 a7bf 3040 2f3d 4240 6401 3640
000001e0: 646b 3640 1ed4 4a40 9b4a 4ac0 ea00 fe3f
000001f0: 1d3f 0540 2ba1 3240 a6fa 4fc0 e6be 3fc0
00000200: a5c3 1840 d804 2c40 0434 0b40 e702 2e40
00000210: dd6f 2640 5c4d 2740 ccc0 3540 ff66 40c0
00000220: c7f5 2a40 fa6b 3ac0 34df 2e40 e762 2dc0
00000230: 3d50 3b40 8267 69c0 ab8d 2940 b761 3540
2.4839637 2.5303047 -2.50263 2.8416555 3.0059547 2.745718 -2.5500367 -3.324792
3.1582582 2.5985959 2.7019265 2.5952735 2.710476 -2.9226763 2.7307982 3.058372
3.079182 3.1781116 2.8623612 -2.8214495 -3.1836843 2.769757 2.9556103 2.758012
2.5932326 2.5286252 -2.7197175 2.8756797 2.7011955 2.6950681 -2.5451548 -3.1942127
3.1522322 2.7316518 2.725995 2.7229629 2.7798223 -2.9539728 2.6684275 3.1722682
3.2108486 3.233102 2.6055458 -2.6754045 -3.1685257 2.768848 2.9876547 2.623107
2.6617858 2.797545 -2.6996536 2.7165751 3.0259655 2.6587968 -2.4761593 -3.1599972
3.2511992 2.684032 2.6736681 2.632629 2.8503513 -2.9246247 2.5623822 3.0549154
3.1787333 3.2124677 2.6215363 -2.8713896 -3.2790167 2.7945511 2.9063308 2.4848733
2.8350773 2.6688137 -2.481177 2.8735597 2.9712214 2.499712 -2.615391 -3.3646126
3.028066 2.8071597 2.6740117 2.5175345 2.835268 -2.9307792 2.677674 3.0487556
3.1376007 3.2120583 2.5722914 -2.8534687 -3.180993 2.7531166 2.941415 2.5343008
2.6687195 2.5166292 -2.5247202 2.7858713 2.9566305 2.7212443 -2.541993 -3.287461
3.1369262 2.9665148 2.7147117 2.5627315 2.7338912 -2.927157 2.5321062 3.1063437
3.176918 3.1971183 2.642146 -2.5880682 -3.126658 2.7616975 3.0349844 2.8438349
2.8503046 3.1691966 -3.1608036 1.9844029 2.0819771 2.791087 -3.2496734 -2.9960265
2.3869412 2.6877956 2.1750498 2.7189271 2.6005776 2.6140966 2.8398924 -3.0062864
2.671251 -2.9128404 2.7323732 -2.7091615 2.9267724 -3.6469426 2.6492717 2.834089

fc.bias f4 [6]
00000000: 8777 3840 7f68 3f40 ce88 3b40 53ca 3840
00000010: d5fd 3b40 7e54 3640
2.8822954 2.990753 2.930225 2.887349 2.9373677 2.848907
