Supervisor.pth (torch, 33577 bytes, 10 tensors)

rnn.weight_ih_l0 f4 [72, 24]
000000 00 91 8f 3d d9 59 c2 3d 60 60 2c be ad 24 2e 3e
       0.070100784 0.09489793 -0.16833639 0.17006178
000010 40 48 35 3e f6 90 a1 bc 1e 08 a3 3d 8e e4 b9 bd
       0.17703342 -0.019722443 0.079605326 -0.090767965
000020 04 ce 06 3e f0 7e b7 bc 4b 76 ba bd 31 57 42 bd
       0.13164526 -0.022399396 -0.09104594 -0.047446433
000030 d7 06 31 3e 8f 41 25 3e fd bf af 3d b3 17 24 be
       0.17287765 0.1613829 0.08581541 -0.16024666
000040 4a f9 95 3d 5c a8 bd 3c 06 32 50 3e 6e 35 48 be
       0.07322939 0.023151569 0.20331582 -0.19551632
000050 b9 fb 2d bd f9 53 a8 bd b8 cc 61 3d 1b 94 3a be
       -0.04247639 -0.082191415 0.055126876 -0.1822056
000060 57 c3 82 3c bc 60 3c be 51 9f 39 3e c1 f8 de 3d
       0.015962286 -0.18396276 0.1812718 0.1088729
000070 64 62 f3 bd 5f ec 78 3d ce fc 0a bd b1 26 b3 3d
       -0.11884001 0.060772296 -0.0339325 0.08747614
000080 90 f7 43 3e 24 37 7f bc bb 65 76 3c b5 dc 01 3e
       0.19137406 -0.015577111 0.015038903 0.1268185
000090 c5 2a 35 3d 54 bb 23 be 27 e2 81 bd 87 7b 74 bd
       0.04423024 -0.15989429 -0.06341963 -0.059688117
0000a0 38 d8 a6 bd bc 72 71 bd 39 bd d6 3d 17 01 3e be
       -0.08146709 -0.05894731 0.1048531 -0.18555103
0000b0 53 5f 12 be d8 96 c1 3c e7 8c 67 bd 0e 6c 5c 3d
       -0.14294176 0.023631498 -0.05653086 0.053813986
0000c0 16 31 d4 3d 8c 9e 2a be 37 81 40 3e 15 0c 42 3e
       0.10360925 -0.16662043 0.18799292 0.18949921
0000d0 07 f3 ed bd 99 16 32 be f9 da 12 bc 13 9b 23 be
       -0.116186194 -0.17391433 -0.00896334 -0.15977125
0000e0 d1 b7 de 3d 26 18 2c 3e 6d 46 d1 bc 3d d3 4b 3c
       0.10874904 0.16806087 -0.025546277 0.0124405
0000f0 8e ee 72 bc a0 96 10 3d 1f 97 5d 3c 3f f8 27 3e
       -0.014827384 0.035299897 0.0135248 0.16403292
000100 3e 98 2e 3e ad 44 7a 3d 1a 7a 4c 3e ec f7 32 3d
       0.17050263 0.06110065 0.19968453 0.043693468
000110 10 9a f7 3b 34 23 3a bc f8 6a c6 bc 0a b1 30 be
       0.0075562075 -0.011360932 -0.024220929 -0.17255035
000120 56 67 65 3d 94 bf dc bd a6 35 32 be 2f 40 d2 bd
       0.056006752 -0.10778728 -0.17403278 -0.10266148
000130 3d 6e 3a be fd 26 c9 3d e8 6d f4 bd 68 b8 b5 bd
       -0.18206115 0.098218895 -0.119350255 -0.08873063
000140 2f 88 26 be a0 4e 20 be 48 a5 fc bd 15 28 4a 3e
       -0.16262887 -0.15654993 -0.123362124 0.19741853
000150 7c 24 11 be ef 81 3b be 28 16 0f 3d 1d 1f 4a 3e
       -0.14174074 -0.18311284 0.03493324 0.19738431
000160 3d 6f 32 be 70 de 1d be aa f8 1a 3e 11 74 4c be
       -0.17425247 -0.15416884 0.1513392 -0.19966151
000170 81 5e 08 be 69 01 18 3d 3e cd 26 bd ce 49 7b bd
       -0.133173 0.03711072 -0.040723078 -0.061349683
000180 23 db 73 3d 64 d6 85 bd cc ba 44 be c5 a2 6b bd
       0.059535157 -0.065350324 -0.19211882 -0.057528276
000190 5e 3d 05 be 78 d2 75 bd 65 de 3f bd 76 24 cd 3d
       -0.13011691 -0.06001517 -0.04684295 0.1001672
0001a0 52 b2 cc bc 45 ea d7 3d df 6b 7a 3d 03 9d 7f bd
       -0.024987374 0.1054273 0.06113803 -0.062405597
0001b0 f7 11 0a 3e 35 79 1a 3e cc 6f 0b 3e b7 90 95 bd
       0.13483416 0.150853 0.13616866 -0.07302993
0001c0 02 9f db bd 49 c4 2f 3d 46 79 d2 3c 8b 9a 1a 3e
       -0.10723688 0.0429118 0.025692593 0.15098016
0001d0 a5 3f 1c be 24 bc dd bd f2 39 3a be 75 d2 be 3d
       -0.15258653 -0.108269006 -0.18186167 0.09317485
0001e0 68 79 c3 bd 7d d9 af bc 4c 81 ac bd 14 43 81 bd
       -0.09544641 -0.021466011 -0.08423099 -0.06311622
0001f0 e7 9e e7 bb 8e 0a 08 be 3b 69 33 be 5d e4 c5 3d
       -0.007068503 -0.13285276 -0.17520611 0.096626975
000200 55 90 fa 3c 7b 17 c6 bc cd 1a c5 bc 5b f1 03 bd
       0.030586401 -0.024181118 -0.024060631 -0.032212596
000210 82 eb 4e 3e cd 34 35 3e 20 34 19 be b5 81 05 3e
       0.20207027 0.17695923 -0.1496129 0.1303776
000220 1e 92 8c bd 49 05 b5 3c c1 0d 19 be 1e 77 91 bd
       -0.06863807 0.022097247 -0.14946653 -0.07102798
000230 d5 26 0a be 03 db 8c bd 0e b9 40 3e b3 df 2c 3d
       -0.13491376 -0.06877711 0.18820593 0.042205524
000240 1a e2 e9 bd 51 ac 1e 3e 3a ff bd 3d 4d 8a da bd
       -0.114200786 0.15495421 0.09277196 -0.1067091
000250 02 43 1a bd 88 92 24 3e 00 1d 0a 3e 5c eb 91 bd
       -0.03766156 0.16071522 0.13487625 -0.07124969
000260 be b3 11 be c2 c0 32 bb f1 d9 1e be f9 3e 00 3e
       -0.14228722 -0.0027275537 -0.15512826 0.12524022
000270 66 43 a5 bd 15 aa 48 be a1 1e fc 3b 60 84 9f 3d
       -0.08069496 -0.19596131 0.007694081 0.077889204
000280 54 fb b6 bb da 40 a8 3d 29 fb e9 bc 65 bd dd 3d
       -0.00558416 0.082154945 -0.028562145 0.1082714
000290 a1 da ee 3d b8 db eb 3b 48 cc 99 bb 5c 65 db 3d
       0.11662794 0.0071978234 -0.0046935417 0.10712692
0002a0 24 28 f4 3c a1 c6 d2 bd dc bd db 3c d6 9f d9 bd
       0.029804297 -0.10291792 0.02682393 -0.106261894
0002b0 ff 05 2c be 0e 25 14 3e 12 10 03 3e f0 cb 50 3e
       -0.16799162 0.1446726 0.12799099 0.20390296
0002c0 15 a2 6a bd c9 e7 3f 3e 36 78 46 be 72 dc 27 be
       -0.05728348 0.18740763 -0.19381794 -0.16392687
0002d0 f1 04 eb bd 9b 97 4b 3e 38 c3 b2 3d 4e 6e 1a be
       -0.11475552 0.19882052 0.08728641 -0.1508114
0002e0 94 44 55 3c e0 94 9e 3d 48 6f cf bc 35 ce e8 bd
       0.013016839 0.077432394 -0.025321618 -0.11367456
0002f0 0d cd 74 bd f1 b3 02 3e a7 37 e7 3d 77 87 48 be
       -0.059765864 0.12763955 0.11289912 -0.19582926
000300 45 67 14 3e 9d 35 43 be 79 1f 04 3e a9 d8 b4 3d
       0.14492519 -0.1906342 0.12902631 0.08830387
000310 47 0e 8d 3c 7d 65 34 be 6d 4c 15 be ed d4 83 bd
       0.017218722 -0.1761684 -0.14579935 -0.06437097
000320 95 61 38 be aa 82 ee 3d 6b a5 20 be b4 f2 34 3e
       -0.18005975 0.11646016 -0.15688102 0.17670709
000330 25 dc 38 39 f6 31 24 3e 99 d0 8b 3d d9 5d b3 bd
       0.00017629618 0.16034684 0.06826896 -0.087581344
000340 8f d6 a9 3d 0f be 26 be 78 4e d8 3d 10 fd 40 3e
       0.08292877 -0.16283439 0.10561842 0.18846536
000350 4d 5f 9b 3d 56 da 36 bd 0a 97 e9 bd d4 24 2a 3b
       0.075865366 -0.044641815 -0.114057615 0.0025961893
000360 64 99 4c 3e 8f cc 9d bd d2 47 06 bd b0 96 55 3d
       0.19980389 -0.07705032 -0.032783337 0.05214566
000370 88 fc e4 bd 2a 79 1d be d2 f6 01 bd e9 51 14 be
       -0.11180979 -0.15378252 -0.031729527 -0.14484371
000380 34 b9 12 3e f9 3e 92 3d 69 ad 4f bc c9 c6 dd 3d
       0.14328462 0.07140917 -0.012675622 0.10828931
000390 2b b7 e7 3d 4e 85 cd 3c be 7b b2 bd f6 39 e9 bd
       0.113142334 0.025087979 -0.08715008 -0.11388008
0003a0 01 59 3d bd b2 e6 3f be fa 41 9d 3c 3c af a7 3d
       -0.04622746 -0.18740347 0.0191965 0.0818772
0003b0 35 a0 cf 3d 73 1a e2 bd de 23 62 bd ad 99 2c 3e
       0.10137979 -0.11040201 -0.055209987 0.16855498
0003c0 e8 d0 a1 3c c6 04 45 3e 55 5b ed 3d bf f5 d4 3d
       0.019752935 0.19240102 0.11589686 0.10398435
0003d0 50 87 fb bd 23 b7 0e 3d 7e ea 16 be f5 f2 77 3c
       -0.12281668 0.03484262 -0.14737889 0.015133609
0003e0 b5 73 b0 3d 92 4d 3a 3e d7 2f 47 3e ee 7b 0d 3e
       0.08615819 0.18193653 0.19451843 0.13816807
0003f0 01 3c 35 3e ed 32 a8 bd 13 3f 4d be 79 79 07 bd
       0.17698671 -0.08212838 -0.20043592 -0.03307483

rnn.weight_hh_l0 f4 [72, 24]
000000 a1 02 a9 3d 22 80 27 3e 3d 73 ea bc 1f 36 7f 3d
       0.082524545 0.16357473 -0.028619403 0.062307473
000010 02 d2 3a 3d 78 73 18 be 3f 69 66 3d ea 5b 02 3e
       0.045610435 -0.14887798 0.056252714 0.12730375
000020 04 09 0b bd cf ad 01 3d fc ca 03 3e da 9b b3 bd
       -0.033944145 0.031659897 0.12870401 -0.08769961
000030 96 cb 3c 3e aa 32 28 3d ee fe 3c be c7 ba 35 3d
       0.18437037 0.041063942 -0.18456623 0.044367578
000040 e0 5d f4 bd 49 16 05 bd b8 78 6b bd a2 a0 07 be
       -0.11931968 -0.032491956 -0.057488173 -0.1324487
000050 4b 34 13 3e b7 4e 25 3e 0b 5d 21 3e a2 5e 98 3d
       0.14375417 0.16143309 0.1575815 0.07439925
000060 e8 58 35 3e 5d 1e 77 bd af f4 29 be ab c8 86 bd
       0.17709696 -0.06033169 -0.16597246 -0.06581243
000070 2f a2 09 3e 35 f2 32 3e ea f2 01 be 00 82 2b be
       0.13440774 0.17475207 -0.1269032 -0.1674881
000080 98 14 91 bb dd 0b 87 bd 5f 26 38 3d 7b 5d 3a bd
       -0.004427504 -0.065940596 0.04495847 -0.045499306
000090 95 28 f6 3d 02 25 1c 3e db 01 42 3b 57 6b ef bb
       0.12019459 0.15248492 0.0029603157 -0.007306497
0000a0 d1 77 4d be bf c3 70 bd 9f 71 fd bd 00 2c 1e be
       -0.20065238 -0.058780428 -0.12375187 -0.15446472
0000b0 c2 de 3c be 38 cc 02 3e c0 e5 2f bd f9 72 9b 3d
       -0.1844435 0.12773216 -0.042943716 0.07590289
0000c0 e4 58 3a 3e 92 f1 43 3d 76 75 84 bc 9d 1f d3 bd
       0.18197972 0.0478378 -0.016169291 -0.10308764
0000d0 13 06 da 3b 23 8a 13 3d 61 10 32 3e 2c 24 f3 bd
       0.006653556 0.03602041 0.1738906 -0.118721336
0000e0 c8 1e 3c bd af d3 bb bd 15 b8 c4 3c bf 62 1f 3e
       -0.045927793 -0.09171235 0.024013558 0.15565012
0000f0 3f 37 0b be fd 20 01 3d dc 67 13 3e c5 59 eb 3d
       -0.13595293 0.0315256 0.14395088 0.114917316
000100 e9 d1 39 3d 63 87 06 3e 8d 36 80 3d 6b a2 1c be
       0.0453662 0.13137583 0.06260405 -0.15296333
000110 95 4c 02 be ae 07 36 3d 7b 27 3f 3e 25 df c5 bb
       -0.12724526 0.044440918 0.18667404 -0.006038564
000120 56 44 3d bd 57 fc a5 bd 90 5d fd bd 81 f9 60 bd
       -0.04620775 -0.08104771 -0.12371361 -0.054925445
000130 f5 fc 5d bd 0f de 1f be 99 a2 b2 bc ff a9 39 3e
       -0.054196317 -0.15612052 -0.021806048 0.18131255
000140 e1 57 f5 bb ed f0 a4 bd 51 71 ab bd 1f a1 d5 bc
       -0.0074872826 -0.080537654 -0.08371223 -0.026077805
000150 a6 e8 16 be d1 25 ad 3c f6 b3 3f 3d df 65 51 bd
       -0.14737186 0.021136196 0.046802483 -0.051122542
000160 aa 35 ac 3d 22 f7 b3 bd e2 81 d1 bd af fb 03 3e
       0.08408673 -0.08787371 -0.10229851 0.12888978
000170 1b 12 33 3e 55 dc 9b bd fb 15 db 3d 50 27 2b 3e
       0.17487375 -0.076103844 0.10697552 0.16714215
000180 00 1b 03 3e ad b8 08 be 3c 89 45 3e 0d 83 c8 3d
       0.12803268 -0.13351698 0.19290632 0.09790621
000190 b6 33 2a 3e 73 0c 00 be e6 19 2d be d5 fc 31 be
       0.16621289 -0.12504749 -0.1690441 -0.17381604
0001a0 b8 28 3a be 6e f3 e5 3d 60 ce 2f be 0e 97 b5 bd
       -0.18179595 0.11228071 -0.1716857 -0.08866702
0001b0 5c 39 a8 bd 74 6c fb bc 1a 5f 90 bd a4 4f f9 bd
       -0.082140654 -0.030691363 -0.07049389 -0.12173393
0001c0 1b b7 41 be eb a4 3e 3e 6e 41 94 3d 32 b6 c4 3d
       -0.18917505 0.18617599 0.07239042 0.096050635
0001d0 30 44 80 3d dc 97 45 3e 75 4e 15 be a8 ec 82 bd
       0.06263006 0.19296211 -0.1458071 -0.06392795
0001e0 2a 13 ff 3c 1c 38 42 be 3a 59 f2 3d cb d7 21 bc
       0.031137068 -0.18966717 0.11833425 -0.009878109
0001f0 1f ee ce bc f8 ec e6 3d 52 ab d8 3c d8 de f9 bd
       -0.02526003 0.11275667 0.02644888 -0.12200707
000200 e0 a6 20 3e 1f 18 1d be 60 26 2d 3b 14 69 22 bd
       0.15688658 -0.15341233 0.0026420578 -0.03965099
000210 7e 57 8d 3d a2 2a 38 3d bf 0b 98 bd bc c6 3b be
       0.069014534 0.044962533 -0.074241154 -0.1833753
000220 86 bc 48 3e 17 cb e6 bd 7a 98 45 be c5 1c d5 bd
       0.19603166 -0.11269205 -0.19296446 -0.10405878
000230 d9 55 4b 3e 21 71 34 bd a7 84 01 3e 8d 70 04 bd
       0.19856967 -0.0440532 0.12648259 -0.0323339
000240 76 01 48 3e c3 6e 25 3c 45 5c f6 bd cb d1 48 be
       0.19531807 0.010097208 -0.12029318 -0.1961128
000250 d7 ef 3a be db 0f 3a 3e 30 50 1e 3e db dd 60 bd
       -0.18255554 0.18170111 0.15460277 -0.054899078
000260 a5 30 12 bd 15 73 19 bb b7 66 3a 3d e6 ce 4e be
       -0.035690922 -0.0023414542 0.045508113 -0.20196113
000270 8d f6 15 be f1 f1 68 bd 9f 24 86 bd 5e 68 1d 3e
       -0.14644833 -0.05687136 -0.06549954 0.15371844
000280 84 56 1e be f6 da 1c be d5 a4 e3 3b 91 1c 0d 3d
       -0.1546269 -0.15317902 0.0069471397 0.03445107
000290 37 ac b2 bd ce 50 8c bd 10 96 09 3e 89 fa 33 bd
       -0.087242536 -0.0685135 0.1343615 -0.0439401
0002a0 f1 e5 18 be 45 b7 a7 3b ed 81 0c be 4c 0e 43 be
       -0.14931466 0.005118283 -0.13721438 -0.19048423
0002b0 be 1c 9c 3d ce 9d d1 3d b7 c7 22 be 5e 65 fd 3d
       0.0762267 0.10235177 -0.15896498 0.1237285
0002c0 a9 c5 b1 bc 41 d5 b8 3c e8 66 36 be d2 79 98 bd
       -0.021700697 0.022562625 -0.17812693 -0.074451104
0002d0 4d a2 31 3e e1 ea aa 3c 30 f0 ca 3d d2 1c b1 3d
       0.17347069 0.020863952 0.099090934 0.08648075
0002e0 15 54 b3 3d 1f 70 82 bd a2 77 0b be c8 da 33 be
       0.08756272 -0.06369042 -0.13619855 -0.17563927
0002f0 cc e7 1b bd 11 e8 d3 bd 27 31 ae 3d 71 52 82 bd
       -0.038062856 -0.103469975 0.08505469 -0.06363381
000300 0b 0f 84 3d 3f 0f 24 bd 94 96 39 3e 89 8d 08 be
       0.06448182 -0.040053602 0.18123847 -0.13335241
000310 bb e2 12 bb 66 76 62 3d 41 d1 9a 3c ef 2f fa 3c
       -0.0022412974 0.055288695 0.018898608 0.030540435
000320 2f ba a3 bd 5b 49 33 bd ed 81 01 be 3d 71 4f be
       -0.07994496 -0.04377113 -0.12647219 -0.2025804
000330 d8 23 41 3d 4c 0c 1e be 78 13 9f 3d 49 78 3c 3e
       0.047153324 -0.15434378 0.07767385 0.1840526
000340 98 b8 02 be 94 53 df 3d d7 5f f0 3d 2f c2 4e be
       -0.1276573 0.10904613 0.1173703 -0.20191263
000350 ac c9 03 be 5d 37 a4 bd 55 33 6f 3d 37 4c 23 be
       -0.128699 -0.08018372 0.058398563 -0.15947042
000360 82 e1 38 3e 52 1f a4 3d 1c 8a d1 bd e7 25 38 be
       0.18054774 0.080137864 -0.102314204 -0.17983209
000370 09 48 cb bd 23 34 04 3e 58 ca be bd 34 04 3e 3e
       -0.09925849 0.12910514 -0.09315938 0.18556291
000380 90 f2 cd 3d ef b3 05 3e fd 3e 48 3e 11 16 07 be
       0.10056031 0.1305692 0.19555278 -0.13192011
000390 ac 33 1d 3e 8e 53 39 be cd 4e 85 3d 17 41 c4 bd
       0.15351743 -0.1809828 0.06509171 -0.095827274
0003a0 94 3f 84 bd 72 58 16 be 73 36 32 3e ec 73 c2 3d
       -0.06457439 -0.14682177 0.17403583 0.094947666
0003b0 93 e1 09 3e db 6b 96 3d 8e 1f 1c 3e cb 66 b5 3d
       0.13464956 0.073447905 0.15246412 0.08857497
0003c0 0f 1d 0e 3e 81 52 08 be 38 ec 98 3d de 82 e5 bc
       0.13878272 -0.13312723 0.0746693 -0.028016504
0003d0 29 f6 9e bd 0e 97 36 3d cf a4 51 3d ac ec 4c 3e
       -0.07761795 0.04457765 0.051182564 0.20012158
0003e0 cf 1b d3 bc f1 52 96 bd fe ca c3 3d 2a 8d 85 bb
       -0.025770096 -0.073400386 0.09560202 -0.004075666
0003f0 00 79 20 be 89 4f 02 be bc 7a d8 bd ae 30 17 be
       -0.15671158 -0.12725653 -0.10570285 -0.14764664

rnn.bias_ih_l0 f4 [72]
000000 5d 7a 07 bd f2 31 33 be 25 1b 84 bd 22 c2 50 be
       -0.03307568 -0.17499521 -0.0645049 -0.20386556
000010 cc de ca 3d 71 99 70 3d 3b 49 44 bd d6 ad 0c be
       0.099057764 0.058740083 -0.0479214 -0.13738188
000020 ae 3b 38 be 86 3e 4e bd 1e 52 d9 bd 37 bb e4 bd
       -0.17991516 -0.050352596 -0.10611366 -0.11168521
000030 54 7c 03 bd 2f 93 19 be be 81 26 3e 5a cb 82 3d
       -0.03210099 -0.14997552 0.1626043 0.063864425
000040 ea 5d ef bd b2 f2 a7 bc 10 f4 d8 bc 5c d3 32 be
       -0.116878346 -0.020501468 -0.026483566 -0.1746344
000050 36 a7 eb 3d d8 08 47 be fa 68 27 be 42 3b 0a 3e
       0.11506502 -0.19436967 -0.16348639 0.13499168
000060 65 c7 1e bc c3 0f c2 bc 7a 6b 1e be e1 68 f8 bd
       -0.009691094 -0.023689156 -0.15470687 -0.12129379
000070 3d 4b 85 bd 79 6c 50 bc 91 e8 f9 bc 8a f4 3b be
       -0.06508491 -0.012721174 -0.030506404 -0.18355003
000080 45 5d 4d be 82 76 a4 3d 5c a5 ef 3c 0b 87 cc 3d
       -0.20055111 0.08030416 0.029253654 0.09986695
000090 48 d6 ac bc 54 78 77 bd 97 0a f6 3d ec dd 16 3d
       -0.021098271 -0.06041749 0.120137386 0.036832735
0000a0 ba bc 14 3e fb 20 cd 3c 90 bc 35 be 0d e7 b3 3c
       0.14525118 0.02504014 -0.17747712 0.02196076
0000b0 0d 0b 9a 3d 32 55 93 bc cb f8 81 bd 03 1d 31 3e
       0.07521639 -0.01798496 -0.063462816 0.17296223
0000c0 38 a5 dd bd 8e 47 11 3e de cd c4 bd 2c 6f 76 bc
       -0.108225286 0.14187452 -0.096095785 -0.015041154
0000d0 0d 8c ca bd 83 d5 4a be 22 a4 10 3e 87 f6 4a 3e
       -0.09889994 -0.19808011 0.14125112 0.19820605
0000e0 9b fe 0e 3c 2e 47 90 3d 1e c5 b8 3d ec ca 35 be
       0.008727695 0.070448264 0.09021972 -0.1775319
0000f0 b2 a1 38 3e 9f 92 23 be 51 0a 13 3e 4e f8 89 3d
       0.18030432 -0.159739 0.14359404 0.067368135
000100 72 f9 40 be 4e 4d 1e 3d ff 08 cd bd 44 0c 44 3e
       -0.18845156 0.038647942 -0.100114815 0.19145304
000110 cd ae 32 be de 06 e3 bc ea 64 0e bd 57 f7 0c 3d
       -0.17449494 -0.027713235 -0.034764208 0.03441557

rnn.bias_hh_l0 f4 [72]
000000 87 66 a5 bd 10 b6 d3 bd aa 6c 28 be 9e 91 3d be
       -0.08076196 -0.1033746 -0.16447702 -0.1851258
000010 5b 33 9e 3d dd 4c a1 3d e6 8d bf bd 93 74 87 3d
       0.07724639 0.07875989 -0.09353237 0.06614032
000020 b6 b4 c0 3d 6c c0 8a 3d a2 79 39 3e 76 2e 15 3e
       0.09409468 0.06774983 0.18112805 0.14568505
000030 bb 99 20 be f1 3e 4b 3d a1 fd 90 3c 22 e6 7d 3d
       -0.15683644 0.049620572 0.017699065 0.06198705
000040 7b dc 64 bd 80 ea 16 bd aa 69 2a 3e 70 a9 e9 bd
       -0.05587433 -0.03684473 0.1664187 -0.11409271
000050 99 80 0a be 30 ee fe bd c7 93 d2 bd 60 09 69 3d
       -0.13525619 -0.124477744 -0.102820925 0.056893706
000060 99 ba 03 be 78 bf 44 be 47 38 95 3d ed 46 4b bd
       -0.1286415 -0.19213665 0.07286125 -0.049628187
000070 3b 1f 64 3d 80 31 8d 3d a1 e1 07 be 39 21 ad bc
       0.055693846 0.06894207 -0.13269664 -0.021134006
000080 38 b0 19 be d6 0c 27 be 35 bf 06 be 78 a7 a1 3d
       -0.15008628 -0.1631349 -0.13158877 0.0789327
000090 de cb 23 be ab 3b f4 bd 85 7b 20 be d5 ff 21 3e
       -0.15995738 -0.11925443 -0.15672119 0.15820248
0000a0 3a dd 84 bd a7 7c aa bd d3 21 23 bd 51 4d ce bd
       -0.06487508 -0.08324557 -0.03982718 -0.10073341
0000b0 cc ba b3 3d 40 07 87 bc 95 93 c4 3d 20 37 39 3e
       0.08775863 -0.01648295 0.095984615 0.18087435
0000c0 c0 40 30 3e fb 7e bc bd 1f 25 d5 bd 53 5c 2b be
       0.172122 -0.09203907 -0.10407471 -0.16734438
0000d0 d4 be f1 bd 8b d0 01 be 14 42 10 bd e8 0c 0b 3d
       -0.11803976 -0.12677209 -0.035219267 0.033947855
0000e0 55 a0 40 be 76 86 3d bd 6c 16 e6 3c 53 c7 3e 3e
       -0.18811162 -0.04627081 0.028086863 0.18630724
0000f0 b9 bd 84 bc 31 4f 3e 3e b9 3d 10 3e c1 f1 20 3e
       -0.016203748 0.18584897 0.14086045 0.15717222
000100 e0 05 bd 3c 4a 53 45 be 74 94 47 be c7 29 fe bd
       0.02307409 -0.19270054 -0.19490224 -0.12410312
000110 95 7f 82 3d 33 47 0e 3d 02 16 4e be 68 a3 8b 3d
       0.063719906 0.03473587 -0.20125583 0.06818277

rnn.weight_ih_l1 f4 [72, 24]
000000 4e 65 84 bd 82 82 34 3e cd 93 4c 3e cb 19 9f bd
       -0.06464635 0.1762791 0.19978257 -0.077685915
000010 04 8f 30 be c9 3d 64 bd 91 3d f7 bd c8 ea cd 3d
       -0.17242056 -0.055722985 -0.1207229 0.100545466
000020 5b 69 b4 bd 62 fe c9 bd 11 ee 62 3d 73 dd 52 bc
       -0.088091575 -0.09862973 0.05540282 -0.01287018
000030 b2 de 41 3d da 13 17 bd 5d 9c 34 be c3 a8 64 bd
       0.04733152 -0.036884166 -0.17637773 -0.055825006
000040 e9 12 91 bc 60 04 3b 3d 44 90 00 3d b4 76 10 3c
       -0.017709212 0.04565847 0.031387582 0.0088173635
000050 69 82 d2 3b 43 f7 0a 3e 35 7c 80 3d d1 ae d7 3d
       0.0064242375 0.13570885 0.062736906 0.105313905
000060 8f 9b 03 3d 8f af 9c 3d e1 a4 35 3e 99 1d 3a be
       0.032130774 0.07650673 0.17738678 -0.18175353
000070 07 b1 00 bc bb 8d 37 be 74 6e 11 3e 4b b2 79 3d
       -0.007854707 -0.1792516 0.14202291 0.06096105
000080 cb fd d1 3d 5e b6 fc bd 0f 00 82 3d 40 23 14 be
       0.10253485 -0.12339471 0.063476674 -0.14466572
000090 cb 85 46 3e 9c 8a 85 bd 3e 11 47 3e 14 53 4c be
       0.19386975 -0.06520578 0.19440171 -0.19953567
0000a0 26 40 7f 3d d5 2a dc bd ac e7 c3 3c e4 2d 01 be
       0.062317036 -0.10750357 0.02391418 -0.12615162
0000b0 98 5f 20 be 83 ca 26 3e 88 7b 95 bd d1 5c 23 bd
       -0.15661466 0.1628819 -0.07298952 -0.03988344
0000c0 c0 5a 10 be 7d 0c e4 bd c9 f2 3e 3e c8 2f e8 bd
       -0.14097118 -0.111351945 0.18647303 -0.113372386
0000d0 f3 85 22 3e cb 28 ef 3c 19 df 4b be 34 5d 8a 3d
       0.1587141 0.029194256 -0.19909324 0.06756058
0000e0 e4 6e 8d 3d 3c 96 ad ba 05 7f c7 3d 16 60 82 3c
       0.06905916 -0.0013243626 0.09741024 0.015914958
0000f0 8b 52 22 be 6b a6 7e bc 9d 91 46 bd cc ed e7 3b
       -0.158518 -0.015542607 -0.04847871 0.007077908
000100 fe 4a b1 3d d5 fa 7a bc e4 e4 e8 3c 5b 2e 2d 3e
       0.08656882 -0.015318592 0.028429456 0.16912214
000110 f3 d2 50 be eb dd 2e be cf 78 2e 3e e7 d4 76 3d
       -0.2039297 -0.17076842 0.17038272 0.060261633
000120 09 c2 5e 3d 12 c9 73 bc 8c 7f 49 be 66 ef 4e 3e
       0.054384265 -0.014879482 -0.19677562 0.20208511
000130 92 5a 2d be e5 b4 3f be cf e3 1b 3e 51 0a 2f be
       -0.16929081 -0.1872135 0.15223621 -0.17093779
000140 9d 2d 30 be 58 18 ac 3d 32 b2 b8 3c 0c f9 15 3d
       -0.172049 0.08403081 0.022545908 0.036614463
000150 4b 2c 89 3c d7 af e9 3d 03 41 12 3e 5c 0f 00 3c
       0.016744753 0.11410492 0.14282613 0.007816162
000160 09 a0 f5 39 4e 00 97 3d 9e 9d 66 bd be 00 1c be
       0.00046849277 0.07373105 -0.05630266 -0.15234658
000170 66 ad af bd 5b 59 c0 3d 20 2e c6 3d 32 fc 1f 3e
       -0.08577995 0.09392043 0.096767664 0.15623549
000180 db a6 86 ba ee ab 22 be 62 25 3f 3d 19 e8 c5 3d
       -0.0010273115 -0.15885898 0.04666651 0.0966341
000190 61 f3 d6 bb e0 0f 48 be ba ad 2e be b8 69 f3 3d
       -0.0065597747 -0.19537306 -0.17058459 0.118853986
0001a0 b8 31 a4 bd b0 41 05 3d 2d 6e 08 be ae cf ba bd
       -0.080172956 0.032533348 -0.13323279 -0.09121643
0001b0 a5 f4 cd 3d 59 a4 34 3e b2 fa 93 bd 78 c8 19 3e
       0.10056428 0.17640819 -0.07225551 0.15017879
0001c0 e5 9e 21 bd 42 28 d1 bd af 23 13 be 4c 5f 6f bd
       -0.039458174 -0.10212757 -0.14369081 -0.05844049
0001d0 a2 b6 39 3e 4f 73 27 bd 3d 1c 29 be cc 13 fd bd
       0.18136075 -0.04088145 -0.16514678 -0.123572916
0001e0 ec 31 ad bd 96 89 00 3e ce aa ec bd 61 e5 bf bd
       -0.084567875 0.12552485 -0.11556016 -0.093699224
0001f0 f8 e7 b8 bd 53 77 10 be ff 51 43 3e b0 65 a3 bd
       -0.090286195 -0.14108019 0.19074248 -0.0797838
000200 f4 e4 8d 3d 42 42 13 be 0a 7a b0 bd d3 63 29 3e
       0.06928435 -0.14380744 -0.08617027 0.16541986
000210 a1 9c 28 3e 9a 57 e2 3d e6 5b 3a ba 33 66 33 3d
       0.16465999 0.11051865 -0.0007109031 0.043798637
000220 7c 41 cd 3c 98 5f 5f 3d b4 94 fb bd 4d f5 af 3d
       0.02505564 0.054534525 -0.12284222 0.08591709
000230 55 84 45 3d e9 62 08 be c3 4e dc 3d b2 11 9b 3d
       0.048221905 -0.13318981 0.1075721 0.075717345
000240 63 9a 01 be 23 fa ab bc de af 0d bd 5f ca 01 bd
       -0.1265655 -0.020993298 -0.03459155 -0.031687137
000250 10 0b a3 3d 72 f4 23 be 30 08 3a 3e fc 13 ef 3d
       0.079610944 -0.16011217 0.18167186 0.116737336
000260 32 37 0e 3e c1 51 4a be 6f bf 3e 3e d8 71 f0 3b
       0.13888243 -0.19757749 0.18627714 0.00733779
000270 aa d3 c8 bd 16 15 47 3e 7d 23 0a 3c 3e 1d 36 3d
       -0.09805997 0.19441637 0.008431313 0.04446148
000280 c3 0b ae 3d 1a 28 26 be 70 35 4f 3c 90 8c 3c be
       0.08498337 -0.16226235 0.012647018 -0.18412995
000290 b0 9e ab bc 7d 9b b6 bd e2 18 10 3e 84 4e be 3b
       -0.020949692 -0.08916376 0.14071992 0.0058076996
0002a0 1d 90 3e be 98 8b db bd 9f 15 58 3d 6e 6d 0b 3d
       -0.18609662 -0.10719985 0.052754994 0.034039907
0002b0 5b ae e2 bd 51 90 e9 bd ad 32 46 be e5 39 4f 3e
       -0.11068412 -0.11404479 -0.19355269 0.20236929
0002c0 34 0e a1 bd e8 24 a9 3c d9 d4 35 3e 58 ff c1 3d
       -0.07864037 0.020647481 0.17756976 0.09472531
0002d0 c3 70 aa 3d e8 34 85 bd fc 23 bd 3c 42 d5 17 3e
       0.08322289 -0.06504232 0.023088448 0.14827445
0002e0 82 77 28 be db 5e 13 3e 6e 09 1b bd 13 78 65 bb
       -0.16451839 0.14391653 -0.03785079 -0.0035014197
0002f0 97 54 3e 3e 40 29 89 bd 57 ef 3a be bd 5f 51 3d
       0.18586956 -0.06697321 -0.18255363 0.051116694
000300 ad ed 23 be f0 9d 77 bb 19 30 4d bd 95 6b ba bd
       -0.16008635 -0.0037783347 -0.050094698 -0.09102551
000310 46 3f 48 3e 71 c7 09 be d8 97 52 3c 1f 88 d7 bd
       0.19555387 -0.13454987 0.012853585 -0.1052401
000320 d1 f7 7c bc 3d 4f 97 3d 31 58 17 bd 54 c0 55 bc
       -0.015439943 0.073881604 -0.03694934 -0.013046343
000330 85 ec d7 bd df a2 75 bd 3b 4a 0c be d9 ca 2d bd
       -0.105431594 -0.05996978 -0.13700192 -0.04242978
000340 aa 3e 23 3e 3a 3d 15 be e4 28 c4 bd 1a 7b 01 be
       0.15941873 -0.14574137 -0.09578112 -0.12644616
000350 6d 50 00 be ba fb 16 3e 71 7f 07 bd f8 9e 42 bd
       -0.1253068 0.14744464 -0.033080522 -0.047514886
000360 ab 69 4d be 90 3f 16 3e 5d d1 fd bc 2e 5e a3 3c
       -0.2005984 0.14672685 -0.030983621 0.01994237
000370 c3 76 90 bd 0e 99 21 be cb 4a f1 bd 1f 3e 2c 3e
       -0.07053902 -0.15781042 -0.11781844 0.16820572
000380 dc 2e bb bc 51 e0 21 3e bd 45 be bb 85 b4 1c 3d
       -0.022849493 0.15808226 -0.0058066533 0.038258094
000390 5c 8f 56 3d 46 22 2c be cb 68 72 bd e8 79 c6 bd
       0.052382812 -0.1680995 -0.05918197 -0.096912205
0003a0 70 49 c3 3d a6 3a 3b 3d e2 7f 9b 3b ee 8e c3 3d
       0.095354915 0.04571023 0.0047454694 0.09548746
0003b0 df b2 42 be 2d f3 4f 3e 63 38 40 3d 95 37 81 3d
       -0.19013546 0.20307608 0.046928775 0.063094296
0003c0 8a 02 86 bd f5 39 b7 3d 06 16 0c 3e 64 3d 44 bd
       -0.06543453 0.08946601 0.13680276 -0.04791011
0003d0 2c ec 41 be 4d 19 d2 bd 29 b6 19 3d 51 d8 18 be
       -0.18937749 -0.10258732 0.037527237 -0.14926268
0003e0 51 e9 16 bd 64 e0 3d 3e c4 2c 12 3e 4c fb 8f 3d
       -0.0368436 0.1854263 0.14274889 0.07030353
0003f0 f0 a5 1e 3e 97 a8 8a 3d 6b 5d 50 3e 48 64 12 3e
       0.15492988 0.06770437 0.20348136 0.14296067

rnn.weight_hh_l1 f4 [72, 24]
000000 a3 42 da 3d a2 d4 3e be 7f c2 8c bc 79 af 01 3e
       0.10657241 -0.186358 -0.017182587 0.12664594
000010 43 66 0a 3e 7a 6d c3 3d 9b 15 2f bd d6 fd 2e be
       0.13515572 0.09542365 -0.042745214 -0.17089018
000020 29 30 26 3e 9d 30 d0 3c a4 3e 12 be 8a 87 5b 3d
       0.16229309 0.025413806 -0.14281708 0.053596057
000030 78 58 d9 3c c9 17 e7 3d 07 60 4e 3d e0 db 13 be
       0.026531443 0.112838335 0.050384548 -0.14439344
000040 6c 09 f4 ba 26 16 92 3c e1 01 30 3e 45 40 8a 3c
       -0.0018618531 0.017832827 0.17188217 0.01687635
000050 35 33 57 bd 03 ed dc bc 59 84 0c be 5b ae a2 bd
       -0.05253907 -0.026968485 -0.13722362 -0.07943412
000060 80 29 20 3d 1d 77 b0 bd 51 ca c7 3d d3 30 40 3e
       0.039102077 -0.08616469 0.09755386 0.18768625
000070 d7 21 78 bd 8c e2 18 3e ec 1d 07 be 69 24 4e be
       -0.060579147 0.14930171 -0.13195008 -0.20131077
000080 7c 36 ce 3d 5d ab 06 be 64 b8 f1 3d 98 be 99 bd
       0.10068986 -0.13151307 0.11802748 -0.07507056
000090 48 40 21 bc 07 99 3c be cc 5e 20 3e f9 ec 0b be
       -0.009841986 -0.1841775 0.15661162 -0.13664617
0000a0 ed de 4a 3d 8b 4d 52 bb 14 bd e6 3d e8 2b ef 3c
       0.049529005 -0.0032089676 0.112665325 0.02919574
0000b0 6e 9c 34 3e 90 d0 12 bc cc 62 2d 3c 06 b5 38 3e
       0.17637798 -0.008960858 0.010582637 0.18037805
0000c0 03 c8 11 3e e4 62 1e 3e c3 1a 21 bd 8f 4e 13 3e
       0.14236455 0.15467411 -0.039332163 0.14385436
0000d0 83 19 66 3d bc b9 87 bd 03 a9 d3 3d 54 b3 e6 bd
       0.056176674 -0.06627223 0.10334971 -0.11264673
0000e0 fe 5f 1a 3d 51 ac 43 3e 97 bc f4 3c c9 9d 77 bd
       0.0376892 0.19108702 0.029875083 -0.06045321
0000f0 c4 bd 39 bd 33 c0 f5 3d d7 d3 7c 3d 8c ec 3d bd
       -0.04534699 0.1199955 0.061725464 -0.046368167
000100 85 85 af 3d bc e4 a9 3d 40 06 2d be c6 29 e2 3b
       0.08570389 0.08295581 -0.16896915 0.0069019524
000110 e9 90 4a be c5 cc 39 be e6 1b e9 bc bd 28 46 be
       -0.19781841 -0.1814452 -0.028455686 -0.19351478
000120 a6 ad ec 3d 48 82 0f be 3f 57 93 3d 86 c7 1a 3e
       0.11556558 -0.14014542 0.07194375 0.15115175
000130 6b 34 1e 3e 5b 5b 47 3e e3 3c d8 3d 2e 28 be bd
       0.15449683 0.19468443 0.10558488 -0.092850074
000140 a2 05 d9 3d 81 a1 68 3d bd db 9b 3b d6 f3 cf bc
       0.105967775 0.056794647 0.0047564195 -0.025384825
000150 12 dd 48 bc f2 15 55 bd f0 9e 0d 3e 05 f7 d8 bd
       -0.0122597385 -0.05202288 0.13830161 -0.1059399
000160 a0 51 91 3d 09 ed 4b be 90 09 80 bd 74 84 98 bd
       0.07095647 -0.1991464 -0.06251824 -0.074471384
000170 ba 35 67 3d 51 ac ee 3d 99 12 93 3c 29 56 87 3d
       0.056447722 0.116539605 0.017953204 0.066082306
000180 bb b4 40 be a2 bf 44 3d c8 75 ff bc c8 f2 bf 3d
       -0.18818943 0.048034318 -0.031184092 0.09372479
000190 58 4d 47 3c d2 ac ae bd cf 4f 47 be 23 51 4a 3d
       0.012164436 -0.085290566 -0.19464038 0.049393784
0001a0 08 74 d5 bd f6 8a 87 bd 43 a0 29 3e 64 6a d1 3d
       -0.10422522 -0.066183016 0.16565041 0.102253705
0001b0 af 5f 76 3d 9b fb 85 bd 30 7e e8 3d e8 46 64 bb
       0.060149845 -0.065421306 0.11352193 -0.0034832302
0001c0 29 1d 36 3e fb 27 09 3d 89 60 60 3b e0 27 b9 bc
       0.17784561 0.033485394 0.0034237227 -0.022602022
0001d0 5f 8a 4d be d0 17 2b bd 4a 41 8a 3d e3 fd 61 3c
       -0.20072316 -0.041770756 0.06750734 0.0137934415
0001e0 e4 30 4c bd 77 a1 9f 3d 65 fa 4c 3e 2d 90 e0 bc
       -0.049851313 0.07794469 0.20017393 -0.027412498
0001f0 4d 74 11 be fd b2 b1 bd 29 4c 1c 3d 48 21 7c 3b
       -0.14204521 -0.086767174 0.03815857 0.0038471986
000200 f4 4d 3f be 0c 18 20 3c 88 96 7f bd 33 12 87 bc
       -0.1868208 0.009771358 -0.062399417 -0.01648817
000210 77 0c b0 bd 5f e0 22 be 41 53 9c 3c fe 64 cd bd
       -0.085961275 -0.15905903 0.019082667 -0.10029028
000220 41 46 03 3e 18 0a 4d be c2 2b 52 bd 4a 4e dd 3d
       0.12819768 -0.20023382 -0.051311262 0.10805948
000230 95 2b 36 bc ea b2 2d 3e 93 6a 21 be 0c 9c 3c be
       -0.011118789 0.16962782 -0.15763311 -0.18418902
000240 0e 2f e2 3d 7a af 19 3e c5 03 3a be 76 65 90 bd
       0.11044131 0.15008345 -0.181655 -0.07050602
000250 d4 0a 8e bd f6 d1 50 3e 82 ae 2a be 7a 14 4f 3e
       -0.06935659 0.20392594 -0.16668132 0.20222655
000260 c6 c5 e7 3d 16 24 32 3e c2 2f 49 3e d6 ba 57 3d
       0.11317019 0.17396578 0.19647124 0.052668415
000270 a3 25 48 bd ee cc 3a bd 90 5a 2b bd 88 c5 17 be
       -0.04886402 -0.045605592 -0.041834414 -0.14821446
000280 b6 48 cb 3d dd 9e c3 3d 15 52 12 3d 5a 61 33 3d
       0.09925978 0.09551785 0.03572281 0.043794014
000290 5f e6 39 3d 90 cc 9c bd 0a 9f 71 bd 7d 5d 39 3e
       0.045385715 -0.07656205 -0.058989562 0.18102069
0002a0 c7 54 32 be ed ba 84 3d 6d 17 3e bd 64 2d 24 be
       -0.17415152 0.06480966 -0.04640906 -0.1603294
0002b0 53 51 b2 bd e1 46 c1 3b bb 37 37 be 1e f4 01 be
       -0.087069176 0.005898342 -0.17892353 -0.1269078
0002c0 18 6e 4d be f9 16 c4 bd 0e b1 bc bd 42 00 9f 3d
       -0.20061529 -0.09574694 -0.09213458 0.07763721
0002d0 8c 44 24 be 4d 45 71 bd 59 ab 73 bd 0a 6e d9 bd
       -0.16041774 -0.05890398 -0.05948958 -0.106166914
0002e0 8d 0f 85 3d e9 37 e5 bd 3e ed 8c bd 6c 45 03 be
       0.06497107 -0.11192305 -0.06881188 -0.12819451
0002f0 55 a9 fc 3c 17 eb 71 bd 50 07 5f bc 4a 87 18 be
       0.030842463 -0.05906209 -0.013612583 -0.14895359
000300 0d 91 a2 3d 55 36 ba bd 37 03 77 3c 8d 2f 4e be
       0.079378225 -0.09092394 0.01507645 -0.20135327
000310 f2 35 2b 3b 08 d7 fd bd 7a 20 3d bd 62 d5 0a bd
       0.0026124683 -0.123945296 -0.04617355 -0.033894904
000320 79 db 68 3d 40 50 3e 3e 44 c9 a5 bd 05 60 47 3d
       0.05684993 0.185853 -0.08095029 0.048675556
000330 47 62 1a bd 91 0a b6 3d 03 dd ff bd cb 6e 19 3c
       -0.03769138 0.08888734 -0.124933265 0.009364794
000340 6f 43 2c 3e 8d 01 b0 3b 65 01 a7 bc 28 92 11 be
       0.16822599 0.0053712786 -0.020386407 -0.1421591
000350 6c 8c 9c 3d 0a ea fb 3d 5e e9 34 be 7e d0 b9 bd
       0.07643971 0.12300499 -0.17667148 -0.0907297
000360 5a 7e 0e 3e 0a a7 4c 3d de 12 dc 3d 20 88 52 ba
       0.13915387 0.04996399 0.10745786 -0.00080311485
000370 c6 24 bd 3d b0 e3 2a be 47 32 cd 3c 94 40 e4 bc
       0.092355296 -0.16688418 0.025048388 -0.027862824
000380 d4 0c 27 3d d0 8b 96 bd a4 4e 0a 3e 58 20 be 3d
       0.04078372 -0.07350886 0.13506562 0.09283513
000390 7a 80 bd bc 60 e9 41 3e 49 18 49 be 50 4c b3 bd
       -0.023132551 0.18936682 -0.1963817 -0.0875479
0003a0 af d5 51 bd 12 ce 6a 3d e4 87 2f bc 66 b0 45 3c
       -0.051229175 0.05732543 -0.010713551 0.012065982
0003b0 a0 a3 18 be ec d8 d6 bd 8f 4c 72 bd 29 5b a6 3d
       -0.14906168 -0.10490593 -0.059155043 0.08122856
0003c0 1b 60 b2 3c 96 e4 0c bc 10 ca f4 3d d3 e0 e2 bc
       0.021774342 -0.008599421 0.11952603 -0.027695095
0003d0 9c af cd 3c 60 00 fd bd 0e 36 26 be be 23 53 3d
       0.025108151 -0.12353587 -0.16231558 0.05154776
0003e0 09 02 4b 3d f3 ac 07 3b b7 1b 87 bb 64 59 26 be
       0.049562488 0.002070245 -0.004123177 -0.16245037
0003f0 71 e4 e8 3d c7 ee 23 3d d8 3b 33 ba b1 2a ac bd
       0.11371697 0.040022638 -0.00068372255 -0.0840658

rnn.bias_ih_l1 f4 [72]
000000 89 f1 47 bd af a0 a0 3d 6f 8e 80 bd 20 58 fd 3d
       -0.04881433 0.07843148 -0.06277167 0.12370324
000010 d1 d6 9f bd 3e 2a d3 bd cd 7c 22 3e 64 51 ee bc
       -0.07804645 -0.103107914 0.1586792 -0.029091544
000020 21 65 20 3e 43 bd 2f 3e 4b 91 6a bc 94 f7 4f be
       0.15663578 0.17162041 -0.014316867 -0.20309287
000030 d9 a8 33 3d ae 88 49 3e 69 c6 92 3d 09 68 b4 bd
       0.043862198 0.19681045 0.0716675 -0.08808906
000040 c8 99 ce 3d f4 60 8b bd 7e 65 43 3d 15 94 ba bc
       0.10087925 -0.06805602 0.047704212 -0.02277569
000050 3d 29 b4 3c 49 91 b2 bd cd 4b 30 3e 6e d6 c1 bc
       0.02199232 -0.08719117 0.17216416 -0.023661818
000060 fb d6 41 be 50 e2 08 bd a6 30 2e 3e 12 c8 55 bd
       -0.18929665 -0.033418953 0.17010745 -0.052192755
000070 fe 67 28 3d 8b 25 22 be 1e 76 3e be 47 fa 5d bc
       0.0411148 -0.15834634 -0.18599746 -0.01354844
000080 9f 0b 1e be 9e f1 69 bb f7 94 4d be c7 53 14 be
       -0.1543412 -0.0035696994 -0.20076357 -0.14485084
000090 10 52 dc bd fb fc c1 3d 14 14 35 3e a6 6f 18 be
       -0.1075784 0.0947208 0.1768344 -0.1488634
0000a0 92 8b e4 3d f9 ce 87 bd ed 1f 40 be 49 8b 34 be
       0.111594334 -0.06631274 -0.18762179 -0.17631258
0000b0 47 24 66 bd 74 f7 c8 3c ef 69 5e bd ba b3 f3 3d
       -0.05618694 0.024532057 -0.054300245 0.118995145
0000c0 d0 d6 80 3d e3 dd 48 be fe 63 9f bd 37 1d 64 3d
       0.06290972 -0.19615893 -0.07782744 0.055691924
0000d0 3d c5 da 3c 50 de 0d be 9b eb 81 bc 66 3a 49 be
       0.026705379 -0.13854337 -0.015859416 -0.19651183
0000e0 ee 5b 8a bd 91 62 35 be 00 30 d9 3d b9 15 1d be
       -0.067558154 -0.17713381 0.106048584 -0.15340318
0000f0 cf 34 43 3d cb 91 88 bd f7 2c 36 be 0a f2 a3 bd
       0.047657784 -0.06668433 -0.1779059 -0.0800515
000100 c4 42 43 3d 60 98 3d 3e 56 2b 45 3e dd 05 81 3d
       0.047671095 0.18515158 0.19254813 0.062999465
000110 85 65 47 be bb 62 49 3e bc e7 31 3e 43 40 d1 3d
       -0.1947232 0.19666569 0.17373556 0.10217335

rnn.bias_hh_l1 f4 [72]
000000 18 b6 22 be 0f 21 31 3c cf f6 86 bd 3d 55 1e be
       -0.15889776 0.010811104 -0.06590044 -0.15462203
000010 d1 e9 a0 bd 93 27 e0 bd 5d 58 2e 3e e8 98 9e 3b
       -0.07857097 -0.10945048 0.17025895 0.004840005
000020 64 9e c3 bc 3d 70 38 bd 34 58 22 be c0 be 32 be
       -0.023879237 -0.045028914 -0.1585396 -0.17455578
000030 6d f7 88 3b d9 62 2a be 63 f9 d3 3b 77 77 35 be
       0.004179886 -0.1663927 0.006468938 -0.17721353
000040 be 6f 2e be ee 40 99 3d 30 9e e7 3b 9b 3f bd 3d
       -0.17034814 0.074830875 0.007068418 0.092406474
000050 3f 4e da 3d 89 8c b4 3d 45 96 33 bb d4 eb fb bd
       0.106594555 0.088158675 -0.00274028 -0.1230084
000060 01 15 ee bd e9 7d 38 be 83 d6 2a 3e fc 14 4a bd
       -0.116251 -0.18016781 0.16683392 -0.04933642
000070 f4 a7 0c be 89 cf 1e 3d 18 dd 20 be 3d 4d e7 bd
       -0.13735944 0.03877214 -0.1570934 -0.11294029
000080 0f c7 7b 3b 5e 6d 99 bd 99 a1 0b bd e6 f1 3f be
       0.0038418209 -0.07491563 -0.03408966 -0.1874462
000090 15 ec 25 be 5d 49 df bd 26 13 0f be ad 1c 2e 3e
       -0.1620334 -0.10902665 -0.13972148 0.17003126
0000a0 cb d4 27 3d 3b b7 8e bd 4b 8b e3 bc 10 35 9e bd
       0.04097442 -0.06968542 -0.027776381 -0.077249646
0000b0 c3 9e 81 bd 75 7c 02 3e e9 5d 48 3e 23 90 ce 3d
       -0.063291095 0.12742789 0.19567074 0.10086086
0000c0 25 02 3d 3e d0 a2 32 be 41 be 2c 3e d4 00 2e bd
       0.1845785 -0.1744492 0.16869451 -0.04248126
0000d0 19 81 2b 3e 2f f8 bd 3d 51 1c 8b 3c e1 ef 22 3e
       0.16748466 0.09275853 0.016981276 0.15911819
0000e0 30 89 b5 bd 69 22 ff bd 21 52 01 bc b9 59 2e be
       -0.08864057 -0.12457735 -0.007893116 -0.17026414
0000f0 79 e8 04 3e 37 8b 1d 3e 5f 9f 2b be 4c 7b 99 3d
       0.12979306 0.15385137 -0.16760014 0.0749422
000100 f1 2c f3 bd a5 7e 1e be 6c 75 8e bd e0 e3 4f bd
       -0.11873806 -0.15477999 -0.0695599 -0.050754428
000110 fb e9 9e bd 5f 8f 99 bd ab 81 a5 3d 59 ec a1 3d
       -0.07759472 -0.07498049 0.08081373 0.07906408

fc.weight f4 [24, 24]
000000 05 2d b3 bd 1b 21 e0 3d 1d 42 5e bd c6 41 21 be
       -0.08748821 0.10943814 -0.05426227 -0.15747747
000010 3c ad 8f 3c 91 ae 3b be 53 33 4e 3e 9a ea 07 3e
       0.01753866 -0.1832831 0.20136766 0.13273087
000020 41 bf ad 3d 28 26 11 be cf ae 98 bd be 29 dc 3b
       0.084837444 -0.14174712 -0.07455217 0.0067188432
000030 9c 81 d9 bd b7 8c 9c 3b 12 b3 24 be 99 85 e4 3d
       -0.10620424 0.0047775167 -0.16083935 0.11158294
000040 d3 1a fa bd 60 9e d2 3b 44 52 f5 3d 9e 65 a3 bd
       -0.122121476 0.006427571 0.119785815 -0.07978366
000050 91 02 35 3e ce 0f fc bd 0b 92 b9 3d f8 8f 05 bc
       0.1767676 -0.12307702 0.090610586 -0.008152001
000060 8d e9 09 3e 60 e9 80 bd 58 19 48 3e 7f e5 a6 3d
       0.13467999 -0.06294513 0.19540918 0.08149242
000070 28 37 4f be 82 44 06 be 0c fa 39 3e f3 f2 d5 3d
       -0.20235884 -0.13112071 0.18161792 0.104467295
000080 e8 8a d5 bd 4f c9 45 be 6a a6 48 3e f0 5a 05 be
       -0.10426885 -0.19315074 0.19594732 -0.13022971
000090 52 c5 c5 3d 59 81 b7 3d 5b 4f 18 be af b1 90 bd
       0.096567765 0.08960218 -0.14874022 -0.070651405
0000a0 d1 e5 a2 bd 78 a2 80 3d 31 86 d1 bd a4 6b 0f 3e
       -0.0795399 0.062809885 -0.10230673 0.14005905
0000b0 ac fa 82 3d a8 d6 06 3e dd 50 07 3e ca 57 35 3e
       0.06395468 0.13167822 0.1321444 0.1770927
0000c0 a9 34 61 bd 2b e0 b2 3d a9 0b e9 3d 5b 6f b0 3d
       -0.05498186 0.08734163 0.11379177 0.08614989
0000d0 5b 49 b0 bd 28 e7 12 3e 8d 7a 36 bd 82 df 20 be
       -0.086077414 0.14345992 -0.044550467 -0.15710261
0000e0 ae 16 ee 3d e2 af 3a bd e9 ea 51 bd 31 c0 65 bd
       0.116254196 -0.04557789 -0.05124942 -0.05609149
0000f0 e8 5e ba 3d f8 42 9e bd d7 ad b5 3c 99 16 ae bd
       0.09100133 -0.07727617 0.02217762 -0.08500404
000100 4d bf b3 3a e9 7e 6e bd e7 8c 12 be 7a d6 cb bc
       0.0013713628 -0.0582265 -0.14311562 -0.024882544
000110 29 f7 44 be 34 db 0c be 15 de 4a 3c 0c 41 22 3e
       -0.19234909 -0.13755494 0.01238205 0.15845126
000120 d8 4e d6 3d 78 a5 a4 3d fe 19 9c bd 20 58 26 3e
       0.10464257 0.08039373 -0.07622145 0.16244555
000130 fb 3b c7 3d c2 3b 24 3c 5c 3c de bb d4 4b 3d be
       0.09728237 0.010024013 -0.0067820977 -0.18485957
000140 a7 e5 46 3e 54 58 82 3d 84 c8 4a 3e 88 5d 41 be
       0.19423543 0.063645035 0.19803053 -0.18883336
000150 fc c1 55 3d 57 44 21 bd f7 e8 98 3d 82 84 0e 3e
       0.05218695 -0.039371815 0.074663095 0.13917735
000160 94 75 75 3c 73 21 50 3e 26 b0 43 3d ec 27 4f 3e
       0.014981646 0.2032526 0.04777541 0.20230073
000170 25 a0 73 3d 59 80 63 bd 82 0b 02 3e a8 74 89 bd
       0.059478898 -0.055542324 0.12699702 -0.067117035
000180 02 18 b7 3b 2c 81 48 be 52 5e 7f bd f1 d2 0a 3e
       0.0055875788 -0.19580525 -0.06234581 0.1355703
000190 4a 04 95 3d 4d 26 9a 3c 36 d7 50 be 14 0d 08 3e
       0.07276209 0.018817091 -0.20394596 0.13286239
0001a0 29 e8 ec bd 4b 87 ae 3d bd 22 84 bc 9f ef 2b 3d
       -0.115677185 0.08521899 -0.016129846 0.041976567
0001b0 38 08 11 be ec b1 c4 bd ab a9 0c 3d 41 7b 1b 3e
       -0.14163291 -0.096042484 0.034341495 0.15183736
0001c0 85 f4 05 be 59 eb fa bd 02 5d 50 3d e7 20 36 bd
       -0.13081558 -0.1225192 0.05086995 -0.044464972
0001d0 43 3b bb 3c ca 17 a5 bd 07 46 68 3d c3 28 47 be
       0.022855407 -0.08061178 0.05670741 -0.19449143
0001e0 94 b6 2c 3e 9f 38 f5 bd e6 de 0d 3e 9b 96 60 3d
       0.16866523 -0.1197369 0.1385456 0.05483113
0001f0 b7 27 e9 bd 16 86 f2 bd 16 d9 20 bd 5c c7 2b bd
       -0.11384528 -0.11841981 -0.03926953 -0.04193817
000200 12 e0 8e bd e9 4a 01 3d 3a 07 cb 3d 8c 0e 5a 3d
       -0.06976332 0.03156558 0.09913488 0.05323653
000210 2e ae 60 bd 75 83 08 be 49 09 41 bd 4f 89 df bd
       -0.05485361 -0.13331397 -0.047127996 -0.109148614
000220 fb a7 23 be bb f1 2f bd d4 41 f7 bc bb 20 41 bd
       -0.15982048 -0.04295514 -0.030182756 -0.047150355
000230 6a 4e e2 3c 3e d1 d6 3d aa d7 29 be 11 20 10 be
       0.027625281 0.104891285 -0.16586176 -0.14074732
000240 01 9d 50 bc 32 cd 24 3c a7 47 00 be dc 89 37 3e
       -0.012732745 0.010058688 -0.12527333 0.17923683
000250 33 a9 6b 3d ab a8 4c 3e f4 36 4c 3c 71 b4 66 bd
       0.057534408 0.19986217 0.012464274 -0.056324426
000260 cf df ce 3b cb 63 ad 3d aa 64 ac bc 01 a9 9f 3a
       0.006313301 0.084662996 -0.021044094 0.0012181104
000270 88 93 d1 3c e1 81 d4 3d 28 ba 34 3e fb 69 4a 3e
       0.025583044 0.10376335 0.17649138 0.19766991
000280 ea 54 1b 3e 63 6f 57 bc cb a8 fd 3c 21 9f 7a 3d
       0.15169111 -0.013149115 0.030964276 0.061186913
000290 27 44 d6 3d f5 e2 c3 bd 20 50 46 3a d5 12 4d 3e
       0.10462218 -0.09564773 0.000756504 0.20026715
0002a0 07 79 b1 bd 08 df 16 3e 76 65 ff bd da 84 36 be
       -0.08665662 0.14733517 -0.12470524 -0.17824116
0002b0 84 6d 07 be 09 6b 39 3e 3e fd 40 be 04 c3 3b 3e
       -0.1322537 0.18107237 -0.18846604 0.18336111
0002c0 9b 26 2e be 35 77 ee bc cb 6c 1b 3e 4d 95 25 bd
       -0.17006914 -0.029109577 0.1517822 -0.040425587
0002d0 b2 e7 4d 3e dc dc 8a 3d b1 a2 0c 3e 2f e6 04 3e
       0.20107916 0.06780407 0.13733937 0.12978433
0002e0 b2 fb 15 3e 18 57 26 be 26 6a 10 3d 30 a6 4c bd
       0.14646795 -0.16244161 0.03525748 -0.049963176
0002f0 dc 32 82 3d 51 bb 19 3e af ef 37 3e 11 5d a0 3d
       0.06357357 0.15012862 0.17962526 0.07830251
000300 6c 7f 40 bd 44 df 2c 3d 83 3c 28 be 5e 37 d0 bd
       -0.04699652 0.04220511 -0.16429333 -0.101668105
000310 55 31 1c 3e e8 b1 d6 3d 9d 2c 1d 3e 89 e7 fe bd
       0.15253194 0.10483152 0.1534905 -0.124465056
000320 93 b7 18 3e ad 6f c9 bd c5 d7 21 3e f4 14 f4 bd
       0.14913778 -0.098357536 0.15804966 -0.11918059
000330 a7 57 f8 3d 71 9b 96 3d ee b0 39 3e 77 e8 43 be
       0.12126093 0.07353867 0.181339 -0.19131647
000340 0f b6 40 3e 57 e0 61 3d af a5 0e be 78 89 2c 3e
       0.1881945 0.055145588 -0.13930391 0.16849315
000350 b3 99 ef bc 4c b0 ca bd 71 fe 16 be 67 f8 00 be
       -0.029248094 -0.09896907 -0.14745499 -0.12594758
000360 e2 ec 31 be d0 f4 c8 3d ec 6f 52 bd 23 ca 25 be
       -0.1737552 0.09812319 -0.05137627 -0.1619039
000370 e5 80 43 3e 15 ae 16 3d 7c 1e 5d bd e0 46 fe bd
       0.19092138 0.03678711 -0.05398415 -0.12415862
000380 f8 80 e0 bd d1 af 20 be 5c 4f 27 bd d1 5f a7 3d
       -0.10962099 -0.15692069 -0.040847167 0.081725724
000390 90 2b 0f bc c5 c6 88 3d 60 a1 4c bd fb 0b 3b 3d
       -0.008738413 0.06678537 -0.049958587 0.045665722
0003a0 ba a7 26 be 20 2e 15 bd 83 ef f7 3d 3e 3e 10 be
       -0.1627492 -0.03642094 0.1210623 -0.14086244
0003b0 b7 5e 5b 3d 85 c7 81 bd c6 6b 13 3e 2a 65 f7 bd
       0.053557124 -0.063368835 0.14396581 -0.120798424
0003c0 03 72 86 bd b6 65 e6 3d 24 17 c0 3a 39 62 4b 3e
       -0.06564715 0.112498686 0.0014655334 0.19861688
0003d0 ba c2 6b bd 46 62 72 3c 5c ca d3 bd aa bf 05 be
       -0.057558753 0.014793938 -0.10341331 -0.13061395
0003e0 4a e8 50 be 91 d4 43 be 7c 23 22 3e 18 36 00 bd
       -0.20401111 -0.19124056 0.15833849 -0.031301588
0003f0 64 a4 3b be fb ff 81 bd fb a2 27 3e 0c 2b 2c 3d
       -0.18324429 -0.063476525 0.16370766 0.04203324

fc.bias f4 [24]
000000 73 74 c1 bd c1 11 50 be 7f 55 39 3c 0e 99 0e bd
       -0.09446039 -0.20319273 0.011311888 -0.034813933
000010 9d dd 3c 3e 42 ea 0e bd 21 0d 63 bd f1 ca 71 3d
       0.18443914 -0.034891374 -0.055432443 0.05903143
000020 2d bb 27 be cf 66 ab bd e4 3e 2d be 9d 6c 47 3e
       -0.16379996 -0.083692186 -0.16918522 0.19475026
000030 1e 4a fd 3d bf a8 a0 bc 4d e4 3f 3e 36 2b cd 3d
       0.12367652 -0.019611714 0.18739434 0.100180075
000040 ab de 18 bd f9 c8 a2 bd aa 9c 37 bd bc 2c f4 3d
       -0.037321728 -0.07948489 -0.04482714 0.11922595
000050 e0 b9 5d bd f3 4d ad 3d de a1 af 3c 71 0c 6c bd
       -0.054132342 0.08462133 0.021439489 -0.057629053
