Supervisor.pth (torch, 34722 bytes, 10 tensors)

rnn.weight_ih_l0 f4 [72, 24]
00000000: 2f16 eebd dc66 fd3d 248d 933d 1ea1 2b3e
00000010: 8087 e0ba 2808 303e 704c 52bd 2cd8 07be
00000020: 34e9 0a3d 2a06 413e be26 4b3e 4031 533b
00000030: a4a6 133e 8c15 d83d 2063 b1bb 744d 053e
00000040: 784c e5bd 7843 2e3d 6c57 983d 80c2 1c3b
00000050: 9842 ab3d 3059 43be 90ec 1bbc 30ac ecbc
00000060: 828d 07be 3e9d ecbd e47f 04be e071 30bd
00000070: 6b18 22be 0017 cebc 68a4 b5bc 0405 03bd
00000080: 26e0 c6bd aa91 393e 9038 6a3d 884a 76bd
00000090: a8db 7f3d a874 7b3d 9f38 1abe dc3c 8dbd
000000a0: b8b0 3c3d c666 003e 7c29 353e f8f5 f33d
000000b0: eed6 213e ce13 29be 8ddb 26be e8f5 e73d
000000c0: dcd2 463e a0d3 db3b 50a6 2e3c a036 f4bc
000000d0: 71d7 c8bd 281b d13d 9449 94bd 327c 4a3e
000000e0: 8ea2 00be 23e5 44be d839 863c 4816 07bd
000000f0: e89d 033e f447 00bd 6883 e53d 40c2 cebc
00000100: ae72 3bbe 93c7 1ebe 0845 3a3e 3047 383e
00000110: c0ea a53b 5ccd 92bd f806 febd e660 babd
00000120: 0034 773c a463 f33d 22c4 2abe e667 0f3e
00000130: 1976 1bbe 84b6 433e 46a1 96bd 1604 43be
00000140: 4da5 f7bd de83 3a3e 92cf 263e cc2f 98bd
00000150: 1449 44be 803b 513b 993f c0bd 50ab 7d3d
00000160: 80b1 93bb 7200 0cbe 3ec2 1bbe d3fe c0bd
00000170: 840f ed3d 6813 813d d083 4c3c 6511 1ebe
00000180: 7c27 e23d f9df dcbd 5cd7 aabd e598 15be
00000190: 78ed f53d 6033 5e3d 001e 8bbd 789c fd3d
000001a0: c799 14be f471 12be c076 8cbd a5f7 2cbe
000001b0: 2863 f53c c2ad cebd 90b5 de3c 4874 f93d
000001c0: 7b20 fbbd 38e9 483d 644b f23d 3ede 323e
000001d0: acb9 f43d a572 11be 782c 1e3e 54c5 b13d
000001e0: 6e97 0a3e 6498 70bd 86ee 043e 6c7a 3abe
000001f0: 6047 49bc fd6c b3bd 058f 25be 60a9 b73b
00000200: 4e97 3c3e d649 19be dce0 1d3e edbd dbbd
00000210: 38ba f0bc 68e7 c7bc 5c55 1abd 78f3 b6bd
00000220: 366f e8bd 10cb 0a3e 0407 fb3d 38e5 5b3d
00000230: 0c58 4f3e 00b2 5f3d 1004 0ebd acdd 823d
00000240: 1cf2 173e 7475 2ebd 0c6a 933d a83b 83bd
00000250: 3681 253e f827 c9bd 448b 2fbd fe60 ddbd
00000260: 1cba c33d 2c90 433e 1ca6 1c3d 9c24 94bd
00000270: 081c b6bd 80dd 0abb a49d b4bd a465 3b3e
00000280: 3ce1 b8bd 04ce 8d3d 1b30 4cbe 62cc 1cbe
00000290: 2058 493e 13c1 4cbe 3cbc 44be 4068 623b
000002a0: 889d 43be e2ed 003e be98 113e 89cf 10be
000002b0: a043 ad3c 6064 db3b 8a91 4d3e 118f f6bd
000002c0: 6039 843d 5009 02bc 78dc 993c 443e 0fbd
000002d0: c3bf d6bd 24f7 02be f0fd 813d a021 b13d
000002e0: 6011 67bd 207a 4ebc 1806 dd3c 7a9e 0ebe
000002f0: 58ac 19bd 648d 333d fca0 0e3e 0abd 95bd
00000300: 50e3 c23c 849c 00be da2f 84bd b94c 45be
00000310: 4a85 283e ac7d 00be 4246 0bbe 3483 ee3d
00000320: 15b9 3ebe 0cfe 46be 6433 34bd a80c 493d
00000330: 687a b73c 74fb f13d d8a3 563d b42d 1cbd
00000340: 0673 35be 70da 97bc ec86 883d e944 a2bd
00000350: 38ce 133d 0e7b 253e 68b5 9b3c 1e2c 1d3e
00000360: a58a a6bd 00f0 9fbd ae74 d3bd adca 3ebe
00000370: b010 4bbe 1a01 ecbd 6201 223e 42f2 10be
00000380: 0089 193e 7821 4b3d 1b7a 06be f050 983d
00000390: cff8 cbbd 78f8 23bd a8e7 dd3c 70c6 16be
000003a0: 9467 163e cb66 17be 9392 e0bd dc79 073e
000003b0: 6009 9d3c e029 fdbc c0f6 9abc 2085 a43b
000003c0: 2fd2 cebd 4481 f73d 1844 303e cc75 07be
000003d0: 502c 97bc 18f1 543d 4cbb 053d b449 313d
000003e0: cad4 0a3e 4f9f 3dbe 707f 44bd 7879 f33d
000003f0: 5039 7ebd ccbf 173e eeb2 273e 2d6e 50be
-0.11625325 0.123731345 0.07204655 0.1676068 -0.0017130226 0.17190611 -0.051342428 -0.13266057
0.033913806 0.18850008 0.19838998 0.00322254 0.14419037 0.10550985 -0.005413428 0.13017827
-0.11196226 0.042544812 0.074385494 0.0023919642 0.08362311 -0.19076991 -0.00951685 -0.0288907
-0.13237575 -0.11553429 -0.12939411 -0.04307735 -0.15829627 -0.025157452 -0.022173122 -0.031987205
-0.09710722 0.18121973 0.05718285 -0.060129672 0.06246534 0.06139055 -0.15060662 -0.06896374
0.04606697 0.12539205 0.17691606 0.11912149 0.15804645 -0.16511461 -0.1629469 0.113262
0.19416374 0.0067085773 0.010659769 -0.029811203 -0.09806717 0.10210258 -0.072405964 0.19773939
-0.1256201 -0.19228034 0.016385004 -0.032980233 0.12853205 -0.03131862 0.112067044 -0.02523911
-0.18305466 -0.15505819 0.18190396 0.17995906 0.005063385 -0.071680754 -0.12403673 -0.09100513
0.015088081 0.11884239 -0.16676381 0.14004478 -0.1518177 0.19112593 -0.07354979 -0.19044527
-0.120920755 0.18214366 0.1629012 -0.074309915 -0.19168502 0.0031926334 -0.0938713 0.061930954
-0.0045072436 -0.13672045 -0.15210816 -0.09423604 0.11575225 0.063025296 0.012482598 -0.15436323
0.11042687 -0.10784907 -0.08341858 -0.14609106 0.12008184 0.054248214 -0.067928314 0.1238336
-0.14511786 -0.14301282 -0.06858587 -0.16891344 0.029954508 -0.100917354 0.027186185 0.12180382
-0.122620545 0.04905054 0.11830786 0.17467591 0.119494766 -0.1420389 0.15446651 0.086802155
0.13534328 -0.05873908 0.12981614 -0.18210763 -0.0122850835 -0.08761022 -0.16167839 0.005604908
0.18417093 -0.14969572 0.15417808 -0.10729585 -0.029385671 -0.024402335 -0.03767906 -0.08933157
-0.11349337 0.13554025 0.122571975 0.053685397 0.20248431 0.054613113 -0.034671843 0.06389937
0.14838451 -0.04259248 0.07197961 -0.06407863 0.16162571 -0.098220766 -0.042857423 -0.108095154
0.09556982 0.19097966 0.03824435 -0.07233545 -0.08892065 -0.0021189153 -0.0881913 0.18300492
-0.09027335 0.0692406 -0.19940226 -0.15312341 0.19662523 -0.19995527 -0.1921243 0.0034547
-0.19103062 0.12590745 0.14218423 -0.14141668 0.02115041 0.0066953152 0.2007505 -0.120390065
0.06456256 -0.007936791 0.018781886 -0.03497149 -0.104857944 -0.12789589 0.06347263 0.086489916
-0.056413054 -0.012602359 0.026980445 -0.13927642 -0.037517875 0.043836012 0.13928598 -0.07311447
0.023790032 -0.12559706 -0.064544395 -0.19267549 0.16457096 -0.1254794 -0.1360102 0.11646119
-0.1862529 -0.19432849 -0.043994322 0.049084336 0.022397235 0.11815539 0.052402347 -0.038129523
-0.17719659 -0.018536776 0.06666359 -0.079233 0.036085337 0.16160223 0.0190074 0.1534886
-0.08131913 -0.07809448 -0.10324989 -0.18632002 -0.19830585 -0.115236476 0.1582084 -0.14154914
0.14993668 0.049592465 -0.13132517 0.074373126 -0.09959566 -0.04003188 0.027088001 -0.14724135
0.1468795 -0.14785306 -0.10965457 0.1323008 0.01916951 -0.030903757 -0.018916488 0.0050207525
-0.10098683 0.12085202 0.17213476 -0.1322853 -0.018453747 0.051987737 0.032649323 0.04328318
0.13557735 -0.18517803 -0.047973096 0.11888403 -0.062066376 0.14819258 0.1637685 -0.20354529

rnn.weight_hh_l0 f4 [72, 24]
00000000: a85d ba3d a82a 4dbd 3c2a 75bd 44b1 303e
00000010: a004 4a3d 42c3 29be b2f1 e9bd 80e1 bdba
00000020: 8847 00be 5452 083e 0e07 4fbe f024 4ebc
00000030: 957f f5bd 6817 783d f398 bcbd b039 213c
00000040: 205d c93d 2c80 2a3d 4c43 833d c028 88bd
00000050: 706c 24be 544a 113d ba07 2a3e 742c 033e
00000060: 284c 13be b7f6 3bbe dc73 ed3d c87d 7b3d
00000070: 60a3 723d 0089 313e 0879 a53d 418c 48be
00000080: 5837 f2bd 2ccf 4bbd 185a bc3c f06c 32bc
00000090: 8882 30bd 80f5 1b3e e0b0 373c 7ccd 2e3e
000000a0: dc16 2e3d 2098 053e c4be 043d 30ca bd3c
000000b0: 74b1 df3d 14b3 813d c479 1abd 20f8 693d
000000c0: a0bf 58bd 386b bfbd ddf3 32be af1f ebbd
000000d0: d6ce 123e 2b6b 33be a028 6bbc 4a09 36be
000000e0: 9857 a9bc 324f 0bbe 0a9b 0c3e 288c 37be
000000f0: d0d5 a03d 20da 55bd fc29 c13d 50b1 d23d
00000100: 40cf 22bb f856 dbbd c6fa 053e 6cb5 99bd
00000110: 907b b4bc 78c7 983d 3b7d 22be 8954 2fbe
00000120: 70e4 64bd 00e0 57b8 6231 17be 76b3 0d3e
00000130: 3ef4 3c3e b87f 333d 62ee 3f3e 9092 33be
00000140: 90c1 c33d 9c95 92bd 5417 11be 6a77 b1bd
00000150: ccc9 02bd 3503 c7bd 9044 debd 54d0 333e
00000160: cdd8 0dbe 985d 89bc 8093 e1bb e5c1 08be
00000170: 64e5 123d b87e 493d 543e 2e3e 7ca8 103e
00000180: 7a3b 213e 80c0 a03d 2a65 16be e003 bcbb
00000190: 8823 85bc 1da8 b0bd aaf6 473e f2c8 4f3e
000001a0: 3a9c 293e 348d 193e 88e8 2bbd 1a4c 023e
000001b0: d892 d1bd bae3 113e acbd f33d 7a5a 13be
000001c0: 14ce 883d 10ee 703d 1260 0cbe 2f71 2cbe
000001d0: 50e3 083e f611 e9bd 8c14 0e3e 9cdb 55bd
000001e0: fc7d e63d 42c6 443e 203d 4a3e ca57 24be
000001f0: eadd f4bd 7c14 183e 30a7 dd3d 28d3 f03c
00000200: cee7 103e 682e 4f3d 0818 1a3e 3447 0abd
00000210: 58ec 8cbd f07a 18be 78db 26be 06d6 e0bd
00000220: 8ff5 b3bd a1a4 b1bd 402e e2bb bcd8 c53d
00000230: 381f 70bd 2ee7 083e 98e8 d23d 0bf7 a3bd
00000240: b2e4 033e 44b8 acbd 0439 e13d 0665 183e
00000250: d49b d53d 14e7 3d3e 56da 04be d84a 463e
00000260: 9018 27bc 6761 25be 7c7c 11be 9099 883d
00000270: 79e2 b3bd d2f3 47be cca8 bd3d aa2b 0a3e
00000280: 70b6 4dbe e822 473d 2895 57bd 5a72 2b3e
00000290: 1c44 273e ce52 233e ec74 db3d dedf 233e
000002a0: d929 4fbe 3888 c23c c6d7 163e 3088 6f3d
000002b0: 268d 053e 88b0 edbc 80c7 15bd 7863 99bd
000002c0: c9b7 eabd a8f0 6e3d 489b e5bc 34b2 af3d
000002d0: ac21 243e 5738 3abe 40ca 7abd 5045 2b3d
000002e0: 48d4 27bd 7a5d 44be 04a3 98bd 00de b139
000002f0: ac36 27be 3435 c63d 510e ccbd ca43 32be
00000300: 203e 40bc 546b 4c3e ec1a 043e ce5b 073e
00000310: d0e4 b73d b6c6 06be 13f7 14be e819 d3bd
00000320: c01b b3bb 74da 08be f06e 093e 2827 a4bc
00000330: c6f1 483e d7eb 32be d411 c03d c401 263e
00000340: 10b6 d13d 00b5 64bd cc38 a1bd 3660 3ebe
00000350: 0000 d43d 90ca 7a3d f1eb 4bbe b0f5 1e3e
00000360: e49f a1bd 3007 023d b80f b83d a0af ea3b
00000370: a478 03be ecfb 01be deee 463e 0872 4a3d
00000380: 00ee ffb9 1011 57bc d8de 413e 401e 21bb
00000390: d03b 673c 8a3e 2abe 021a 083e 7cca 893d
000003a0: 18cc bf3d 18fe b63d f0eb 293e 9e57 08be
000003b0: 1437 323e c8b9 f63d f1e1 41be bb30 a5bd
000003c0: 90d2 553d e0dc b33b 44c9 ec3d 606d a63b
000003d0: fa0a 2e3e 9e4f 413e a3c3 1cbe ffdc c2bd
000003e0: 307f 3dbe 641d f63d b4a7 41be b7e0 fbbd
000003f0: ed44 4abe 1035 86bc 1ca3 3b3e 3ebe 413e
0.09099895 -0.05008951 -0.05985473 0.17255121 0.049320817 -0.16578391 -0.11423053 -0.001448676
-0.12527287 0.13312656 -0.20217535 -0.012582049 -0.11987225 0.060569197 -0.0920886 0.009840414
0.09832215 0.04162614 0.0640932 -0.066483974 -0.1605699 0.035471275 0.1660451 0.12809926
-0.1438452 -0.18355833 0.11594364 0.06139925 0.059237838 0.17337418 0.080797255 -0.19584753
-0.11826962 -0.04975812 0.022992179 -0.010890231 -0.043093234 0.1523037 0.011211604 0.17070574
0.04250227 0.13046312 0.03240849 0.0231677 0.109225184 0.063329846 -0.03771378 0.057121396
-0.052917123 -0.09346622 -0.17475839 -0.114806525 0.14336714 -0.1752135 -0.0143529475 -0.17776981
-0.02067165 -0.1360443 0.13731018 -0.17924559 0.078532815 -0.052209973 0.09431836 0.10287726
-0.002484277 -0.10709947 0.13083944 -0.075053066 -0.022031575 0.07459921 -0.15868084 -0.17122091
-0.055881917 -5.146861e-05 -0.14764932 0.1383799 0.18452546 0.043822974 0.1874328 -0.17536378
0.095584035 -0.07157442 -0.14169055 -0.086653545 -0.03193073 -0.097174086 -0.10852921 0.1755994
-0.13852234 -0.016768262 -0.0068840384 -0.13355215 0.035863295 0.049193114 0.17015964 0.14126772
0.15745345 0.078492165 -0.14687029 -0.0057377666 -0.016252294 -0.08625815 0.19527689 0.20291498
0.16563502 0.14995271 -0.041969806 0.12724343 -0.10233086 0.14247027 0.119014114 -0.14389983
0.06679931 0.058820784 -0.13708523 -0.16840051 0.13367963 -0.11380379 0.13875026 -0.05221139
0.11254498 0.19216254 0.1974988 -0.16049114 -0.11956389 0.14851564 0.10822904 0.029397562
0.14150926 0.050581366 0.1504823 -0.03375931 -0.068810165 -0.14890647 -0.16294658 -0.10978322
-0.08787071 -0.086739786 -0.006902486 0.096604794 -0.058623523 0.13369438 0.1029827 -0.08006104
0.12880209 -0.084335834 0.10997203 0.14882287 0.104301125 0.1854518 -0.12973914 0.19364488
-0.010198727 -0.16150437 -0.14207643 0.06669915 -0.087834306 -0.19526604 0.09260711 0.13493219
-0.20089126 0.048617274 -0.05263248 0.1674284 0.16334575 0.15949556 0.107156605 0.16003367
-0.20230807 0.023746595 0.14730749 0.058479488 0.13042125 -0.02901484 -0.03656721 -0.07489675
-0.114608355 0.058334976 -0.028028145 0.085789114 0.1602847 -0.18185554 -0.061228037 0.04181415
-0.04097393 -0.19176283 -0.07452968 0.00033925474 -0.1632945 0.096781164 -0.09963668 -0.17408672
-0.011733562 0.19962817 0.12900895 0.13218614 0.089791894 -0.1316174 -0.14547376 -0.103076756
-0.0054659545 -0.13364583 0.13421226 -0.020038202 0.19623479 -0.17472778 0.093784004 0.16211611
0.10239804 -0.055836678 -0.07872161 -0.18591389 0.103515625 0.061228335 -0.19914223 0.1552341
-0.07891825 0.031745136 0.08987373 0.0071620494 -0.1283899 -0.12693757 0.19427058 0.049425155
-0.00048814714 -0.013126627 0.18932664 -0.002458468 0.0141133815 -0.1662542 0.13291171 0.06728074
0.093651 0.08935183 0.1659391 -0.13314673 0.17403823 0.12047154 -0.18933846 -0.08065935
0.05220276 0.005488977 0.11561826 0.0050789565 0.16996375 0.18878028 -0.15309004 -0.09514808
-0.1850555 0.120173246 -0.1891163 -0.1229872 -0.19752856 -0.016382724 0.1832394 0.18920228

rnn.bias_ih_l0 f4 [72]
00000000: 783e bd3d 60ea 8d3c 48c3 553d 3129 35be
00000010: d6c5 4c3e e039 833d a0a3 9ebd ac0d 1dbd
00000020: 8014 1bbb 80b6 663c b50f 4dbe 7ad8 38be
00000030: 5602 1e3e 908c 453d 40a1 c53d 0c6e 9f3d
00000040: d812 a93c 801a 943d e837 1d3d 6c13 043e
00000050: 464f 9cbd f88a 033d 0000 d23d 5703 17be
00000060: d08e d9bc 859c e2bd c40a 963d bf83 b3bd
00000070: 048a ee3d 60fa 3e3d d006 4b3d 60c3 a93d
00000080: 7494 1b3d 00c1 d63b 58dc 13be 0831 d63d
00000090: b80a 913d 1d5c fabd 4870 15bd 1873 503d
000000a0: c0d1 cdbb 30ef b9bd d0c2 ac3d 2c7e 1a3e
000000b0: e013 d43c c027 483d a49d 293e 6853 b73d
000000c0: 3fae 2fbe 6c0e 493e a0d9 96bc ae7e 243e
000000d0: 1038 46bd 3f07 46be 5a16 3c3e 605a c5bd
000000e0: f871 4f3d cd53 4abe 433c 36be f817 a1bd
000000f0: 401b 33bb f3d7 e4bd 58a7 c23d e00c 1bbe
00000100: 803c ec3b a0da 433d 3014 e93d a8c7 47be
00000110: fef8 093e d408 113e 54da 093d 58d8 8fbd
0.092404306 0.017323673 0.052188188 -0.17691495 0.19997343 0.06407523 -0.07746053 -0.038343117
-0.0023663342 0.014081597 -0.20025523 -0.1805133 0.15430579 0.048229754 0.096498966 0.07784662
0.020638868 0.07231617 0.038383394 0.12898034 -0.07632308 0.032114953 0.10253906 -0.14747368
-0.026557356 -0.1106501 0.07326272 -0.08765363 0.11647418 0.046625495 0.049567044 0.08289218
0.037983373 0.006553769 -0.14439523 0.10458571 0.070821226 -0.122246005 -0.036484033 0.050891012
-0.0062811077 -0.090788245 0.08435595 0.15087193 0.025888383 0.048866034 0.16564041 0.08951455
-0.17156313 0.19634408 -0.018414319 0.1606395 -0.04839331 -0.19338702 0.18367901 -0.09636378
0.0506458 -0.1975853 -0.17796426 -0.078659 -0.0027329475 -0.111740015 0.095045745 -0.1514163
0.0072093606 0.04781592 0.113808036 -0.19509757 0.13473889 0.14163524 0.03365548 -0.07023686

rnn.bias_hh_l0 f4 [72]
00000000: 4115 cebd f4a7 27bd 7c14 b73d d80f fbbd
00000010: 8cad af3d 7caa 0fbe 3497 b53d 9022 93bc
00000020: bddb 49be 5492 0a3d c8c9 ec3c 7422 1a3d
00000030: a022 f53d 64d3 f33d 8206 08be 900d 0abc
00000040: 008d 3d3c d0c8 383e 14ce 903d 418b 31be
00000050: 4062 9c3d e85b 193e e242 113e 526c 50be
00000060: 481d 3d3e f380 12be aaf6 86bd f6f4 1a3e
00000070: 01c4 4dbe a1ae 1dbe 6ade 503e 8041 c43b
00000080: 00e3 72bd 3761 16be ff25 b1bd f8f2 4f3d
00000090: 5ccb 1dbe 3e22 3fbe 3594 c8bd 442f 96bd
000000a0: 3843 263e 3895 b83d 6650 233e a8ed 9dbd
000000b0: a0e1 cdbc b27b 38be 8e99 223e 48b3 3e3e
000000c0: fcc6 2cbe e855 6b3d f75e 13be 4ef6 333e
000000d0: 5c68 2b3d 100e 953d fcb9 403e 5017 b63c
000000e0: 57f4 a7bd dc55 c33d 97dc 43be 8892 423e
000000f0: d88f 4dbe bc87 d83d e8b0 9e3d 68d0 5a3d
00000100: e80b 2f3d 3cac 223e e498 52bd 7051 ccbd
00000110: 2845 993d f4b7 bcbd 1c88 61bd 749a 8c3d
-0.100626476 -0.040931657 0.08939454 -0.12258881 0.08578023 -0.14029878 0.0886673 -0.017960817
-0.1971273 0.033830956 0.02890481 0.037630513 0.11969495 0.11905554 -0.13283733 -0.008426085
0.011569262 0.18045354 0.07070556 -0.17338277 0.07635927 0.14976466 0.1418567 -0.20353821
0.18468201 -0.14307003 -0.06590016 0.15132508 -0.20094301 -0.15398647 0.20397344 0.0059892535
-0.059298515 -0.14685522 -0.08649825 0.050768822 -0.15409607 -0.18665406 -0.09793893 -0.07333234
0.1623658 0.09012836 0.15948638 -0.07711345 -0.025132 -0.18015936 0.15878889 0.18623078
-0.16872782 0.057454973 -0.14391695 0.17574427 0.04184757 0.07278073 0.18820947 0.022227913
-0.08200901 0.09537861 -0.19127117 0.1900121 -0.20074403 0.10572764 0.07748586 0.053421408
0.042735964 0.15886015 -0.05141534 -0.099764705 0.07483894 -0.09214774 -0.055061445 0.06865397

rnn.weight_ih_l1 f4 [72, 24]
00000000: 88af ed3c 40d7 143c 9810 9c3d 4476 ee3d
00000010: 6801 763d 7c20 1b3d 49dc cfbd 4125 f1bd
00000020: b6a5 48be 2843 d63d 7f88 b1bd c067 e73d
00000030: 08a0 b43d dacb 14be 90f8 373c 09fe bfbd
00000040: b02a 97bd a024 673d 0070 37ba 44b1 fe3d
00000050: d082 3b3d 6c45 e83d 22c5 2ebe a071 ae3c
00000060: db93 c6bd e91c d1bd 10e0 8f3c dfee 06be
00000070: 7c7c cb3d 3a77 d0bd 6cf0 e93d b627 82bd
00000080: 18e1 783d 189c 0dbd 1434 153e dc54 09bd
00000090: e061 a03d ecbc de3d 7ed9 263e c4eb 5bbd
000000a0: 2662 063e fe8d 20be 8090 393e 88f2 6f3d
000000b0: d003 9dbd 30f1 123e c00a 693c 80ce b0bb
000000c0: 08ec f63d 21ba 1bbe 642e cb3d 1049 dc3d
000000d0: f88d b83d fc8e 3a3d 2e5c 94bd ece5 e13d
000000e0: 641a d8bd b019 023e f43d 48bd e4a2 e53d
000000f0: c4e3 24be 86ae fcbd 38c3 c93d 8817 253e
00000100: b6c3 08be 42a1 0a3e 1c26 043e 64f7 4bbe
00000110: 3ceb 64bd cc0a 9a3d 9e4b 073e 06bc 14be
00000120: dc9b 60bd 2ced 1c3d d425 d23d 80a6 fdbb
00000130: a85c ff3d b4ab 193e 4d4b 27be d0cf c63c
00000140: ac5d 49be e0de 3cbc 10e7 71bc e090 90bc
00000150: 004e dd3d f47f 383e 6488 3bbd 4072 e13b
00000160: 1c29 49bd 7c63 073e 5cfe 213e a016 e6bd
00000170: e6f8 f8bd b472 4f3e 3841 343d e930 1ebe
00000180: 3cd5 41be d00a 7c3d f889 b43d 80ef e3ba
00000190: 482f b73c 88f8 92bd 4284 18be f0ae 363d
000001a0: ba90 31be 60cb e53b e8bb 1d3e 66ab 163e
000001b0: 9f18 29be 8679 4a3e e015 443d 38e2 943c
000001c0: 2015 103d 0066 173c 7472 16bd aca9 36bd
000001d0: f07c cb3d 74f3 58bd 263e 49be becd 8ebd
000001e0: 74c5 42bd dc60 d1bd 683e 03bd 826d 01be
000001f0: 025c 223e ea2b 123e 54c3 353d d86f debc
00000200: 515e 15be 0858 0a3d b8a0 163e 0858 093e
00000210: 64e3 013d 02a4 013e 5453 cd3d f305 41be
00000220: 0058 e039 b8a2 38be c9c9 4fbe 0017 37bc
00000230: b0d8 1ebe 9a44 1e3e 8cc1 1fbd 4865 c63d
00000240: ec72 363e d081 6a3d a858 423e 10b2 543d
00000250: e660 27be c02c 773d 0e34 95bd 8060 fa3d
00000260: 2099 913b 588d 2fbe 06c3 373e e35d 06be
00000270: 92ec 0c3e 5c3f ce3d 4452 913d d638 333e
00000280: 9c9a 1d3e a828 153e 06bb 19be 0069 fdbc
00000290: 8636 253e dd30 c9bd 104f a63d d0ae 753d
000002a0: 44d3 2f3d 7c5b c63d e04d 643c f5d7 4bbe
000002b0: 4fa4 3bbe 3885 493d 3422 b63d b866 183e
000002c0: 0893 183d ea22 ddbd baaa 0dbe 26c3 0d3e
000002d0: 4a36 263e 3038 27bc c44f 0ebd 7cc3 8b3d
000002e0: 852b acbd f4bb fdbd 70b0 97bd 24ce 903d
000002f0: 5ac3 263e 3cbf 963d 4dcc e9bd 0cf8 243e
00000300: 007d c13d 0848 433d 105f 1dbc f18e f1bd
00000310: 2e9e 303e 100d 66bd c6a9 f4bd 881e 353e
00000320: 3024 6cbc a040 25bc c440 a73d a0c6 d93d
00000330: 28cd 4cbd 7c36 a5bd 9462 823d b0ba 3fbc
00000340: 4a99 a2bd 5ccc 04be 9cd3 873d 00f4 f5b9
00000350: 22a3 073e e7ed 26be 5032 303e 05b1 a2bd
00000360: 3496 413e c14e 30be 2251 10be 70d9 2fbc
00000370: 06be efbd 6cef 373e a27a 483e f0bd f73d
00000380: 52e5 1a3e 8293 2b3e 4cf9 443e f896 4fbe
00000390: 1fcf 27be e47d 153d 2c85 aa3d 3664 cebd
000003a0: 3d20 c5bd 55e2 1abe 68c3 cfbd 0053 38bb
000003b0: ba14 ddbd 9ea7 27be 781a 843d c416 33bd
000003c0: 486b d6bd 1da8 0ebe 2814 2dbe c0bf 583d
000003d0: b8fe 403d f433 fc3d c0dc 83bd d494 223e
000003e0: 82bd 123e d89f 43be f675 4abe f061 c93d
000003f0: 8e92 a2bd 6993 2bbe 4086 693c bcda 2dbe
0.029014364 0.009084523 0.076203525 0.11643651 0.060059935 0.037872776 -0.10149438 -0.11774684
-0.19594464 0.10462028 -0.08668613 0.112990856 0.08819586 -0.14530888 0.0112286955 -0.09374625
-0.07381189 0.056431413 -0.00069975853 0.124361545 0.04577905 0.11341366 -0.17067388 0.021294415
-0.0969617 -0.10210592 0.017562896 -0.1317706 0.09935853 -0.10178991 0.1142281 -0.063552305
0.06076154 -0.03457269 0.14570647 -0.033528194 0.07831168 0.10875878 0.16293904 -0.05369164
0.13123378 -0.15679166 0.18121529 0.058580905 -0.07666743 0.14349818 0.014223754 -0.0053957105
0.12056738 -0.15207721 0.09920958 0.10756123 0.090114534 0.045546517 -0.072441444 0.11030182
-0.105519086 0.12705112 -0.048887208 0.112127095 -0.1610251 -0.12337975 0.09851688 0.16122258
-0.13355908 0.13538077 0.12905163 -0.19918591 -0.0558884 0.075215906 0.1321244 -0.1452485
-0.05483614 0.038312122 0.102611214 -0.0077407956 0.12468845 0.15006906 -0.16337319 0.024269015
-0.19664639 -0.011527747 -0.014764562 -0.017647207 0.10805893 0.1801756 -0.04578437 0.0068800747
-0.04911147 0.13221544 0.15819687 -0.11234784 -0.121568486 0.202586 0.04400751 -0.15448345
-0.18928999 0.06153375 0.08815378 -0.0017390102 0.022361413 -0.0717631 -0.14894202 0.044600427
-0.17340365 0.0070127696 0.15403712 0.14713821 -0.16513298 0.1977292 0.047872424 0.018174276
0.035176396 0.009240627 -0.036730245 -0.044595405 0.09935939 -0.05296655 -0.19652614 -0.06972836
-0.047551587 -0.102235526 -0.032041937 -0.1263943 0.1585541 0.14274564 0.044375733 -0.02715294
-0.1458676 0.03377536 0.14709747 0.13412488 0.031710997 0.1266022 0.10025659 -0.18849926
0.00042790174 -0.18030822 -0.20291819 -0.011174917 -0.15512347 0.15455857 -0.03900294 0.096872866
0.17817277 0.057252705 0.18979132 0.051927626 -0.16345558 0.06034541 -0.07285319 0.12225437
0.0044433028 -0.17143762 0.1794549 -0.13121752 0.1376212 0.100706786 0.07095769 0.1750215
0.1539101 0.1456629 -0.1501275 -0.030933857 0.1613408 -0.09823773 0.08120549 0.059981167
0.042926088 0.09685418 0.0139345825 -0.199066 -0.18324398 0.049199313 0.088932425 0.14882934
0.037249595 -0.10797675 -0.13834658 0.13843974 0.16231647 -0.010206267 -0.03474404 0.06824395
-0.08406738 -0.12389365 -0.074067 0.07070568 0.16285458 0.07360694 -0.114159204 0.16110247
0.0944767 0.047676116 -0.009605184 -0.11794842 0.17247841 -0.0561648 -0.11946444 0.17687428
-0.014412925 -0.010086209 0.0816665 0.10633588 -0.05000034 -0.08067033 0.063664585 -0.011702225
-0.07939394 -0.12968582 0.06632158 -0.00046911836 0.13245824 -0.1630169 0.17206693 -0.0794392
0.18904954 -0.17217542 -0.1409345 -0.0107329935 -0.11706166 0.17962426 0.1957803 0.120967746
0.15126541 0.16755489 0.19235724 -0.20272434 -0.16387604 0.03649701 0.08326182 -0.100777075
-0.096252896 -0.15125401 -0.10144693 -0.0028125644 -0.10794969 -0.16372535 0.06450361 -0.043722883
-0.10469681 -0.13931318 -0.1690222 0.052917242 0.04711792 0.12314597 -0.06438589 0.15877086
0.14330104 -0.19103944 -0.19771561 0.09833133 -0.07938109 -0.16755451 0.014253199 -0.16977972

rnn.weight_hh_l1 f4 [72, 24]
00000000: 70d7 ba3c 62d9 103e e024 77bd 4178 d7bd
00000010: 0b21 a9bd 4287 313e 200d 573c 94ad 383d
00000020: 3820 403e fcdc bf3d 007d 02bd 2aa0 95bd
00000030: 3e88 c3bd 643a 02be d868 1cbd d06b 963d
00000040: e894 f03c 0484 1abd 3017 963d eced 863d
00000050: ba30 91bd 4053 663b 6029 09be bb81 aabd
00000060: d08b 573d 1ea3 123e 2867 023e 623e 47be
00000070: 3796 22be 920a e2bd a27b c1bd 8020 bf3c
00000080: 4c93 113e 9ef1 eebd c0ea f83d 88fd 2f3e
00000090: b053 e73c fff2 1ebe df47 e2bd f811 8bbc
000000a0: 0087 a63d b002 b53d b706 39be f4a9 143e
000000b0: a8cf 4a3d b81a 843d fb60 cebd f1f7 b8bd
000000c0: dc5c 2bbd 1523 27be 304e 903c a40a 2e3e
000000d0: 272a f2bd 2a1f 103e 40c1 3a3b e034 493d
000000e0: 1047 21bd 2977 26be c06a da3c 2c16 64bd
000000f0: 95fa efbd 98f8 ffbc 5ed1 9bbd 6287 37be
00000100: cfb7 4abe 6d12 e8bd 5c4d 4cbe e413 fa3d
00000110: 00bd 9e3a f8df e2bd d370 31be f099 53bc
00000120: 7622 41be 44e9 0d3e 20b3 74bc 929d 403e
00000130: 88ec 443e a058 bebc d607 fabd 9ecf a9bd
00000140: 8483 013e 40f0 6e3c 6872 16be ec44 de3d
00000150: fe47 18be 28e7 eb3d a845 b23c 7873 9dbc
00000160: 220e 4ebe ecec ad3d e417 0fbe 103f 57bd
00000170: f83f de3c f095 973d 20b1 e6bd e02d fc3c
00000180: 749f 7ebd f47c 6dbd aa41 3a3e 3acb 93bd
00000190: 25b8 29be 202a 403d b456 0b3e 0f1d 15be
000001a0: f41d 893d 70e6 723c e060 1fbc 809f 1b3d
000001b0: 3f39 ffbd b816 0f3d 0f3e d4bd 4c6b d93d
000001c0: 2eca 083e 93d5 0abe 5e45 4fbe a85a 103e
000001d0: 4ae7 0ebe 9031 27bd f2a7 053e e072 94bc
000001e0: 8830 c8bd 2e9e 34be 4434 973d 98c2 213e
000001f0: 307f 9e3d 4078 933c 4a78 0abe 9032 6c3c
00000200: 7ea7 82bd ccfa 57bd 47c2 08be cc6b 0cbe
00000210: 9b52 49be d802 c73d a243 2abe 6a81 283e
00000220: 0668 23be 8c5e f33d 18d0 9d3d c819 2cbe
00000230: 3dba bfbd 5367 19be d077 6ebd d88a 28bd
00000240: 1048 ad3d b4df f03d c23d 263e 4638 4dbe
00000250: cc9d 2bbe 4803 bc3d dcf1 aabd 40d1 abbb
00000260: 4e34 2f3e 084f d93d 785e 7bbd 3491 03be
00000270: 9202 133e f058 bc3c fc9b 193d 552d 4abe
00000280: f437 2c3d 32bb a9bd d8c8 8abc 00f2 e33d
00000290: 863f 16be 74ba 873d e07c 5e3d 9479 5cbd
000002a0: 40c8 903c 96da 343e 164c 89bd 2e33 c1bd
000002b0: c2ef a9bd d875 d33d a6e6 163e f460 36bd
000002c0: a85e 0e3e 041b 323d 9c0f 16be 5673 013e
000002d0: 783a 173e 201a 833d dadb 183e 3c8f 29bd
000002e0: 60d3 2cbe b066 e73d 1f4c 1dbe 90da 363e
000002f0: 87e3 32be 70d5 fe3d 346a b93d aabe 243e
00000300: 048e 493e 7db9 0cbe 604b e1bc c016 6abb
00000310: a2be 3ebe 4619 1b3e 4ce2 403e 506b 24bd
00000320: f03d 2abe 1e73 113e 4c3c b13d 6ce5 8ebd
00000330: ac9a d23d 60e0 743d 57b4 c5bd 123f 8abd
00000340: 06d1 01be 88d7 d03c 6a13 023e e876 b9bc
00000350: dbd0 d7bd 98cc 813d f70f 39be 68db aa3c
00000360: 62b5 233e 7e66 1b3e ac6c 933d 4035 813d
00000370: 5a07 84bd bc07 50bd 1d60 13be f8d1 ed3c
00000380: a359 f2bd c21c ccbd cc6a 283e 005a 4fba
00000390: d001 fd3d 04dd c9bd 0834 363d 22ab 28be
000003a0: 1ef4 2f3e ecf6 273e 0e65 503e a817 213e
000003b0: 24ed 2dbd b446 11bd d348 28be 4655 18be
000003c0: 04f6 23be 583b 4a3e 3b10 bfbd e801 513d
000003d0: c0b4 67bb a2e1 e0bd 9067 433d de2a 123e
000003e0: 38ba 503d e2a7 3c3e 7829 3e3d 9b44 14be
000003f0: f0cc 71bc e82e d6bc 5bc6 b7bd 6ac6 ccbd
0.022807807 0.14145425 -0.0603379 -0.105209835 -0.082582556 0.17336753 0.013125688 0.045087412
0.1876229 0.09368321 -0.03185749 -0.073059395 -0.095474705 -0.12717587 -0.038185924 0.07344782
0.029367879 -0.037723556 0.073286414 0.06588349 -0.07089372 0.0035144836 -0.1339469 -0.083255254
0.05262357 0.14320037 0.12734663 -0.19457391 -0.15877615 -0.110371724 -0.09447409 0.023330927
0.14216346 -0.116671786 0.1215415 0.17186558 0.028238147 -0.15522383 -0.110488646 -0.016976342
0.08131218 0.08838403 -0.18068968 0.14517957 0.049514443 0.06450409 -0.10077091 -0.09031666
-0.041836604 -0.16321976 0.017615408 0.16996247 -0.11824446 0.14074388 0.0028496534 0.04912269
-0.03937441 -0.16256393 0.02666223 -0.055685207 -0.117177166 -0.031246468 -0.07608293 -0.17922738
-0.1979668 -0.113316394 -0.19951385 0.12210825 0.001211077 -0.11077875 -0.17328195 -0.0129151195
-0.18860802 0.13858515 -0.014935285 0.18810108 0.19230855 -0.023235619 -0.12208526 -0.08291553
0.12647825 0.014583647 -0.1469208 0.108529896 -0.14871213 0.11518699 0.02176173 -0.019220099
-0.20122579 0.08492455 -0.13973957 -0.052550375 0.027130112 0.07401645 -0.11264253 0.030783594
-0.062163785 -0.057980493 0.18189111 -0.07216497 -0.16574152 0.046915174 0.13607293 -0.14561866
0.06695166 0.014825448 -0.009727687 0.037993908 -0.12462091 0.034933776 -0.10363399 0.106161684
0.13358375 -0.13558035 -0.20241305 0.14097083 -0.13955417 -0.04081875 0.13052347 -0.018121183
-0.097748816 -0.17638466 0.07383016 0.15796888 0.07739103 0.018001676 -0.13522449 0.014416352
-0.06379603 -0.052729413 -0.13355361 -0.13712996 -0.19660418 0.09717339 -0.16627362 0.16455618
-0.1595765 0.11883268 0.07705706 -0.1680671 -0.09361694 -0.14980821 -0.05821973 -0.041148037
0.084610105 0.11761418 0.16234496 -0.20040998 -0.16759413 0.09180313 -0.08346912 -0.0052434504
0.17109796 0.10610777 -0.06136939 -0.1284836 0.14356449 0.022991627 0.037502274 -0.19743855
0.04204555 -0.08287658 -0.016941473 0.11130142 -0.1467267 0.0662736 0.05431831 -0.053826883
0.017673612 0.17661509 -0.06703965 -0.0943359 -0.08297683 0.10325211 0.14736423 -0.044526055
0.13903296 0.043482795 -0.14654392 0.12641653 0.14768398 0.06401467 0.14927617 -0.041396365
-0.16877508 0.11298883 -0.15361069 0.17856812 -0.17469607 0.12443054 0.0905346 0.16088358
0.19683081 -0.13742633 -0.027501762 -0.0035719126 -0.18627408 0.1514636 0.18836325 -0.040141404
-0.1662519 0.1420407 0.08654079 -0.069773525 0.102834076 0.059784293 -0.09653538 -0.06750311
-0.12677392 0.025493398 0.12702718 -0.022639707 -0.10537883 0.06337851 -0.18072496 0.020856574
0.15987161 0.15175816 0.07198462 0.06308985 -0.06446715 -0.050788626 -0.14392133 0.029030785
-0.11833503 -0.099664226 0.1644699 -0.00079098344 0.12353861 -0.098566085 0.044483215 -0.16471532
0.17182967 0.16402787 0.2035105 0.1573168 -0.042462483 -0.03546782 -0.1643403 -0.14876279
-0.16011816 0.197492 -0.093292676 0.05102721 -0.0035355538 -0.10980536 0.047706187 0.14274165
0.050958842 0.18423417 0.046426266 -0.14479296 -0.014758334 -0.026145414 -0.0897338 -0.09998782

rnn.bias_ih_l1 f4 [72]
00000000: f25f 2d3e 4a18 343e a88d 013e fc50 12bd
00000010: 1ac2 33be e051 25bc 88c1 c5bd e6b1 a3bd
00000020: e4cf e83d 3e0f eabd a01a a83b a671 3fbe
00000030: 5454 283e d89e 3c3e 4e26 1f3e e41b 2ebd
00000040: 6682 4b3e 206a d43d 68df cf3c cdb3 c2bd
00000050: a877 823c 45ca dcbd d4e8 27bd 8896 2bbe
00000060: e84d e53c 24cb e73d 687f d7bc 0ca0 bc3d
00000070: cc49 473e 249b 03be 19f7 3ebe f6fe 0dbe
00000080: ced7 343e 9063 b63d 9e5f 18be 06ab 8cbd
00000090: e895 f0bc 105a 6e3d 10d5 193d 403d 5abb
000000a0: 5874 80bc b027 68bc 9c85 d73d 8858 1fbd
000000b0: 800c 12bd 0fea 4ebe ee81 ccbd de7e 2ebe
000000c0: 70bb 37bc 660e 86bd 457d 41be 8e95 94bd
000000d0: 52af 23be 2c71 073e 438f c3bd 30d5 183e
000000e0: 88cd 09bd b006 e13d b8e4 3e3d 4233 e5bd
000000f0: 208b 27bd 98c5 893d 9692 80bd b9fc 20be
00000100: 5030 423c 25b7 e2bd 303a 17be 0bf2 adbd
00000110: 0e2c acbd f8e9 ee3d caee 2fbe 94df e23d
0.16931131 0.1758739 0.12651694 -0.035721764 -0.17554513 -0.010090321 -0.09656054 -0.07992916
0.11367777 -0.114286885 0.005130127 -0.18695697 0.16438419 0.18419969 0.15541956 -0.042507067
0.19873962 0.10371804 0.025375083 -0.095069505 0.015926197 -0.10780767 -0.040993527 -0.16756642
0.02799125 0.11318043 -0.02630587 0.09210214 0.19461745 -0.1285215 -0.18648948 -0.13866791
0.17660448 0.08905709 -0.14880225 -0.06868558 -0.029368356 0.05819136 0.037556708 -0.0033300668
-0.015680477 -0.0141696185 0.10523531 -0.03890279 -0.035656452 -0.20206474 -0.099857196 -0.17040583
-0.011214122 -0.06545715 -0.18895443 -0.07255088 -0.15984848 0.13226765 -0.095488094 0.14925075
-0.033643275 0.10987604 0.046604842 -0.11191417 -0.040904164 0.06727141 -0.06277959 -0.15721406
0.011852339 -0.11070088 -0.1476829 -0.08493432 -0.0840684 0.1166572 -0.17180935 0.110778004

rnn.bias_hh_l1 f4 [72]
00000000: 2ec4 103e c882 bd3d 7e65 133e cce3 db3d
00000010: 6cde 92bd 978d f5bd 80eb 31be 9086 873d
00000020: c2a2 373e 60b3 a43c a89c 9bbc f849 163e
00000030: 0c2f 4a3e 5a5a 80bd d0d8 cc3c 8045 643b
00000040: 48ca 023d 6018 3dbd aa50 9cbd 260c b5bd
00000050: d105 b2bd 70fe 7ebd 9069 35be a84c 4b3d
00000060: f860 e93d 0c6a 5bbd 0c5f 213d 7cf4 df3d
00000070: 44db 1ebe 6d95 50be 9094 4f3c 53c5 46be
00000080: 6c2f d83d 8001 133e 4c4d 913d fa0c f6bd
00000090: 80a7 b0bb 1762 41be b06c 00bd 48cf da3c
000000a0: a3d5 28be a708 11be 542b 193e 78b6 51bd
000000b0: a0b7 7b3d 642d 9b3d 6068 393c 3672 0d3e
000000c0: b854 a23c 2b75 a9bd 6805 573d 643b 31bd
000000d0: 505d 463c 37ca 23be 6c41 893d 846d 24bd
000000e0: 5c71 803d 58b4 413e 186e 0c3e 24b4 113d
000000f0: f2db 073e 7661 15be d000 913d fa60 2f3e
00000100: 2212 153e 4848 c63c 2814 1d3d 44a7 dcbd
00000110: b4c6 933d 713b d5bd e4a8 9ebd 3a87 94bd
0.14137337 0.0925346 0.14394185 0.10736808 -0.0717133 -0.11989897 -0.17374992 0.06617463
0.17933181 0.020105064 -0.018995598 0.14676654 0.1974451 -0.06267233 0.025005728 0.0034831464
0.03193119 -0.046165824 -0.07632573 -0.08840208 -0.08692516 -0.06225437 -0.1771605 0.049633652
0.113954484 -0.05356793 0.039397284 0.109353036 -0.1551333 -0.20369501 0.012669697 -0.1941121
0.1055592 0.14356041 0.07094821 -0.12014194 -0.0053910613 -0.18885075 -0.031353652 0.026710168
-0.16487746 -0.14163457 0.14957935 -0.051199406 0.061454415 0.07577017 0.011316389 0.138131
0.019815788 -0.08274301 0.05249539 -0.04326953 0.012107208 -0.15995108 0.06701931 -0.040143505
0.062716216 0.18916452 0.13713872 0.035572186 0.13267496 -0.1458796 0.07080233 0.17126837
0.14557698 0.024204388 0.0383493 -0.10774091 0.07215634 -0.10411728 -0.07747057 -0.07252355

fc.weight f4 [24, 24]
00000000: 9e32 273e a86d 243e 14a0 963d 2c7d 3e3e
00000010: 80ea 2a3b d01d 9bbc 1c2d a13d e0ae 153d
00000020: 40e1 863b 3833 673d 141c 0f3e 7eba 07be
00000030: 00bc 46bd 7ac3 093e bffa 2ebe 6bf6 38be
00000040: 9fd2 2cbe cb9c 4dbe 9066 4dbd d0b9 b33d
00000050: 964e 0d3e 008f 753d 2cf4 f13d 4a3a 1ebe
00000060: 7cc7 21be a892 52bd ceb5 253e 50f4 80bd
00000070: 10d1 e3bc 484e 06be 3c1f 1d3e 6d81 b2bd
00000080: 90ac 063d a89d 603d 704e f5bd 275e dfbd
00000090: d035 f83d ea6a ecbd 940f 2a3e e8a6 853d
000000a0: ba36 043e b647 80bd 0847 2dbd 35bb 42be
000000b0: 04f5 c33d 2cce 433e ee77 04be 843a e93d
000000c0: 2639 cbbd 8561 25be 28df 17be dc9b 19be
000000d0: 4830 c03d 849a 24be 807b 363e 6851 673d
000000e0: 9e62 2f3e 70e9 3fbd fcc1 04bd 60c4 1ebc
000000f0: 0cbb 54bd 8445 3f3e 60b3 993b c140 d3bd
00000100: 46aa 18be 5434 153e 68de 59bd 6e34 04be
00000110: b52a fdbd 3230 4cbe c203 e2bd c88c a83c
00000120: 3c0d 77bd c038 4b3b b813 1cbe a0e3 0b3e
00000130: 1e96 8bbd c84e 473e 6825 763d 526f f7bd
00000140: 842a 043e 406c bfbd f322 f4bd 5449 9b3d
00000150: 1029 103e 88e2 8f3d 50f5 a23c 6863 9bbc
00000160: bd99 c6bd 276a e1bd cf82 dabd 1aa9 f2bd
00000170: 7a68 063e a884 bfbd 5e48 403e 36a8 3c3e
00000180: 30de 953d 72d6 8ebd d131 aabd b8ed b53c
00000190: 7e34 0abe 0c27 0f3d 5f53 34be 1092 663c
000001a0: 5e25 2dbe 30c7 523d bc9f 0dbd 0ad0 4ebe
000001b0: 72ad 47be 381b b9bc a08b 4d3c ffa6 4cbe
000001c0: 10a0 17bd 08df e6bc 74df b2bd 2288 f4bd
000001d0: ccbf 86bd e0f9 d93c 1856 fe3d 70b8 bd3c
000001e0: 20ab 88bb a225 13be eaa9 013e c4b8 1bbe
000001f0: e052 5c3d 7066 f0bd 85c6 c6bd 1098 c3bc
00000200: 6091 503c 6014 bbbb 002c 7d39 147a 853d
00000210: d807 81bd 607b 813b 28c6 7dbd 4f61 1cbe
00000220: b87e 93bc 6585 24be b017 73bd 0409 a63d
00000230: 04c1 243e 949e ed3d a81a d23c 606d 93bc
00000240: 2cce ec3d 9b7b 44be 9d44 babd 6c3e 34bd
00000250: 2d02 04be 63e0 dfbd ef2f acbd 30a1 3fbd
00000260: e472 1c3e 72de 17be 208e f7bc 584b cbbc
00000270: a7c0 2abe c87d 1e3e 7843 b43c 07cb c0bd
00000280: 50e3 8f3c 6146 b0bd a896 c63d 625e 093e
00000290: adea 1fbe 40d1 0b3e e0c3 edbc 8bc1 f8bd
000002a0: 00a8 0339 c346 f4bd b81c c1bc e67b 053e
000002b0: 2443 863d d074 b63d c46d 1f3e 84eb 073e
000002c0: 78f9 91bd 0e96 173e b82c 913d 704f 77bc
000002d0: f4ab 17bd 8e35 01be 2088 b53c a07b aebb
000002e0: f8f3 3bbd 2c24 15be c2d7 0cbe f69f 0c3e
000002f0: ba7c 4fbe 60db 4b3e 38d3 8a3d 892b 3dbe
00000300: 5c8b 9e3d a831 593d ba8a 4e3e b0c3 7a3d
00000310: a0be 2dbd 02bc a1bd c2f7 2d3e 9348 d8bd
00000320: b043 6a3c e1e6 08be 2035 c3bc 0c8d 20be
00000330: 702a 6d3d 886c d73d 8a15 0cbe 0ede 15be
00000340: 2485 3e3e b0f7 863c 7889 1e3e 8429 423e
00000350: 984c 2fbd e0ab a33d fc88 68bd 6017 db3b
00000360: ccf0 62bd cabf 403e 20a6 863d bc4d 3bbd
00000370: 18c4 abbd 3085 243e 201c 9e3b bc88 a93d
00000380: 9227 083e 6cdb 4fbd 6a8f 40be 0b1c 16be
00000390: 304e 63bc 5a64 cebd 0067 043d 02ee 0b3e
000003a0: 7a69 b8bd a7f6 34be e528 4bbe 9629 473e
000003b0: afcf 14be 1890 d93c 40b0 d33b 9ea6 16be
000003c0: e065 67bc 3cb6 9abd 08d0 783d 8951 3bbe
000003d0: b8ec 96bc 0039 4d3a 8e41 4a3e 60a7 b5bc
000003e0: 147b 42be 4c62 1b3e 9041 e4bc b8d5 b83d
000003f0: 5090 023e c4d7 e03d 207d 78bd de86 47be
0.16327903 0.16057456 0.07354751 0.18602437 0.0026079714 -0.018935114 0.07869932 0.036543727
0.0041162074 0.05644533 0.13975555 -0.13254735 -0.048519135 0.13453475 -0.1708784 -0.18062751
-0.1687722 -0.20079343 -0.05014664 0.08775675 0.1379951 0.05995083 0.1181415 -0.15451923
-0.15798753 -0.051409394 0.16182634 -0.06296599 -0.02780965 -0.131158 0.15343946 -0.08716092
0.032879412 0.054837853 -0.119778514 -0.1090663 0.12119639 -0.1154383 0.16607505 0.065259755
0.12911502 -0.06263678 -0.04230407 -0.19016726 0.095682174 0.19121617 -0.12936375 0.11388114
-0.099230096 -0.16150482 -0.14831221 -0.15000862 0.09384209 -0.16074568 0.17820549 0.05647412
0.17127463 -0.046853483 -0.03241156 -0.009690374 -0.051936194 0.18678862 0.0046905726 -0.10315085
-0.14908704 0.14570743 -0.05319062 -0.12910625 -0.12361661 -0.1994026 -0.11035873 0.020574942
-0.060315356 0.0031009167 -0.15241897 0.13661051 -0.06815742 0.19463646 0.060094267 -0.120817795
0.12906843 -0.09346819 -0.119207285 0.075823456 0.14078164 0.07025629 0.019892365 -0.018968299
-0.09697292 -0.11006575 -0.10669481 -0.1184866 0.13125792 -0.09351474 0.18777606 0.18423542
0.073177695 -0.06974496 -0.08310283 0.02220808 -0.13496587 0.034949347 -0.17609929 0.01407291
-0.16908786 0.05145949 -0.034576163 -0.20196548 -0.19499758 -0.022595987 0.012545496 -0.19985579
-0.037017882 -0.028182521 -0.087340266 -0.11940028 -0.06579551 0.026608407 0.12418765 0.023159236
-0.0041707903 -0.14369825 0.12662473 -0.15207201 0.053789973 -0.117382884 -0.09705833 -0.02387622
0.012729973 -0.005709216 0.00024144351 0.06517425 -0.06300324 0.003951475 -0.061956555 -0.15271495
-0.01800476 -0.16066511 -0.059348762 0.08107188 0.16089255 0.11602512 0.025647476 -0.01799649
0.11562762 -0.19187777 -0.09095118 -0.044004843 -0.12891455 -0.1093147 -0.0840758 -0.04678458
0.15278202 -0.1483095 -0.030219138 -0.0248162 -0.16675054 0.15477669 0.022004828 -0.094137244
0.017564446 -0.08607174 0.09696704 0.1341491 -0.15616865 0.13654041 -0.029024065 -0.121462904
0.00012555718 -0.11927559 -0.023573264 0.13035545 0.06555775 0.08908999 0.15569216 0.13273436
-0.071276605 0.14803335 0.070886075 -0.015094623 -0.03702922 -0.12618086 0.022159636 -0.005324796
-0.045886964 -0.1456458 -0.1375418 0.13732895 -0.20262423 0.19907904 0.06778568 -0.18473639
0.077414244 0.05302587 0.20170107 0.06122178 -0.042418122 -0.07897188 0.16989043 -0.105607174
0.0142983645 -0.13369323 -0.023829043 -0.15678805 0.0579018 0.105187476 -0.13680092 -0.14635488
0.18605477 0.016475528 0.15482128 0.1896115 -0.042797655 0.07991767 -0.056771263 0.006686136
-0.055405423 0.18823162 0.065746546 -0.04572843 -0.08387011 0.16066432 0.00482513 0.08278033
0.13296345 -0.050746366 -0.18804708 -0.14659135 -0.013873622 -0.10077734 0.03232479 0.13665012
-0.09004493 -0.17672215 -0.19839819 0.19449458 -0.1453235 0.026557967 0.0064602196 -0.14711997
-0.01412341 -0.0755429 0.06074527 -0.18292822 -0.018423423 0.0007828623 0.1975157 -0.022174537
-0.18992263 0.15174216 -0.027863294 0.090251386 0.12750363 0.10978654 -0.060666203 -0.19485041

fc.bias f4 [24]
00000000: e07d 4a3d 7c41 193d dca8 11be d8cc 553d
00000010: 9a26 92bd 4cee f63d 249a 823d 901a 2c3d
00000020: 305c c23d 767a 30be e8ff 9c3d 988b 70bd
00000030: 0035 9f3a 70f1 443e 0443 323e 58e3 843d
00000040: 54a0 ca3d d2fb 373e 702f f53d 88bb 423d
00000050: 2a44 a5bd fca1 ee3d a01c 4cbc ec43 c23d
0.04943645 0.037415966 -0.14224571 0.052197307 -0.07136269 0.1205717 0.06377056 0.04201752
0.094902396 -0.17234215 0.07665998 -0.058726877 0.0012146533 0.19232726 0.17408377 0.06488675
0.098938614 0.17967156 0.119719386 0.047542125 -0.08069642 0.1165199 -0.012457997 0.09485611
